MentorMix/checkpoint/MentorNet/MentorNet_Fold_2_Epoch_1.pt (torch, 6655 bytes, 7 tensors)

embedding_layer1.weight f4 [2, 2]
-1.1739491 1.3146632 0.3202822 -0.04446319
00000000: f743 96bf e246 a83f 07fc a33e 091f 36bd

embedding_layer2.weight f4 [101, 5]
2.0879188 1.5009611 -0.45421097 -0.053165827 0.33550942 0.8960336 -0.9131245 0.22209883
2.3992677 0.024942685 1.6085908 0.9735401 -1.3202235 0.91245025 2.027868 0.4544703
1.5551693 0.9309372 -0.42388624 -1.9139578 0.8915239 1.4169725 1.2569332 1.2595882
0.39023182 -0.4164424 0.18395945 0.57409096 0.09448406 -0.03555666 -0.005175218 -0.9154438
0.5636944 -0.9464584 -0.14057662 0.2597254 -1.1578075 -1.3699645 -0.18041652 0.6456502
0.31966674 -1.3329968 1.6948701 0.6117981 1.0930016 -1.810879 -0.2673226 -0.18008865
-1.056883 0.9409241 -1.8037975 0.45810324 1.5515237 0.43428877 0.4349369 0.5332939
-0.28198463 0.57377243 -1.4071566 1.500491 1.6254936 0.96509755 0.20084518 -0.12304263
0.25451306 -0.9659184 -2.0737052 1.6326228 -1.8301901 -1.1747425 -0.04414257 0.40889248
0.482073 1.7429023 -0.77667135 1.901187 0.87826455 0.9624908 -0.19021517 -1.4811308
0.91998583 -1.5347229 0.12308578 -0.666572 -1.1208633 1.2822317 0.9033694 0.363537
-0.25730366 -1.0597578 -0.013341581 -0.60158235 -0.13531642 0.4625955 -0.9702104 -0.6966996
0.34305233 1.629288 -1.2041329 0.25653958 -0.7032057 -0.8452864 -0.54916984 -0.09348664
-0.6600257 0.8479924 0.07078407 0.63955855 -0.23470163 0.631847 -2.0521681 -1.4369794
1.0554612 -0.20439987 0.24303901 -0.029711993 -1.5992196 2.3168929 -0.45822704 -1.1189729
0.26113272 -0.7974768 0.2162447 0.9814972 0.36496893 0.23529528 -0.32557333 0.22720474
0.008798593 -0.1995536 -0.63558835 -0.046193656 -0.98087674 -0.141001 0.7540015 0.13076752
0.29844514 -0.7659726 0.75272816 -0.05177682 0.07095669 -0.94751364 -0.77582926 -2.1362367
-1.8243952 -0.32777056 0.092128396 1.4027742 0.027142737 0.06917377 0.5993461 0.9809561
0.7180273 1.3775033 0.5332679 -2.0470936 0.57769895 -1.1823194 -0.21629679 -1.2150942
0.008132411 -0.39826998 0.21956861 -0.9013469 -0.655931 0.40613213 -0.02365569 0.4066204
0.083772846 1.3168442 -0.0062454436 -0.7024383 0.67415845 0.3680233 1.9527997 -0.411912
0.15158328 0.24597493 0.12270807 0.2583862 -0.58666015 0.5244999 0.21786307 -1.1335088
0.6115414 -0.667791 0.48405567 0.7146662 -1.6825899 -0.026593393 0.15425602 1.3493015
-0.65320694 -2.7878838 0.4396071 -0.9486473 0.27339926 -0.6335527 -1.2298791 0.47092646
-0.18803841 0.39120305 -1.3688196 -0.09707326 1.4112867 -1.1409979 -1.0490938 -1.0374506
-1.5671287 1.9777335 -0.6452641 0.43015963 4.1636887 1.1536481 0.91541624 -0.77532685
-0.8780456 0.2776668 2.1541655 0.98781353 0.08856774 1.8714055 0.9946557 0.84601015
0.22488117 1.1322514 0.7466037 0.8957837 0.24718592 0.55532175 0.33388487 1.6365747
0.27417573 -0.10773076 0.16330694 -0.8089285 1.0775397 0.45575505 0.017589556 -0.20480037
0.6285033 -0.915623 0.31887802 -1.1935332 0.48199147 0.008720966 0.18951218 -0.011751132
-1.3773214 0.98761475 -0.79525965 -1.1723896 0.3392326 -0.042422026 -0.66753185 -1.6054405
00000000: 76a0 0540 7e1f c03f 578e e8be 69c4 59bd
00000010: e4c7 ab3e 7562 653f 87c2 69bf e06d 633e
00000020: 9a8d 1940 9a54 cc3c 4ee6 cd3f ed39 793f
00000030: 15fd a8bf 5796 693f 97c8 0140 55b0 e83e
00000040: ca0f c73f e651 6e3f 9e07 d9be 92fc f4bf
00000050: e93a 643f 5b5f b53f 30e3 a03f 303a a13f
00000060: 77cc c73e f037 d5be de5f 3c3e a0f7 123f
00000070: dc80 c13d dca3 11bd e094 a9bb 865a 6abf
00000080: 474e 103f 194b 72bf 51f3 0fbe bafa 843e
00000090: 0933 94bf ff5a afbf 1cbf 38be 5549 253f
000000a0: 5cab a33e a49f aabf 81f1 d83f cd9e 1c3f
000000b0: 7ae7 8b3f e2ca e7bf 82de 88be 2969 38be
000000c0: f147 87bf 67e0 703f d6e2 e6bf 828c ea3e
000000d0: 5498 c63f 195b de3e 0db0 de3e f385 083f
000000e0: 4a60 90be c0e2 123f b51d b4bf 1710 c03f
000000f0: 2d10 d03f a210 773f 5caa 4d3e c6fd fbbd
00000100: 894f 823e 6e46 77bf 96b7 04c0 c9f9 d03f
00000110: ab43 eabf f65d 96bf d7ce 34bd 5b5a d13e
00000120: 46d2 f63e 6c17 df3f efd3 46bf 185a f33f
00000130: f2d5 603f cc65 763f c4c7 42be b295 bdbf
00000140: 3184 6b3f cd71 c4bf 6614 fc3d 76a4 2abf
00000150: 7378 8fbf 2b20 a43f 3843 673f 8621 ba3e
00000160: 4ebd 83be 25a6 87bf a696 5abc 4d01 1abf
00000170: 6390 0abe 51d9 ec3e b55f 78bf e85a 32bf
00000180: 8ea4 af3e 828c d03f 0721 9abf 2859 833e
00000190: 4a05 34bf b164 58bf 6596 0cbf ec75 bfbd
000001a0: 72f7 28bf 0816 593f 3df7 903d 1cba 233f
000001b0: a055 70be bac0 213f b956 03c0 f1ee b7bf
000001c0: 5a19 873f 334e 51be 38df 783e 9166 f3bc
000001d0: 3ab3 ccbf f947 1440 bc9c eabe 813a 8fbf
000001e0: 30b3 853e 7127 4cbf 406f 5d3e 6743 7b3f
000001f0: 35dd ba3e 3ff1 703e 8cb1 a6be 5ca8 683e
00000200: f927 103c c757 4cbe ebb5 22bf 8f35 3dbd
00000210: bd1a 7bbf 9162 10be 3e06 413f ece7 053e
00000220: cdcd 983e c816 44bf cbb2 403f ee13 54bd
00000230: be51 913d 4190 72bf bf9c 46bf 1ab8 08c0
00000240: c885 e9bf 8bd1 a7be d0ad bc3d 1b8e b33f
00000250: 725a de3c faaa 8d3d bf6e 193f f01f 7b3f
00000260: a3d0 373f 0752 b03f 3f84 083f 9503 03c0
00000270: 14e4 133f 3e56 97bf e87c 5dbe 3588 9bbf
00000280: ce3d 053c 0bea cbbe 98d6 603e acbe 66bf
00000290: 18eb 27bf 8df0 cf3e 94c9 c1bc 8d30 d03e
000002a0: 1991 ab3d 5a8e a83f 94a6 ccbb ffd2 33bf
000002b0: a695 2c3f 8d6d bc3e 57f5 f93f 21e6 d2be
000002c0: a638 1b3e dae0 7b3e 5e4e fb3d 324b 843e
000002d0: 5c2f 16bf a045 063f 7f17 5f3e d116 91bf
000002e0: fa8d 1c3f 5af4 2abf 25d6 f73e 5df4 363f
000002f0: 1b5f d7bf 63da d9bc 4af5 1d3e e9b5 ac3f
00000300: 9238 27bf b06c 32c0 2f14 e13e 8dda 72bf
00000310: fdfa 8b3e 8230 22bf ae6c 9dbf 461d f13e
00000320: 248d 40be c44b c83e 7b35 afbf 58ce c6bd
00000330: 0ba5 b43f 380c 92bf b548 86bf 2ecb 84bf
00000340: ac97 c8bf 5f26 fd3f 0730 25bf e23d dc3e
00000350: f03c 8540 beaa 933f b858 6a3f d27b 46bf
00000360: 99c7 60bf 582a 8e3e d9dd 0940 59e1 7c3f
00000370: 0163 b53d 378a ef3f c2a1 7e3f 1f94 583f
00000380: 4047 663e 9ded 903f 6c21 3f3f 1552 653f
00000390: 4e1e 7d3e 9129 0e3f f5f2 aa3e 487b d13f
000003a0: c360 8c3e f2a1 dcbd ef39 273e f015 4fbf
000003b0: d2ec 893f ba58 e93e f917 903c 30b7 51be
000003c0: 98e5 203f 4566 6abf fb43 a33e b2c5 98bf
000003d0: 96c7 f63e 62e2 0e3c 7b0f 423e d287 40bc
000003e0: 114c b0bf 52d4 7c3f 2396 4bbf dd10 96bf
000003f0: e5af ad3e b8c2 2dbd 5ee3 2abf 137f cdbf

rnn.weight_ih_l0 f4 [1, 2]
-0.7880332 0.6935405
00000000: 8bbc 49bf df8b 313f

rnn.weight_ih_l0_reverse f4 [1, 2]
0.27106908 -0.79360217
00000000: 91c9 8a3e 8329 4bbf

fc1.weight f4 [20, 9]
0.36152124 -0.4057868 0.05337913 -0.1063763 0.104045644 -0.32918134 0.22757143 -0.31414863
-0.27648515 0.41725606 -0.3705389 -0.009306321 0.17790923 0.39011732 -0.30749092 0.10937845
0.40545952 0.313146 0.29503763 0.3892821 0.439877 0.1578147 0.07173102 0.12414522
-0.28096405 -0.347699 -0.19912913 -0.004502229 -0.36341205 0.15486003 -0.21941581 -0.060173605
0.025403593 -0.3002517 -0.009795363 0.29214317 0.210179 -0.092451826 -0.3416564 0.2029816
-0.3810421 -0.09065731 0.43140104 0.011420123 0.38672486 0.12792507 -0.3094315 -0.14814825
0.13017175 0.24924058 -0.3052654 0.23520677 0.420945 0.07491479 -0.15107788 -0.340858
0.4385562 -0.39637962 0.26662567 0.052833684 -0.35566768 0.28940877 0.3081757 -0.31711718
-0.39051878 0.28198165 -0.18792336 0.34822595 0.29816738 -0.022201642 0.3642115 -0.052713133
-0.2667947 -0.39630273 -0.039759282 0.13019839 0.24213272 0.24467614 -0.43371475 0.04935463
-0.05740637 -0.23302904 0.2801962 0.19917104 -0.30912536 0.1513905 -0.04995824 -0.46770817
0.37321186 0.15013033 0.31210798 0.12715381 0.41415468 0.37223843 0.37910905 0.36319643
-0.2787669 -0.23144375 -0.013437129 0.30051783 0.3230281 -0.3943128 0.054219827 -0.12433843
-0.06545401 0.04652776 -0.38857418 -0.14318861 0.44706455 -0.25603956 -0.022366753 -0.31119558
-0.038474217 0.034249816 -0.3763882 -0.28217313 0.16610864 -0.2605899 -0.31000406 -0.10506677
0.34753296 0.22499116 0.36177123 -0.18665574 0.25855651 0.045531034 0.05780376 0.3945249
0.09774851 -0.37471202 -0.011380994 -0.11018544 -0.36450905 -0.02399511 0.15112276 0.34671763
0.4114204 0.35289115 0.052091964 -0.09653703 0.008621423 0.27823266 0.15515247 0.3141112
-0.075193204 0.38122186 0.14004177 -0.3795778 -0.35890266 -0.35839662 0.39845657 0.22155993
0.17585774 0.36166084 -0.05501311 0.056453425 -0.14701316 -0.34799567 -0.009536614 -0.07498546
-0.2973636 0.11706073 -0.18598393 0.3262223 -0.38801688 -0.21909666 -0.15101516 -0.16377147
0.19243906 -0.25126594 0.10404416 -0.42279166 -0.4599783 0.38238528 0.13164936 -0.380235
-0.039204735 -0.27773502 -0.44547814 0.3787539
00000000: 5019 b93e 4ac3 cfbe 13a4 5a3d d1db d9bd
00000010: e215 d53d 758a a8be 7c08 693e 17d8 a0be
00000020: 768f 8dbe 96a2 d53e 46b7 bdbe 8a79 18bc
00000030: d62d 363e 75bd c73e 736f 9dbe cf01 e03d
00000040: 6498 cf3e ac54 a03e 2c0f 973e fc4f c73e
00000050: 8f37 e13e 2d9a 213e b7e7 923d d93f fe3d
00000060: 85da 8fbe 9a05 b2be 82e8 4bbe 6f87 93bb
00000070: 2511 babe a193 1e3e 8aae 60be 9978 76bd
00000080: 321b d03c 97ba 99be bb7c 20bc ca93 953e
00000090: 2a39 573e 6257 bdbd 96ed aebe 69da 4f3e
000000a0: f317 c3be 8aaa b9bd 99e0 dc3e 781b 3b3c
000000b0: cd00 c63e cafe 023e ce6d 9ebe 2db4 17be
000000c0: be4b 053e ec38 7f3e bf4b 9cbe 0bda 703e
000000d0: 1a86 d73e ed6c 993d 29b4 1abe f184 aebe
000000e0: 708a e03e 45f2 cabe 2983 883e 2268 583d
000000f0: 131a b6be 632d 943e 35c9 9d3e 2f5d a2be
00000100: 14f2 c7be e65f 903e fb6e 40be ac4a b23e
00000110: 65a9 983e 38e0 b5bc ee79 ba3e bae9 57bd
00000120: 5199 88be 31e8 cabe a1da 22bd ba52 053e
00000130: a4f1 773e 628c 7a3e dc0f debe 1528 4a3d
00000140: f122 6bbd 2a9f 6ebe e075 8f3e 7ef3 4b3e
00000150: ae45 9ebe 1c06 1b3e 03a1 4cbd 7277 efbe
00000160: a015 bf3e c4bb 193e 9ecc 9f3e 9c34 023e
00000170: 150c d43e 0996 be3e 951a c23e e2f4 b93e
00000180: 89ba 8ebe 97ff 6cbe 6727 5cbc 79dd 993e
00000190: f063 a53e 5ee3 c9be 9c15 5e3d 26a5 febd
000001a0: c10c 86bd e493 3e3d 32f3 c6be 09a0 12be
000001b0: a5e5 e43e 9e17 83be 7b3a b7bc 0755 9fbe
000001c0: 2497 1dbd 8949 0c3d f4b5 c0be ff78 90be
000001d0: 6218 2a3e 0a6c 85be dab8 9ebe 3f2d d7bd
000001e0: d7ef b13e 1564 663e 143a b93e af22 3fbe
000001f0: 8561 843e c07e 3a3d a3c3 6c3d 2bff c93e
00000200: 5f30 c83d 41da bfbe 5977 3abc e7a8 e1bd
00000210: eea0 babe 6591 c4bc edbf 1a3e f984 b13e
00000220: b2a5 d23e 26ae b43e 625e 553d 35b5 c5bd
00000230: de40 0d3c 8374 8e3e 4ae0 1e3e 2fd3 a03e
00000240: e5fe 99bd 832f c33e 1c67 0f3e 0558 c2be
00000250: 17c2 b7be c37f b7be 8002 cc3e 9be0 623e
00000260: 0d14 343e 9c2b b93e 6d55 61bd b53b 673d
00000270: 9e8a 16be 7d2c b2be 753f 1cbc fa91 99bd
00000280: 0b40 98be 89bd ef3d 9272 3ebe 9c06 a73e
00000290: 26aa c6be e05a 60be b8a3 1abe b5b3 27be
000002a0: bf0e 453e eea5 80be 1b15 d53d 2678 d8be
000002b0: 4782 ebbe 01c8 c33e 17cf 063e 29ae c2be
000002c0: 2595 20bd 4933 8ebe b615 e4be 08ec c13e

fc1.bias f4 [20]
0.017307566 0.017078608 0.017083805 0.018372368 0.01785896 -0.006294182 0.014305502 -0.017554255
-0.019153737 -0.017816668 0.0003825267 0.016886597 -0.015069323 -0.019085832 0.019516103 0.017582435
-0.017997134 0.0034316161 -0.013166544 -0.019827249
00000000: 99c8 8d3c 70e8 8b3c 56f3 8b3c a681 963c
00000010: f44c 923c 6d3f cebb a061 6a3c f1cd 8fbc
00000020: 4ce8 9cbc 43f4 91bc dd8d c839 c355 8a3c
00000030: 52e5 76bc e459 9cbc 3ce0 9f3c 0a09 903c
00000040: ba6e 93bc f7e4 603b 7db8 57bc c16c a2bc

fc2.weight f4 [1, 20]
-0.04662599 0.20085824 0.31961438 0.1744833 0.53587216 -0.29978904 -0.0551438 0.4676272
0.25050694 0.5164283 0.31400412 -0.13982753 -0.082310915 0.3078099 -0.2638149 -0.5151704
0.31677073 -0.41621912 0.13875853 0.49579957
00000000: e5fa 3ebd c8ad 4d3e 7fa4 a33e c0ab 323e
00000010: eb2e 093f f37d 99be 77de 61bd d56c ef3e
00000020: 7242 803e a534 043f 26c5 a03e f32e 0fbe
00000030: a092 a8bd 4299 9d3e bf12 87be 35e2 03bf
00000040: c62f a23e ac1a d5be b716 0e3e 71d9 fd3e
