MentorMix/checkpoint/MentorNet/MentorNet_Fold_2_Epoch_5.pt (torch, 6655 bytes, 7 tensors)

embedding_layer1.weight f4 [2, 2]
000000 02 87 96 bf 04 d3 a1 3f 07 fc a3 3e 09 1f 36 bd
       -1.1759951 1.2642522 0.3202822 -0.04446319

embedding_layer2.weight f4 [101, 5]
000000 f7 0e 05 40 b4 c9 c0 3f 1f f3 e6 be 1e e9 7d bd
       2.0790384 1.5061555 -0.45107362 -0.061989896
000010 b3 ed af 3e 75 62 65 3f 87 c2 69 bf e0 6d 63 3e
       0.34361038 0.8960336 -0.9131245 0.22209883
000020 9a 8d 19 40 9a 54 cc 3c 4e e6 cd 3f ed 39 79 3f
       2.3992677 0.024942685 1.6085908 0.9735401
000030 15 fd a8 bf 57 96 69 3f 97 c8 01 40 55 b0 e8 3e
       -1.3202235 0.91245025 2.027868 0.4544703
000040 ca 0f c7 3f e6 51 6e 3f 9e 07 d9 be 92 fc f4 bf
       1.5551693 0.9309372 -0.42388624 -1.9139578
000050 e9 3a 64 3f 5b 5f b5 3f 30 e3 a0 3f 30 3a a1 3f
       0.8915239 1.4169725 1.2569332 1.2595882
000060 77 cc c7 3e f0 37 d5 be de 5f 3c 3e a0 f7 12 3f
       0.39023182 -0.4164424 0.18395945 0.57409096
000070 dc 80 c1 3d dc a3 11 bd e0 94 a9 bb 86 5a 6a bf
       0.09448406 -0.03555666 -0.005175218 -0.9154438
000080 47 4e 10 3f 19 4b 72 bf 51 f3 0f be ba fa 84 3e
       0.5636944 -0.9464584 -0.14057662 0.2597254
000090 09 33 94 bf ff 5a af bf 1c bf 38 be 55 49 25 3f
       -1.1578075 -1.3699645 -0.18041652 0.6456502
0000a0 5c ab a3 3e a4 9f aa bf 81 f1 d8 3f cd 9e 1c 3f
       0.31966674 -1.3329968 1.6948701 0.6117981
0000b0 7a e7 8b 3f e2 ca e7 bf 82 de 88 be 29 69 38 be
       1.0930016 -1.810879 -0.2673226 -0.18008865
0000c0 f1 47 87 bf 67 e0 70 3f ba b2 ea bf 71 0a f1 3e
       -1.056883 0.9409241 -1.8335793 0.4707828
0000d0 75 e4 c2 3f c1 0f d0 3e 85 90 ec 3e f3 85 08 3f
       1.522597 0.4063702 0.4620401 0.5332939
0000e0 4a 60 90 be c0 e2 12 3f b5 1d b4 bf 17 10 c0 3f
       -0.28198463 0.57377243 -1.4071566 1.500491
0000f0 2d 10 d0 3f a2 10 77 3f 5c aa 4d 3e c6 fd fb bd
       1.6254936 0.96509755 0.20084518 -0.12304263
000100 89 4f 82 3e 6e 46 77 bf 96 b7 04 c0 c9 f9 d0 3f
       0.25451306 -0.9659184 -2.0737052 1.6326228
000110 ab 43 ea bf f6 5d 96 bf d7 ce 34 bd 5b 5a d1 3e
       -1.8301901 -1.1747425 -0.04414257 0.40889248
000120 46 d2 f6 3e 6c 17 df 3f ef d3 46 bf 18 5a f3 3f
       0.482073 1.7429023 -0.77667135 1.901187
000130 f2 d5 60 3f cc 65 76 3f c4 c7 42 be b2 95 bd bf
       0.87826455 0.9624908 -0.19021517 -1.4811308
000140 31 84 6b 3f cd 71 c4 bf 66 14 fc 3d 76 a4 2a bf
       0.91998583 -1.5347229 0.12308578 -0.666572
000150 73 78 8f bf 2b 20 a4 3f 38 43 67 3f 86 21 ba 3e
       -1.1208633 1.2822317 0.9033694 0.363537
000160 4e bd 83 be 25 a6 87 bf a6 96 5a bc 4d 01 1a bf
       -0.25730366 -1.0597578 -0.013341581 -0.60158235
000170 63 90 0a be 51 d9 ec 3e b5 5f 78 bf e8 5a 32 bf
       -0.13531642 0.4625955 -0.9702104 -0.6966996
000180 8e a4 af 3e 82 8c d0 3f 07 21 9a bf 28 59 83 3e
       0.34305233 1.629288 -1.2041329 0.25653958
000190 fd 7f 3c bf c3 c5 4e bf 51 67 15 bf 6f c4 07 be
       -0.73632795 -0.8077051 -0.58360773 -0.13258527
0001a0 00 50 21 bf 08 16 59 3f 3d f7 90 3d 1c ba 23 3f
       -0.63012695 0.8479924 0.07078407 0.63955855
0001b0 a0 55 70 be ba c0 21 3f b9 56 03 c0 f1 ee b7 bf
       -0.23470163 0.631847 -2.0521681 -1.4369794
0001c0 5a 19 87 3f 33 4e 51 be 38 df 78 3e 91 66 f3 bc
       1.0554612 -0.20439987 0.24303901 -0.029711993
0001d0 3a b3 cc bf f9 47 14 40 bc 9c ea be 81 3a 8f bf
       -1.5992196 2.3168929 -0.45822704 -1.1189729
0001e0 30 b3 85 3e 71 27 4c bf 40 6f 5d 3e 67 43 7b 3f
       0.26113272 -0.7974768 0.2162447 0.9814972
0001f0 35 dd ba 3e 3f f1 70 3e 8c b1 a6 be 5c a8 68 3e
       0.36496893 0.23529528 -0.32557333 0.22720474
000200 f9 27 10 3c c7 57 4c be eb b5 22 bf 8f 35 3d bd
       0.008798593 -0.1995536 -0.63558835 -0.046193656
000210 bd 1a 7b bf 91 62 10 be 3e 06 41 3f ec e7 05 3e
       -0.98087674 -0.141001 0.7540015 0.13076752
000220 cd cd 98 3e c8 16 44 bf cb b2 40 3f ee 13 54 bd
       0.29844514 -0.7659726 0.75272816 -0.05177682
000230 be 51 91 3d 41 90 72 bf bf 9c 46 bf 1a b8 08 c0
       0.07095669 -0.94751364 -0.77582926 -2.1362367
000240 c8 85 e9 bf 8b d1 a7 be d0 ad bc 3d 1b 8e b3 3f
       -1.8243952 -0.32777056 0.092128396 1.4027742
000250 72 5a de 3c fa aa 8d 3d 88 94 0e 3f 41 4a 83 3f
       0.027142737 0.06917377 0.5569539 1.0257035
000260 d3 3e 2c 3f 5a ac aa 3f 08 18 14 3f 95 03 03 c0
       0.6728336 1.3333848 0.5784917 -2.0470936
000270 14 e4 13 3f 3e 56 97 bf e8 7c 5d be 35 88 9b bf
       0.57769895 -1.1823194 -0.21629679 -1.2150942
000280 ce 3d 05 3c 0b ea cb be 98 d6 60 3e ac be 66 bf
       0.008132411 -0.39826998 0.21956861 -0.9013469
000290 18 eb 27 bf 8d f0 cf 3e 94 c9 c1 bc 8d 30 d0 3e
       -0.655931 0.40613213 -0.02365569 0.4066204
0002a0 19 91 ab 3d 5a 8e a8 3f 94 a6 cc bb ff d2 33 bf
       0.083772846 1.3168442 -0.0062454436 -0.7024383
0002b0 a6 95 2c 3f 8d 6d bc 3e 57 f5 f9 3f 21 e6 d2 be
       0.67415845 0.3680233 1.9527997 -0.411912
0002c0 a6 38 1b 3e da e0 7b 3e 5e 4e fb 3d 32 4b 84 3e
       0.15158328 0.24597493 0.12270807 0.2583862
0002d0 5c 2f 16 bf a0 45 06 3f 7f 17 5f 3e d1 16 91 bf
       -0.58666015 0.5244999 0.21786307 -1.1335088
0002e0 fa 8d 1c 3f 5a f4 2a bf 25 d6 f7 3e 5d f4 36 3f
       0.6115414 -0.667791 0.48405567 0.7146662
0002f0 1b 5f d7 bf 63 da d9 bc 4a f5 1d 3e e9 b5 ac 3f
       -1.6825899 -0.026593393 0.15425602 1.3493015
000300 92 38 27 bf b0 6c 32 c0 2f 14 e1 3e 8d da 72 bf
       -0.65320694 -2.7878838 0.4396071 -0.9486473
000310 fd fa 8b 3e 82 30 22 bf ae 6c 9d bf 46 1d f1 3e
       0.27339926 -0.6335527 -1.2298791 0.47092646
000320 7e b5 20 be 33 3c b9 3e 36 0e ab bf db f8 87 bd
       -0.15694234 0.3617874 -1.3363712 -0.06639262
000330 e7 bf b0 3f 38 0c 92 bf b5 48 86 bf 2e cb 84 bf
       1.3808564 -1.1409979 -1.0490938 -1.0374506
000340 ac 97 c8 bf 5f 26 fd 3f 07 30 25 bf e2 3d dc 3e
       -1.5671287 1.9777335 -0.6452641 0.43015963
000350 f0 3c 85 40 be aa 93 3f b8 58 6a 3f d2 7b 46 bf
       4.1636887 1.1536481 0.91541624 -0.77532685
000360 99 c7 60 bf 58 2a 8e 3e d9 dd 09 40 59 e1 7c 3f
       -0.8780456 0.2776668 2.1541655 0.98781353
000370 01 63 b5 3d 37 8a ef 3f c2 a1 7e 3f 1f 94 58 3f
       0.08856774 1.8714055 0.9946557 0.84601015
000380 40 47 66 3e 9d ed 90 3f 6c 21 3f 3f 15 52 65 3f
       0.22488117 1.1322514 0.7466037 0.8957837
000390 4e 1e 7d 3e 91 29 0e 3f f5 f2 aa 3e 48 7b d1 3f
       0.24718592 0.55532175 0.33388487 1.6365747
0003a0 c3 60 8c 3e f2 a1 dc bd ef 39 27 3e f0 15 4f bf
       0.27417573 -0.10773076 0.16330694 -0.8089285
0003b0 d2 ec 89 3f ba 58 e9 3e f9 17 90 3c 30 b7 51 be
       1.0775397 0.45575505 0.017589556 -0.20480037
0003c0 98 e5 20 3f 45 66 6a bf fb 43 a3 3e b2 c5 98 bf
       0.6285033 -0.915623 0.31887802 -1.1935332
0003d0 96 c7 f6 3e 62 e2 0e 3c 7b 0f 42 3e d2 87 40 bc
       0.48199147 0.008720966 0.18951218 -0.011751132
0003e0 11 4c b0 bf 52 d4 7c 3f 23 96 4b bf dd 10 96 bf
       -1.3773214 0.98761475 -0.79525965 -1.1723896
0003f0 e5 af ad 3e b8 c2 2d bd 5e e3 2a bf 13 7f cd bf
       0.3392326 -0.042422026 -0.66753185 -1.6054405

rnn.weight_ih_l0 f4 [1, 2]
000000 78 33 4d bf 76 01 2e 3f
       -0.8015666 0.6797098

rnn.weight_ih_l0_reverse f4 [1, 2]
000000 3c e1 3a 3e 85 a2 62 bf
       0.18249983 -0.88529235

fc1.weight f4 [20, 9]
000000 15 be 91 3e 54 61 a8 be 5f 5c 29 3d b3 cc a3 bd
       0.28465334 -0.32886755 0.041347858 -0.07998028
000010 34 86 e5 3d 20 9e 87 be ce a4 8e 3e 74 c6 73 be
       0.11207238 -0.26487827 0.2786011 -0.23806173
000020 f5 bc b7 be dd a5 b9 3e dc c9 a1 be 28 35 e1 bb
       -0.3588635 0.36259356 -0.3159932 -0.006872792
000030 d7 45 3e 3e ee 92 a6 3e 25 0b a4 be dd fe e8 3d
       0.1858133 0.32533973 -0.32039753 0.11376736
000040 43 20 f0 3e b6 f2 c3 3e a8 e6 a9 3e cb 5e b4 3e
       0.46899614 0.3827111 0.3318379 0.3522857
000050 95 b2 ee 3e 45 c8 22 3e b2 b6 3c 3d 52 31 92 3d
       0.46620622 0.1589671 0.04607267 0.07138313
000060 f0 67 97 be fe 36 bb be 15 81 06 be c9 cc 8f bd
       -0.29571486 -0.36565393 -0.13135178 -0.070214815
000070 46 74 98 be 8c 9d 0b 3e dc e8 32 be c7 84 52 bd
       -0.2977621 0.13634318 -0.17471641 -0.051396158
000080 a3 2a a6 3d eb bc 68 be 99 3e 5c 3d eb 31 bc 3e
       0.08113601 -0.22728316 0.053770635 0.36756834
000090 9e 16 4b 3e 09 b5 a4 bd ce 7c a9 be cd 94 4f 3e
       0.19832847 -0.08042342 -0.3310303 0.20271607
0000a0 d7 cb bd be a4 97 9f bd 82 7c ca 3e 85 bc 0b 3d
       -0.3706958 -0.07792595 0.39548117 0.034115333
0000b0 e0 a8 e5 3e 51 61 e7 3d 15 9d 96 be 07 a2 1b be
       0.44855404 0.112978585 -0.2941672 -0.15198527
0000c0 07 36 20 3e e4 69 a1 3e f5 1a 6b be 50 70 87 3e
       0.1564561 0.315261 -0.22959502 0.26452875
0000d0 8b 93 ce 3e 4d e5 31 3c d9 5f 0b be 71 43 b6 be
       0.4034694 0.010857892 -0.13610782 -0.3559833
0000e0 b6 f4 ee 3e 2f 6a cd be 35 62 74 3e 25 ab f9 3c
       0.46671075 -0.40120074 0.23865588 0.030477116
0000f0 6f 22 c9 be 2e f9 89 3e c8 7e 8b 3e e1 89 9c be
       -0.39284083 0.26947922 0.27245164 -0.30573943
000100 8e db cd be 17 75 89 3e 78 29 4f be f8 cc 9a 3e
       -0.4020657 0.26847145 -0.20230663 0.30234504
000110 dc 23 7a 3e 46 ce bd bc 80 21 c4 3e 2b ee af 3b
       0.24427742 -0.023169648 0.38306808 0.005368968
000120 b6 3e 7a be ac 6b d6 be c3 8f 57 bd d0 0f e8 3d
       -0.24437985 -0.41879022 -0.052627336 0.11331141
000130 d6 64 60 3e ef a4 59 3e 8c 5c e3 be 1e e3 6d 3d
       0.21913466 0.21254323 -0.44406545 0.058077924
000140 0c 0d 9d bb 32 2f 4e be 42 1f 7e 3e a1 fa 4c 3e
       -0.004792815 -0.20135191 0.24816611 0.20017482
000150 00 85 a6 be a2 46 cb 3d b4 09 f4 bd ba d6 f1 be
       -0.32523346 0.099255815 -0.11915913 -0.47234136
000160 b0 e7 b7 3e c3 bd 5e 3e bd 0b b8 3e 55 0d a3 3d
       0.3591895 0.21752076 0.35946456 0.07961527
000170 2e 56 d1 3e c9 cf ab 3e 15 c0 a1 3e 84 db 94 3e
       0.40886062 0.33556965 0.3159186 0.29073727
000180 e4 f1 a0 be f6 fe 63 be a9 1b 22 3d 27 42 95 3e
       -0.31434548 -0.22265229 0.03957716 0.29152033
000190 6b f7 a9 3e 12 40 bd be 6b 45 93 3d 78 c6 d0 bd
       0.33196577 -0.36962944 0.07190975 -0.10194105
0001a0 0c f2 47 bd 98 6c 2d 3d 7f 18 cf be 73 70 66 be
       -0.04881482 0.04233989 -0.40448377 -0.22503833
0001b0 15 6c 00 3f 20 0c 9f be e1 3f aa 3b a8 81 9e be
       0.5016492 -0.31063938 0.0051956032 -0.30958295
0001c0 91 96 42 bd 24 61 34 3c 5c 32 c6 be 57 72 a4 be
       -0.047506873 0.011009488 -0.38710296 -0.32118484
0001d0 d1 b8 e9 3d 61 32 7a be b3 2b a7 be 96 fb e8 bd
       0.11412204 -0.2443328 -0.32650527 -0.11376111
0001e0 52 e0 a6 3e 6a f0 24 3e ef 13 93 3e 54 e2 53 be
       0.32593018 0.16107336 0.28726146 -0.20691806
0001f0 4b 40 8b 3e 8c 95 da 3d 65 e8 1f 3d 87 a8 d3 3e
       0.2719749 0.10673055 0.039039988 0.41339514
000200 da b8 e4 3d ac ce be be d3 9b 3c bb e6 fa d2 bd
       0.1116807 -0.37267053 -0.0028779402 -0.10301761
000210 5a 82 cb be 47 cb 1f bd 2e 7a c7 3d e5 b5 aa 3e
       -0.39747888 -0.03901222 0.09740101 0.333419
000220 c8 45 d9 3e 0f 7f c1 3e 15 73 95 3d 86 81 f5 bd
       0.4243605 0.3779225 0.07297341 -0.11987595
000230 cf ea 99 3c 23 a6 a1 3e c8 60 1b 3e b1 16 7b 3e
       0.018788723 0.31572065 0.15173638 0.24520375
000240 7d a8 24 bd 1b 43 b1 3e a6 20 06 3e ba 0d c6 be
       -0.040199745 0.3462151 0.13098392 -0.38682348
000250 40 35 a7 be 80 2d b8 be 42 94 c8 3e ca 7b 54 3e
       -0.32657814 -0.35972214 0.39175612 0.20750347
000260 7b 8d 73 3e 8c f8 d3 3e 60 83 dc bd 8f d1 a6 3d
       0.2378444 0.41400564 -0.10767245 0.08145439
000270 ef 2e 1b be 74 ee a9 be c4 3c 09 bb 6f 8a bc bd
       -0.15154622 -0.33189738 -0.002094076 -0.092060916
000280 01 5a a8 be b4 fe 87 3d a6 e5 02 be f7 3a 89 3e
       -0.32881168 0.06640378 -0.12782916 0.268028
000290 f1 7e b8 be 72 dc 66 be d8 8a 2e be 12 a4 54 be
       -0.3603435 -0.2254503 -0.17045152 -0.20765713
0002a0 58 57 2f 3e 5d 86 82 be ef 3b 30 3e e7 36 ed be
       0.17123163 -0.25493136 0.17210363 -0.4633095
0002b0 0f c5 d6 be 60 03 ba 3e 54 90 04 3e f2 50 c5 be
       -0.4194722 0.363307 0.12945682 -0.3853832
0002c0 35 ac 8f 3c 17 ce 87 be 17 61 c8 be 1b f1 e8 3e
       0.01753817 -0.26524422 -0.39136574 0.4549645

fc1.bias f4 [20]
000000 66 b3 c1 3d df 61 93 3d b6 fe a3 bc 74 9f ac 3d
       0.09458046 0.07196402 -0.020018917 0.08428851
000010 c2 21 f4 3c 2e 49 10 3c aa 0d 4d ba 41 ed ed bc
       0.029801253 0.00880651 -0.00078221655 -0.029043796
000020 f7 e9 2a bd 69 c1 4b bd 20 54 41 bd 5b 4f d4 3c
       -0.041727033 -0.049744997 -0.04719937 0.025916746
000030 08 00 8f bd 75 5c 11 bd fd 44 1d 3d dd 4e fd 3c
       -0.06982428 -0.035488565 0.03839587 0.030921394
000040 84 2a 5a bd 30 b6 49 bd 74 84 92 bd dd 2c ac 3c
       -0.053263202 -0.049246013 -0.0715417 0.021017486

fc2.weight f4 [1, 20]
000000 bc eb d9 bd 1e 27 85 3e 40 55 86 3e a1 6a 75 3e
       -0.10640666 0.26006407 0.26236916 0.23966457
000010 ff f5 19 3f 6d ef 87 be 63 82 24 bc b3 f5 d5 3e
       0.60140985 -0.26549855 -0.010040852 0.41789016
000020 5c 62 39 3e 8a 44 14 3f de 65 8d 3e d7 27 58 be
       0.18103927 0.5791708 0.2761678 -0.21108948
000030 22 dc 43 bd ab 1e ad 3e 08 86 5c be 82 12 e4 be
       -0.047817357 0.3381246 -0.21535504 -0.4454537
000040 dc c5 c8 3e 2e ed be be f1 ca 5a 3e 46 9b 15 3f
       0.39213455 -0.3729033 0.21366479 0.58440053
