MentorMix/checkpoint/MentorNet/MentorNet_Fold_2_Epoch_7.pt (torch, 6655 bytes, 7 tensors)

embedding_layer1.weight f4 [2, 2]
00000000: 10c5 95bf 8b9f 9f3f 07fc a33e 091f 36bd
-1.1700764 1.2470564 0.3202822 -0.04446319

embedding_layer2.weight f4 [101, 5]
00000000: f00e 0540 bdc9 c03f 07f3 e6be 92eb 7dbd
00000010: f9ed af3e 7562 653f 87c2 69bf e06d 633e
00000020: 9a8d 1940 9a54 cc3c 4ee6 cd3f ed39 793f
00000030: 15fd a8bf 5796 693f 97c8 0140 55b0 e83e
00000040: ca0f c73f e651 6e3f 9e07 d9be 92fc f4bf
00000050: e93a 643f 5b5f b53f 30e3 a03f 303a a13f
00000060: 77cc c73e f037 d5be de5f 3c3e a0f7 123f
00000070: dc80 c13d dca3 11bd e094 a9bb 865a 6abf
00000080: 474e 103f 194b 72bf 51f3 0fbe bafa 843e
00000090: 0933 94bf ff5a afbf 1cbf 38be 5549 253f
000000a0: 5cab a33e a49f aabf 81f1 d83f cd9e 1c3f
000000b0: 7ae7 8b3f e2ca e7bf 82de 88be 2969 38be
000000c0: f147 87bf 67e0 703f 50b3 eabf 120b f13e
000000d0: ebe3 c23f b30d d03e 7992 ec3e f385 083f
000000e0: 4a60 90be c0e2 123f b51d b4bf 1710 c03f
000000f0: 2d10 d03f a210 773f 5caa 4d3e c6fd fbbd
00000100: 894f 823e 6e46 77bf 96b7 04c0 c9f9 d03f
00000110: ab43 eabf f65d 96bf d7ce 34bd 5b5a d13e
00000120: 46d2 f63e 6c17 df3f efd3 46bf 185a f33f
00000130: f2d5 603f cc65 763f c4c7 42be b295 bdbf
00000140: 3184 6b3f cd71 c4bf 6614 fc3d 76a4 2abf
00000150: 7378 8fbf 2b20 a43f 3843 673f 8621 ba3e
00000160: 4ebd 83be 25a6 87bf a696 5abc 4d01 1abf
00000170: 6390 0abe 51d9 ec3e b55f 78bf e85a 32bf
00000180: 8ea4 af3e 828c d03f 0721 9abf 2859 833e
00000190: c489 3cbf 42ba 4ebf f370 15bf 10fc 07be
000001a0: 2d48 21bf 0816 593f 3df7 903d 1cba 233f
000001b0: a055 70be bac0 213f b956 03c0 f1ee b7bf
000001c0: 5a19 873f 334e 51be 38df 783e 9166 f3bc
000001d0: 3ab3 ccbf f947 1440 bc9c eabe 813a 8fbf
000001e0: 30b3 853e 7127 4cbf 406f 5d3e 6743 7b3f
000001f0: 35dd ba3e 3ff1 703e 8cb1 a6be 5ca8 683e
00000200: f927 103c c757 4cbe ebb5 22bf 8f35 3dbd
00000210: bd1a 7bbf 9162 10be 3e06 413f ece7 053e
00000220: cdcd 983e c816 44bf cbb2 403f ee13 54bd
00000230: be51 913d 4190 72bf bf9c 46bf 1ab8 08c0
00000240: c885 e9bf 8bd1 a7be d0ad bc3d 1b8e b33f
00000250: 725a de3c faaa 8d3d ef30 0e3f 4a83 833f
00000260: bfc9 2b3f 3e74 aa3f 468c 143f 9503 03c0
00000270: 14e4 133f 3e56 97bf e87c 5dbe 3588 9bbf
00000280: ce3d 053c 0bea cbbe 98d6 603e acbe 66bf
00000290: 18eb 27bf 8df0 cf3e 94c9 c1bc 8d30 d03e
000002a0: 1991 ab3d 5a8e a83f 94a6 ccbb ffd2 33bf
000002b0: a695 2c3f 8d6d bc3e 57f5 f93f 21e6 d2be
000002c0: a638 1b3e dae0 7b3e 5e4e fb3d 324b 843e
000002d0: 5c2f 16bf a045 063f 7f17 5f3e d116 91bf
000002e0: fa8d 1c3f 5af4 2abf 25d6 f73e 5df4 363f
000002f0: 1b5f d7bf 63da d9bc 4af5 1d3e e9b5 ac3f
00000300: 9238 27bf b06c 32c0 2f14 e13e 8dda 72bf
00000310: fdfa 8b3e 8230 22bf ae6c 9dbf 461d f13e
00000320: d5af 13be 5507 b33e 3b4a a9bf b637 5dbd
00000330: 3935 af3f 380c 92bf b548 86bf 2ecb 84bf
00000340: ac97 c8bf 5f26 fd3f 0730 25bf e23d dc3e
00000350: f03c 8540 beaa 933f b858 6a3f d27b 46bf
00000360: 99c7 60bf 582a 8e3e d9dd 0940 59e1 7c3f
00000370: 0163 b53d 378a ef3f c2a1 7e3f 1f94 583f
00000380: 4047 663e 9ded 903f 6c21 3f3f 1552 653f
00000390: 4e1e 7d3e 9129 0e3f f5f2 aa3e 487b d13f
000003a0: c360 8c3e f2a1 dcbd ef39 273e f015 4fbf
000003b0: d2ec 893f ba58 e93e f917 903c 30b7 51be
000003c0: 98e5 203f 4566 6abf fb43 a33e b2c5 98bf
000003d0: 96c7 f63e 62e2 0e3c 7b0f 423e d287 40bc
000003e0: 114c b0bf 52d4 7c3f 3f20 5abf 32ef 8ebf
000003f0: b288 913e de4c cbbd df5c 1cbf 137f cdbf
2.0790367 1.5061566 -0.4510729 -0.061992235 0.34361246 0.8960336 -0.9131245 0.22209883
2.3992677 0.024942685 1.6085908 0.9735401 -1.3202235 0.91245025 2.027868 0.4544703
1.5551693 0.9309372 -0.42388624 -1.9139578 0.8915239 1.4169725 1.2569332 1.2595882
0.39023182 -0.4164424 0.18395945 0.57409096 0.09448406 -0.03555666 -0.005175218 -0.9154438
0.5636944 -0.9464584 -0.14057662 0.2597254 -1.1578075 -1.3699645 -0.18041652 0.6456502
0.31966674 -1.3329968 1.6948701 0.6117981 1.0930016 -1.810879 -0.2673226 -0.18008865
-1.056883 0.9409241 -1.8335972 0.47078758 1.5225805 0.40635452 0.462055 0.5332939
-0.28198463 0.57377243 -1.4071566 1.500491 1.6254936 0.96509755 0.20084518 -0.12304263
0.25451306 -0.9659184 -2.0737052 1.6326228 -1.8301901 -1.1747425 -0.04414257 0.40889248
0.482073 1.7429023 -0.77667135 1.901187 0.87826455 0.9624908 -0.19021517 -1.4811308
0.91998583 -1.5347229 0.12308578 -0.666572 -1.1208633 1.2822317 0.9033694 0.363537
-0.25730366 -1.0597578 -0.013341581 -0.60158235 -0.13531642 0.4625955 -0.9702104 -0.6966996
0.34305233 1.629288 -1.2041329 0.25653958 -0.73647714 -0.80752957 -0.5837547 -0.13279748
-0.63000757 0.8479924 0.07078407 0.63955855 -0.23470163 0.631847 -2.0521681 -1.4369794
1.0554612 -0.20439987 0.24303901 -0.029711993 -1.5992196 2.3168929 -0.45822704 -1.1189729
0.26113272 -0.7974768 0.2162447 0.9814972 0.36496893 0.23529528 -0.32557333 0.22720474
0.008798593 -0.1995536 -0.63558835 -0.046193656 -0.98087674 -0.141001 0.7540015 0.13076752
0.29844514 -0.7659726 0.75272816 -0.05177682 0.07095669 -0.94751364 -0.77582926 -2.1362367
-1.8243952 -0.32777056 0.092128396 1.4027742 0.027142737 0.06917377 0.55543417 1.0274441
0.67104715 1.3316724 0.5802654 -2.0470936 0.57769895 -1.1823194 -0.21629679 -1.2150942
0.008132411 -0.39826998 0.21956861 -0.9013469 -0.655931 0.40613213 -0.02365569 0.4066204
0.083772846 1.3168442 -0.0062454436 -0.7024383 0.67415845 0.3680233 1.9527997 -0.411912
0.15158328 0.24597493 0.12270807 0.2583862 -0.58666015 0.5244999 0.21786307 -1.1335088
0.6115414 -0.667791 0.48405567 0.7146662 -1.6825899 -0.026593393 0.15425602 1.3493015
-0.65320694 -2.7878838 0.4396071 -0.9486473 0.27339926 -0.6335527 -1.2298791 0.47092646
-0.14422543 0.3496653 -1.3225778 -0.05400821 1.3688117 -1.1409979 -1.0490938 -1.0374506
-1.5671287 1.9777335 -0.6452641 0.43015963 4.1636887 1.1536481 0.91541624 -0.77532685
-0.8780456 0.2776668 2.1541655 0.98781353 0.08856774 1.8714055 0.9946557 0.84601015
0.22488117 1.1322514 0.7466037 0.8957837 0.24718592 0.55532175 0.33388487 1.6365747
0.27417573 -0.10773076 0.16330694 -0.8089285 1.0775397 0.45575505 0.017589556 -0.20480037
0.6285033 -0.915623 0.31887802 -1.1935332 0.48199147 0.008720966 0.18951218 -0.011751132
-1.3773214 0.98761475 -0.85205454 -1.1166747 0.28424603 -0.09926771 -0.6107921 -1.6054405

rnn.weight_ih_l0 f4 [1, 2]
00000000: 831e 4fbf 8a08 2c3f
-0.8090593 0.6720053

rnn.weight_ih_l0_reverse f4 [1, 2]
00000000: 145f 0e3e d2e9 6dbf
0.13903457 -0.92934906

fc1.weight f4 [20, 9]
00000000: 4913 663e 201c 8abe 4b87 063d 033a d6bd
00000010: 8966 053e 6e0f 9abe 9a30 873e 8d55 37be
00000020: 54bb d7be 0f4c b63e 0d68 9ebe 33b1 25bd
00000030: 5727 233e 85fd 9b3e 38de 92be 0a7b f63d
00000040: ecd0 f53e ca14 d63e 557f b43e fc1f aa3e
00000050: 4354 f13e 32c8 303e 3fd3 273d 928b af3d
00000060: d695 8fbe d899 c1be e368 d2bd d1bf 90bd
00000070: 3d1d 98be f66a 183e 814c 10be 1f20 85bd
00000080: 2564 983d 80ee 53be f0fe 7a3d fac2 d13e
00000090: c2ad 2f3e 83b9 5ebd b53e a9be 3cf1 3c3e
000000a0: 91c6 acbe 03d7 e5bd e891 bb3e 1b7f 7c3d
000000b0: b9e5 f33e 32df cb3d 2605 90be 2c17 18be
000000c0: c404 163e 0026 ab3e f8ab 7fbe e62d 7c3e
000000d0: de11 ce3e f23e 8fbc 9c32 0dbe 6e68 b5be
000000e0: 0127 ee3e 7449 d0be f394 773e c248 003d
000000f0: 7af8 cebe 804d 8a3e e6fc 893e bd5e 91be
00000100: 3bae d8be ddff 873e dca3 41be ad94 8c3e
00000110: b28f 8a3e 2b37 6e38 73d6 c23e 2f28 063d
00000120: b2ac 67be 5b69 dfbe f506 58bd 95df f53d
00000130: 1da0 483e f72e 6b3e a386 d7be dd0f 603d
00000140: e134 813c 253b 40be ebb7 703e b9b8 483e
00000150: 338a a3be d29a a23d 7c72 c7bd 97c7 e8be
00000160: eaaf b33e 113a 723e bd43 c33e d3de 6e3d
00000170: 36ee c83e bc51 a83e 2150 943e c061 a03e
00000180: 079f 99be e6bd 65be 97db 823d 367a 863e
00000190: 0f5a b83e 3554 b8be 0726 843d 53ad 90bd
000001a0: 5bb6 a0bd d762 a73c b990 c6be 9653 87be
000001b0: 39a6 013f fc6d a1be 6448 e13b e656 9dbe
000001c0: 3190 39bd c79e 3f3c 1d86 c7be 9527 a8be
000001d0: 071d bb3d 37b1 70be 5db3 abbe 28c7 e8bd
000001e0: cfa1 ad3e f62b 113e 7d2b 9a3e 986b 40be
000001f0: 8dff 8c3e f26b 133e 9b8b bc3c 748c db3e
00000200: 8403 f33d 6e01 c3be 36a6 af3c 5090 06be
00000210: d2f4 d4be 3096 14bd 8535 a43d 848f a43e
00000220: 6d40 df3e 49f8 c53e b1c7 aa3d 02a2 eebd
00000230: dcb5 abba 3075 a83e ac0d 213e 049b 5e3e
00000240: 3d6b 0c3c a3c8 983e 55c4 063e a53f bebe
00000250: 6cf1 b7be 0b4a a4be 9e31 d63e e56c 273e
00000260: 783f 893e c3f4 d53e e0ae e4bd 65b9 ac3d
00000270: 163c 24be 7047 a3be f275 9ebc cf26 d6bd
00000280: 3610 acbe 7d34 3a3d 524a a5bd 19fd 623e
00000290: c144 a9be ddd5 37be 5e4c 3ebe 6a0d 42be
000002a0: b728 563e ad9b 8cbe f8b2 5c3e 7d4d f7be
000002b0: 4add ccbe bc64 b13e b601 e13d 7bc1 c9be
000002c0: ab30 103d 0811 88be 80cb bbbe 551e fd3e
0.22468294 -0.26974583 0.03284387 -0.104602836 0.13027395 -0.30089897 0.26404268 -0.17903729
-0.42135108 0.35604903 -0.3093876 -0.040452193 0.15932976 0.30466858 -0.28685164 0.120351866
0.48010957 0.41812736 0.35253397 0.33227527 0.471346 0.17263868 0.040972944 0.08571543
-0.28044003 -0.37812686 -0.10273912 -0.07067836 -0.29709807 0.14884552 -0.14091684 -0.06500267
0.07440976 -0.2069645 0.061278284 0.40969068 0.17156127 -0.054376137 -0.33055654 0.18451399
-0.33745244 -0.11222651 0.36634755 0.061644655 0.47636202 0.099546805 -0.28128928 -0.1485259
0.14650255 0.3342743 -0.24967945 0.24626884 0.40248007 -0.01748607 -0.13788837 -0.35431236
0.46514133 -0.4068104 0.24177913 0.031319387 -0.40423948 0.27012253 0.2695076 -0.28392592
-0.42320427 0.26562396 -0.18910164 0.2745718 0.27062756 5.6795e-05 0.38054237 0.032753166
-0.22624472 -0.43635067 -0.05274101 0.120055355 0.19592328 0.22967134 -0.42094907 0.05470263
0.015772285 -0.18772562 0.23507659 0.19601716 -0.31941375 0.07939686 -0.09738633 -0.45464775
0.3509515 0.23654963 0.38137618 0.05831797 0.3924424 0.32874858 0.28967384 0.31324577
-0.3000414 -0.22435722 0.0638954 0.26265115 0.3600621 -0.36001745 0.06452566 -0.07064309
-0.078472815 0.020432873 -0.3878229 -0.26430959 0.5064426 -0.31529224 0.0068750847 -0.3073036
-0.045303527 0.01169557 -0.38969508 -0.328427 0.09136396 -0.23505102 -0.3353528 -0.11366111
0.33912513 0.14176926 0.30111304 -0.18791044 0.2753872 0.14396647 0.023015788 0.42880595
0.11865905 -0.38087028 0.02144156 -0.13140988 -0.41593033 -0.036276042 0.080180205 0.32140744
0.4360384 0.3866599 0.08338869 -0.11651994 -0.0013100463 0.32901907 0.15727872 0.21738821
0.0085704895 0.29840574 0.13160832 -0.37157932 -0.35926378 -0.3208774 0.4183473 0.16350134
0.26806235 0.417883 -0.11166167 0.08433799 -0.16038546 -0.3189044 -0.01934335 -0.10456621
-0.33606118 0.045460213 -0.08070816 0.22166862 -0.33060268 -0.17952676 -0.1858382 -0.1895043
0.20913969 -0.2746252 0.21552646 -0.48301306 -0.4001258 0.34647167 0.109866545 -0.39405426
0.035202663 -0.26575494 -0.36678696 0.49437204

fc1.bias f4 [20]
00000000: 6934 1e3e 05c6 a03d e3d0 26bd 4bbb ad3d
00000010: 9c7a 673d 1f83 b53c e988 803a 39fd 4fbd
00000020: 195c 75bd 05b2 81bd 8f65 8dbd 7a12 603d
00000030: c2d0 98bd 3c08 37bd 2982 5e3d 0d12 303d
00000040: e52f d1bd 3ebe 59bd 51e4 f2bd 1fbf 263d
0.1544968 0.07850269 -0.040726554 0.08482989 0.056513414 0.02215725 0.0009806427 -0.0507786
-0.059902284 -0.06332783 -0.069041364 0.05470512 -0.074616924 -0.044685587 0.05432335 0.042985965
-0.10214213 -0.053159945 -0.11859954 0.04070961

fc2.weight f4 [1, 20]
00000000: a6f1 17be c806 953e 9684 7a3e 68ec 8e3e
00000010: afb7 213f 59fd 84be 2ef8 fa3b 9e62 d53e
00000020: dccc 373e a4a8 153f 844a 933e 9d52 7dbe
00000030: c00f e2bc 841b c83e 4da0 5dbe 8fec d6be
00000040: 4568 d53e 71ce b1be 5b93 7e3e a128 213f
-0.14838275 0.29106736 0.2446464 0.2791474 0.63170904 -0.2597454 0.00765898 0.416768
0.17949241 0.5846045 0.28767788 -0.24738546 -0.0275954 0.39083493 -0.21643181 -0.41977355
0.41681114 -0.34727815 0.24860899 0.6295262
