MentorMix/checkpoint/MentorNet/MentorNet_Fold_1_Epoch_6.pt (torch, 6655 bytes, 7 tensors)

embedding_layer1.weight f4 [2, 2]
0.61616796 0.29308143 0.06167726 0.6213173
00000000: 2fbd 1d3f c50e 963e 4ba1 7c3d a70e 1f3f

embedding_layer2.weight f4 [101, 5]
-1.1434902 -1.0503607 1.3413907 -0.7076959 -0.5914899 0.27376235 -0.96485204 -0.23581198
-0.5709802 0.013488896 -0.5494922 -1.0112808 1.3949215 0.8081901 0.5608995 1.0762349
0.43914157 1.1712008 1.7674273 -0.09536188 0.1393715 -1.5785011 -0.32062083 -0.29934606
-0.7984398 0.33573052 0.27533352 1.7163026 -0.056139667 0.910702 -1.3923858 2.689087
-1.8821425 -0.77654505 2.024202 -0.0865412 0.098123536 -1.2150067 0.7311667 1.1718048
2.4069781 0.27856624 0.24675292 1.1843266 -0.7282137 1.1632744 -0.0090745855 -0.8424634
0.21518245 -0.52419364 -1.8349644 -1.3420382 0.42017567 1.1677485 0.28167793 -1.7754008
1.1173496 0.2981353 0.10988554 -0.6463385 0.4285423 1.4760778 -1.7868679 1.6103176
0.9837094 0.87928617 -1.4503865 -1.1802155 0.40997243 0.40845066 0.2578654 1.0950214
1.3263941 0.8547218 -0.280524 0.7000165 -1.456733 1.6089354 0.093769975 -1.259749
-0.50467217 -1.4745737 -0.34157753 -0.30025828 1.3075355 -1.1627988 0.11963611 -0.16313533
-0.9246983 -0.93010116 1.4301451 0.4207734 -0.35380653 0.76392704 -0.5889507 -0.76359737
0.6155449 0.19382203 -2.5832138 0.85394204 1.2853047 0.54419917 0.9907907 1.2562919
-0.14138538 0.34335375 -1.0702778 -0.87426317 -1.4647994 -1.2629284 1.1220188 1.5663341
0.15728118 1.2539585 1.3275172 -0.4954058 1.5496205 0.34762925 0.09300803 0.6147403
-0.64466584 -0.28702253 3.3212175 -0.40206036 -0.71225893 -0.6200344 -0.22813495 -0.78927463
-1.0371166 -1.0669051 -0.20850393 -0.21552248 0.27052772 0.55969197 -0.3183963 1.5117207
-1.5208013 0.9195754 -0.54835236 -0.34724024 -0.7474459 -0.92343855 0.5733984 -0.10929951
0.7574802 -0.40676087 -0.12773234 0.28036582 0.0374569 -0.6378393 -0.84187174 -0.64108694
0.726923 -1.1224439 -0.24303341 -0.5602604 0.6817095 -0.51700455 1.7902275 0.58767647
0.2504676 -0.7930326 0.52310103 1.2236058 -0.94579434 -1.3529137 3.38374 -2.4043953
-0.38911948 -0.07960036 0.7604781 -1.0025175 0.946171 0.35120168 1.5728474 1.7185327
-0.059443872 -2.491939 0.2422618 0.28830886 -0.10951661 0.31256905 1.5037949 0.50377077
0.6223302 -0.4481365 -0.2856487 0.387978 -1.1434665 -0.65123045 -0.103163965 0.6936977
-1.1991774 -0.047417123 -2.002951 -0.49140018 1.7086049 0.791276 1.0230097 0.9839178
-0.7593503 -0.57994527 -1.1378918 -0.6465169 0.6080795 -0.90588295 -0.4356011 -0.5961388
-0.07051458 0.3469794 -0.6536796 1.5586202 0.4000731 2.4422815 -0.38184077 0.43265304
-2.0173 0.4235032 0.57302195 -1.796243 -0.3061445 -0.42027354 0.2828067 0.36423814
2.6414983 -0.9624009 -0.20756981 -1.388908 0.012691011 -1.8734486 1.7997428 0.28238562
1.6604139 0.27173975 -0.80869967 0.12672262 0.5706765 -0.13479164 0.34371647 0.3718005
0.14440395 0.77716845 -2.3381126 -0.8291204 1.1661391 1.4786575 0.26760873 0.75611985
-0.5873361 -2.0619206 0.39020872 0.29672042 -0.3061546 -0.6569842 1.2129352 -0.05141742
00000000: e35d 92bf 3872 86bf b1b2 ab3f 8f2b 35bf
00000010: e26b 17bf 942a 8c3e 8b00 77bf b278 71be
00000020: c22b 12bf 8800 5d3c 85ab 0cbf a671 81bf
00000030: ca8c b23f 8ce5 4e3f 1c97 0f3f 11c2 893f
00000040: 2ad7 e03e e8e9 953f 0f3b e23f 174d c3bd
00000050: 67b7 0e3e 530c cabf 6a28 a4be e343 99be
00000060: 8d66 4cbf dfe4 ab3e 84f8 8c3e ceaf db3f
00000070: b5f2 65bd c423 693f b339 b2bf 001a 2c40
00000080: 0cea f0bf a8cb 46bf 878c 0140 833c b1bd
00000090: fef4 c83d 5785 9bbf be2d 3b3f b3fd 953f
000000a0: ee0b 1a40 3ca0 8e3e ccac 7c3e 0498 973f
000000b0: 376c 3abf 2de6 943f 92ad 14bc aeab 57bf
000000c0: ca58 5c3e 8e31 06bf 1de0 eabf e8c7 abbf
000000d0: 4421 d73e c878 953f 1738 903e 5540 e3bf
000000e0: 5005 8f3f 31a5 983e ac0b e13d 7176 25bf
000000f0: e569 db3e 1ef0 bc3f 16b8 e4bf e31e ce3f
00000100: 61d4 7b3f e618 613f 44a6 b9bf 4d11 97bf
00000110: e8e7 d13e 7220 d13e ef06 843e a929 8c3f
00000120: 48c7 a93f 0ccf 5a3f d7a0 8fbe 4834 333f
00000130: 3a76 babf 98f1 cd3f 790a c03d 753f a1bf
00000140: 3232 01bf d5be bcbf 40e3 aebe 74bb 99be
00000150: 535d a73f 97d6 94bf c703 f53d f30c 27be
00000160: 07b9 6cbf 1c1b 6ebf ff0e b73f 9c6f d73e
00000170: 2126 b5be b990 433f 79c5 16bf 1e7b 43bf
00000180: 5a94 1d3f 4879 463e 6053 25c0 f29b 5a3f
00000190: dd84 a43f a350 0b3f 76a4 7d3f 2cce a03f
000001a0: 54c7 10be 10cc af3e ddfe 88bf b6cf 5fbf
000001b0: 8c7e bbbf a3a7 a1bf 509e 8f3f a37d c83f
000001c0: 510e 213e b681 a03f 15ec a93f d4a5 fdbe
000001d0: f759 c63f 76fc b13e fe7a be3d 9f5f 1d3f
000001e0: d208 25bf 9ef4 92be d48e 5440 dbda cdbe
000001f0: 9a56 36bf 93ba 1ebf 359c 69be e70d 4abf
00000200: 3dc0 84bf 5990 88bf 0e82 55be edb1 5cbe
00000210: 9c82 8a3e f947 0f3f d704 a3be 1080 c13f
00000220: 9ea9 c2bf 4b69 6b3f d260 0cbf 79c9 b1be
00000230: 9d58 3fbf 7866 6cbf 3dca 123f 6cd8 dfbd
00000240: 39ea 413f f642 d0be 44cc 02be 1c8c 8f3e
00000250: 686c 193d 7049 23bf e884 57bf 461e 24bf
00000260: a017 3a3f 3eac 8fbf c0dd 78be 3a6d 0fbf
00000270: 8484 2e3f 695a 04bf 2d26 e53f f771 163f
00000280: 4a3d 803e 2f04 4bbf f3e9 053f 1d9f 9c3f
00000290: 941f 72bf 472c adbf 328f 5840 9de1 19c0
000002a0: ab3a c7be 8305 a3bd b1ae 423f 7e52 80bf
000002b0: 4338 723f b5d0 b33e 1053 c93f e1f8 db3f
000002c0: 6b7b 73bd ee7b 1fc0 7a13 783e 389d 933e
000002d0: 3f4a e0bd 0d09 a03e 5a7c c03f 1ff7 003f
000002e0: 0851 1f3f 2672 e5be 8c40 92be 0da5 c63e
000002f0: 1c5d 92bf 0ab7 26bf a147 d3bd 2c96 313f
00000300: a57e 99bf 7538 42bd 5930 00c0 ce98 fbbe
00000310: 91b3 da3f 1091 4a3f fbf1 823f 09e2 7b3f
00000320: c864 42bf 4b77 14bf 70a6 91bf 2282 25bf
00000330: 19ab 1b3f f2e7 67bf 1b07 dfbe 8d9c 18bf
00000340: f369 90bd 49a7 b13e 8c57 27bf de80 c73f
00000350: 62d6 cc3e 574e 1c40 a280 c3be b384 dd3e
00000360: 711b 01c0 69d5 d83e 91b1 123f 4aeb e5bf
00000370: f9be 9cbe 182e d7be 0acc 903e 6c7d ba3e
00000380: 4f0e 2940 e85f 76bf 2e8d 54be bdc7 b1bf
00000390: f5ed 4f3c 2acd efbf f95d e63f d994 903e
000003a0: 7188 d43f 7921 8b3e f106 4fbf 93c3 013e
000003b0: db17 123f d206 0abe 9bfb af3e a35c be3e
000003c0: a1de 133e 83f4 463f a3a3 15c0 3c41 54bf
000003d0: 0c44 953f a644 bd3f 0304 893e 1291 413f
000003e0: a95b 16bf 82f6 03c0 70c9 c73e bdeb 973e
000003f0: 4cc0 9cbe 1e30 28bf 7641 9b3f 139b 52bd

rnn.weight_ih_l0 f4 [1, 2]
-0.5440465 0.28096795
00000000: a246 0bbf 08db 8f3e

rnn.weight_ih_l0_reverse f4 [1, 2]
-0.25352994 -0.82393867
00000000: adce 81be a5ed 52bf

fc1.weight f4 [20, 9]
0.3316796 -0.4550365 0.42288575 0.08348147 0.21886058 0.39379647 -0.16840474 -0.37320077
0.18319635 -0.4687442 0.35795984 0.086892 -0.27265924 0.08076078 0.19962421 -0.17423508
0.17703679 -0.03822072 -0.32452178 0.20546591 0.15986717 0.20667744 -0.065683104 -0.4608679
-0.039868392 -0.025383553 -0.3709719 -0.2511898 0.17555471 0.41432297 -0.2925579 -0.13074517
-0.11388376 -0.14289628 -0.26142964 -0.54790264 -0.013236219 0.42021725 -0.28439537 -0.37465784
-0.33690417 -0.34174556 0.3895886 -0.25681156 -0.32512596 0.1447492 -0.20230828 -0.10161108
-0.4039455 -0.18250081 0.3252542 -0.4528904 -0.28769293 0.2766916 0.030964855 -0.05772575
0.38167828 0.073708 -0.029215742 -0.27313128 0.2809585 -0.10109765 -0.31379852 -0.091203466
-0.11613076 -0.20407651 0.40174848 0.3975621 -0.3615405 -0.27711362 0.10499942 -0.23409624
-0.09890659 -0.2218543 -0.17449766 0.035905007 0.365846 0.22547369 0.18608515 -0.3049055
0.17797975 -0.09348028 0.28224817 0.31216553 0.064418085 0.30806857 -0.461093 -0.32367772
-0.36776772 -0.2780521 -0.21415666 0.024923757 -0.2773999 0.13339593 -0.03789221 0.1202422
0.3306678 0.30834627 0.2978789 -0.23075725 -0.43904063 -0.40999368 -0.40318507 -0.17327045
0.35888544 0.45696354 0.32461196 0.2932132 -0.13334973 -0.13673276 -0.044902846 0.035600115
-0.4398838 -0.22086008 -0.21720739 -0.14206344 0.008620762 -0.32561132 -0.22021069 0.10365915
-0.39150503 0.2516654 -0.28181395 -0.15280904 -0.032714006 0.4415172 0.15389249 -0.07591689
0.14389099 0.0035470957 -0.008006671 0.099521205 0.36684006 0.3767928 0.20259282 -0.27253738
-0.035672575 0.12844734 -0.20271486 0.004113845 -0.12332471 -0.12227906 0.072400935 -0.33387312
-0.16045389 -0.12239835 0.10572877 -0.029050315 0.24729423 0.1752607 0.41558483 -0.3089902
0.20437196 -0.40967533 0.3646798 0.30485952 -0.01691947 0.23200424 -0.06917634 -0.40440822
0.17935279 0.19145659 -0.14408545 0.18759921 0.41393533 0.47831157 -0.04405291 0.12374536
0.38178757 0.03903971 -0.13904452 -0.26394978 -0.28075293 -0.1495193 0.1689658 0.11348092
-0.22358438 -0.25660977 0.4482424 0.38512948
00000000: e9d1 a93e 8bfa e8be 7b84 d83e 55f8 aa3d
00000010: fd1c 603e b19f c93e 4b72 2cbe 2c14 bfbe
00000020: d397 3b3e 3dff efbe 8346 b73e 6ff4 b13d
00000030: fe99 8bbe e865 a53d 4a6a 4c3e ae6a 32be
00000040: 2249 353e 548d 1cbd b827 a6be a865 523e
00000050: 38b4 233e 40a3 533e dd84 86bd e1f6 ebbe
00000060: 0a4d 23bd 2bf1 cfbc 07f0 bdbe f39b 80be
00000070: 9dc4 333e 2422 d43e 26ca 95be 10e2 05be
00000080: e43b e9bd 6753 12be 1bda 85be 5943 0cbf
00000090: badc 58bc b726 d73e 459c 91be 27d3 bfbe
000000a0: b47e acbe 46f9 aebe 2878 c73e ce7c 83be
000000b0: e976 a6be 2239 143e e729 4fbe 7819 d0bd
000000c0: f2d1 cebe 7ee1 3abe b887 a63e 40e1 e7be
000000d0: 7d4c 93be 85aa 8d3e 02aa fd3c d671 6cbd
000000e0: 566b c33e 38f4 963d da55 efbc ddd7 8bbe
000000f0: cbd9 8f3e 490c cfbd 33aa a0be e2c8 babd
00000100: f7d5 edbd 6ff9 50be fab1 cd3e 428d cb3e
00000110: d61b b9be d6e1 8dbe f009 d73d edb6 6fbe
00000120: 8a8f cabd c62d 63be 84af 32be 2111 133d
00000130: 2b50 bb3e 93e2 663e 1b8d 3e3e 931c 9cbe
00000140: 5340 363e 9772 bfbd d582 903e 29d4 9f3e
00000150: a1ed 833d 2abb 9d3e 6214 ecbe 16b9 a5be
00000160: 0d4c bcbe d85c 8ebe e24b 5bbe e82c cc3c
00000170: 5c07 8ebe f198 083e dd34 1bbd 8b41 f63d
00000180: 4a4d a93e 90df 9d3e 9583 983e a14b 6cbe
00000190: efc9 e0be b1ea d1be 466e cebe cf6d 31be
000001a0: d5bf b73e 20f7 e93e 8a33 a63e 0a20 963e
000001b0: d58c 08be ac03 0cbe 0cec 37bd 6dd1 113d
000001c0: 7338 e1be 2529 62be 9d6b 5ebe 1479 11be
000001d0: 193e 0d3c 87b6 a6be e97e 61be 404b d43d
000001e0: 5973 c8be 4ada 803e eb49 90be f979 1cbe
000001f0: 1fff 05bd 8b0e e23e fe95 1d3e 507a 9bbd
00000200: 2958 133e 6476 683b 6a2e 03bc c6d1 cb3d
00000210: 76d2 bb3e fcea c03e 7e74 4f3e 058a 8bbe
00000220: 681d 12bd b387 033e 7c94 4fbe 6fcd 863b
00000230: aa91 fcbd 726d fabd f146 943d 6bf1 aabe
00000240: 064e 24be fcab fabd 5388 d83d edfa edbc
00000250: b33a 7d3e 8a77 333e 89c7 d43e f733 9ebe
00000260: e246 513e f7c0 d1be 50b7 ba3e 8c16 9c3e
00000270: b39a 8abc 8592 6d3e 53ac 8dbd 980e cfbe
00000280: 42a8 373e 320d 443e 238b 13be 021a 403e
00000290: 55ef d33e 41e5 f43e d370 34bd 356e fd3d
000002a0: a979 c33e 1ae8 1f3d b061 0ebe 6d24 87be
000002b0: d9be 8fbe 961b 19be 5f05 2d3e af68 e83d
000002c0: 4ef3 64be 5b62 83be 0780 e53e b12f c53e

fc1.bias f4 [20]
-0.024033016 -0.032935634 0.029946541 -0.047401205 0.044306345 0.03232661 -0.051363736 0.026538422
0.030215792 0.027039837 0.030825729 -0.03706871 -0.025977394 0.09114911 -0.024268499 -0.037308145
0.012206969 -0.06846779 -0.035941955 0.09414286
00000000: e3e0 c4bc 84e7 06bd 7352 f53c c427 42bd
00000010: 927a 353d e868 043d c862 52bd 1b67 d93c
00000020: 1c87 f73c a682 dd3c 3d86 fc3c 5cd5 17bd
00000030: 8bce d4bc 62ac ba3d bbce c6bc 6dd0 18bd
00000040: bdff 473c d738 8cbd df37 13bd f9cd c03d

fc2.weight f4 [1, 20]
0.13947713 -0.23326714 0.16380979 -0.2510961 0.37797633 0.12412315 -0.5224111 -0.042213283
0.024414409 0.34474248 0.43913758 -0.3063539 -0.42244175 0.41005546 -0.018558178 -0.4795217
0.27112132 -0.25615 -0.13997763 0.121860296
00000000: 18d3 0e3e 95dd 6ebe c1bd 273e ab8f 80be
00000010: 1d86 c13e 4734 fe3d bcbc 05bf d6e7 2cbd
00000020: ba00 c83c 1682 b03e a4d6 e03e 6bda 9cbe
00000030: 494a d8be caf2 d13e 5207 98bc de83 f5be
00000040: 6ad0 8a3e 1826 83be 4c56 0fbe e491 f93d
