MentorMix/checkpoint/MentorNet/MentorNet_Fold_1_Epoch_4.pt (torch, 6655 bytes, 7 tensors)

embedding_layer1.weight f4 [2, 2]
0	0x3f206fbe	0.62670505
1	0x3e96f196	0.2948119
2	0x3d7ca14b	0.06167726
3	0x3f1f0ea7	0.6213173

embedding_layer2.weight f4 [101, 5]
0	0xbf925e50	-1.1435032
1	0xbf8672ad	-1.0503746
2	0x3fabb237	1.3413762
3	0xbf352a84	-0.70768
4	0xbf176baf	-0.5914869
5	0x3e8c2a94	0.27376235
6	0xbf77008b	-0.96485204
7	0xbe7178b2	-0.23581198
8	0xbf122bc2	-0.5709802
9	0x3c5d0088	0.013488896
10	0xbf0cab85	-0.5494922
11	0xbf8171a6	-1.0112808
12	0x3fb28cca	1.3949215
13	0x3f4ee58c	0.8081901
14	0x3f0f971c	0.5608995
15	0x3f89c211	1.0762349
16	0x3ee0d72a	0.43914157
17	0x3f95e9e8	1.1712008
18	0x3fe23b0f	1.7674273
19	0xbdc34d17	-0.09536188
20	0x3e0eb767	0.1393715
21	0xbfca0c53	-1.5785011
22	0xbea4286a	-0.32062083
23	0xbe9943e3	-0.29934606
24	0xbf4c668d	-0.7984398
25	0x3eabe4df	0.33573052
26	0x3e8cf884	0.27533352
27	0x3fdbafce	1.7163026
28	0xbd65f2b5	-0.056139667
29	0x3f6923c4	0.910702
30	0xbfb239b3	-1.3923858
31	0x402c1a00	2.689087
32	0xbff0ea0c	-1.8821425
33	0xbf46cba8	-0.77654505
34	0x40018c87	2.024202
35	0xbdb13c83	-0.0865412
36	0x3dc8f4fe	0.098123536
37	0xbf9b8557	-1.2150067
38	0x3f3b2dbe	0.7311667
39	0x3f95fdb3	1.1718048
40	0x401a0bee	2.4069781
41	0x3e8ea03c	0.27856624
42	0x3e7caccc	0.24675292
43	0x3f979804	1.1843266
44	0xbf3a6c37	-0.7282137
45	0x3f94e62d	1.1632744
46	0xbc14ad92	-0.0090745855
47	0xbf57abae	-0.8424634
48	0x3e5c58ca	0.21518245
49	0xbf06318e	-0.52419364
50	0xbfeadacf	-1.8348025
51	0xbfabc222	-1.341862
52	0x3ed737c2	0.42034727
53	0x3f9574b4	1.167624
54	0x3e90218f	0.28150603
55	0xbfe34055	-1.7754008
56	0x3f8f0550	1.1173496
57	0x3e98a531	0.2981353
58	0x3de10bac	0.10988554
59	0xbf257671	-0.6463385
60	0x3edb69e5	0.4285423
61	0x3fbcf01e	1.4760778
62	0xbfe4b816	-1.7868679
63	0x3fce1ee3	1.6103176
64	0x3f7bd461	0.9837094
65	0x3f6118e6	0.87928617
66	0xbfb9a644	-1.4503865
67	0xbf97114d	-1.1802155
68	0x3ed1e7e8	0.40997243
69	0x3ed12072	0.40845066
70	0x3e8406ef	0.2578654
71	0x3f8c29a9	1.0950214
72	0x3fa9c748	1.3263941
73	0x3f5acf0c	0.8547218
74	0xbe8fa0d7	-0.280524
75	0x3f333448	0.7000165
76	0xbfba763a	-1.456733
77	0x3fcdf198	1.6089354
78	0x3dc00a79	0.093769975
79	0xbfa13f75	-1.259749
80	0xbf013232	-0.50467217
81	0xbfbcbed5	-1.4745737
82	0xbeaee340	-0.34157753
83	0xbe99bb74	-0.30025828
84	0x3fa75d53	1.3075355
85	0xbf94d697	-1.1627988
86	0x3df503c7	0.11963611
87	0xbe270cf3	-0.16313533
88	0xbf6cb907	-0.9246983
89	0xbf6e1b1c	-0.93010116
90	0x3fb70eff	1.4301451
91	0x3ed76f9c	0.4207734
92	0xbeb52621	-0.35380653
93	0x3f4390b9	0.76392704
94	0xbf16c579	-0.5889507
95	0xbf437b1e	-0.76359737
96	0x3f1d945a	0.6155449
97	0x3e467948	0.19382203
98	0xc0255360	-2.5832138
99	0x3f5a9bf2	0.85394204
100	0x3fa452a9	1.2837726
101	0x3f0aed3e	0.5426825
102	0x3f7d3bbb	0.98919266
103	0x3fa1030e	1.2579057
104	0xbe0f255b	-0.13979094
105	0x3eafcc10	0.34335375
106	0xbf88fedd	-1.0702778
107	0xbf5fcfb6	-0.87426317
108	0xbfbb7e8c	-1.4647994
109	0xbfa1a7a3	-1.2629284
110	0x3f8f9e50	1.1220188
111	0x3fc87da3	1.5663341
112	0x3e210e51	0.15728118
113	0x3fa081b6	1.2539585
114	0x3fa9ec15	1.3275172
115	0xbefda5d4	-0.4954058
116	0x3fc659f7	1.5496205
117	0x3eb1fc76	0.34762925
118	0x3dbe7afe	0.09300803
119	0x3f1d5f9f	0.6147403
120	0xbf2508d2	-0.64466584
121	0xbe92f49e	-0.28702253
122	0x40548ed4	3.3212175
123	0xbecddadb	-0.40206036
124	0xbf36569a	-0.71225893
125	0xbf1eba93	-0.6200344
126	0xbe699c35	-0.22813495
127	0xbf4a0de7	-0.78927463
128	0xbf84c03d	-1.0371166
129	0xbf889059	-1.0669051
130	0xbe55820e	-0.20850393
131	0xbe5cb1ed	-0.21552248
132	0x3e8a829c	0.27052772
133	0x3f0f47f9	0.55969197
134	0xbea304d7	-0.3183963
135	0x3fc18010	1.5117207
136	0xbfc2a99e	-1.5208013
137	0x3f6b694b	0.9195754
138	0xbf0c60d2	-0.54835236
139	0xbeb1c979	-0.34724024
140	0xbf3f589d	-0.7474459
141	0xbf6c6678	-0.92343855
142	0x3f12ca3d	0.5733984
143	0xbddfd86c	-0.10929951
144	0x3f41ea39	0.7574802
145	0xbed042f6	-0.40676087
146	0xbe02cc44	-0.12773234
147	0x3e8f8c1c	0.28036582
148	0x3d196c68	0.0374569
149	0xbf234970	-0.6378393
150	0xbf56682c	-0.83752704
151	0xbf2815f6	-0.6565851
152	0x3f3e34f4	0.7429955
153	0xbf8dad9f	-1.106861
154	0xbe6c7eb4	-0.23095208
155	0xbf0f6d3a	-0.5602604
156	0x3f2e8484	0.6817095
157	0xbf045a69	-0.51700455
158	0x3fe5262d	1.7902275
159	0x3f1671f7	0.58767647
160	0x3e803d4a	0.2504676
161	0xbf4b042f	-0.7930326
162	0x3f05e9f3	0.52310103
163	0x3f9c9f1d	1.2236058
164	0xbf721f94	-0.94579434
165	0xbfad2c47	-1.3529137
166	0x40588f32	3.38374
167	0xc019e19d	-2.4043953
168	0xbec73aab	-0.38911948
169	0xbda30583	-0.07960036
170	0x3f42aeb1	0.7604781
171	0xbf80527e	-1.0025175
172	0x3f723843	0.946171
173	0x3eb3d0b5	0.35120168
174	0x3fc95310	1.5728474
175	0x3fdbf8e1	1.7185327
176	0xbd737b6b	-0.059443872
177	0xc01f7bee	-2.491939
178	0x3e78137a	0.2422618
179	0x3e939d38	0.28830886
180	0xbde04a3f	-0.10951661
181	0x3ea0090d	0.31256905
182	0x3fc07c5a	1.5037949
183	0x3f00f71f	0.50377077
184	0x3f1f5108	0.6223302
185	0xbee57226	-0.4481365
186	0xbe92408c	-0.2856487
187	0x3ec6a50d	0.387978
188	0xbf925d1c	-1.1434665
189	0xbf26b70a	-0.65123045
190	0xbdd347a1	-0.103163965
191	0x3f31962c	0.6936977
192	0xbf997ea5	-1.1991774
193	0xbd423875	-0.047417123
194	0xc0003059	-2.002951
195	0xbefb98ce	-0.49140018
196	0x3fdab391	1.7086049
197	0x3f4a9110	0.791276
198	0x3f82f1fb	1.0230097
199	0x3f7be209	0.9839178
200	0xbf358bbc	-0.7091634
201	0xbf06b80b	-0.5262458
202	0xbf8d57f5	-1.1042467
203	0xbf330f06	-0.699448
204	0x3f0ed7e0	0.5579815
205	0xbf67e7f2	-0.90588295
206	0xbedf071b	-0.4356011
207	0xbf189c8d	-0.5961388
208	0xbd9069f3	-0.07051458
209	0x3eb1a749	0.3469794
210	0xbf27578c	-0.6536796
211	0x3fc780de	1.5586202
212	0x3eccd662	0.4000731
213	0x401c4e57	2.4422815
214	0xbec380a2	-0.38184077
215	0x3edd84b3	0.43265304
216	0xc0011b71	-2.0173
217	0x3ed8d569	0.4235032
218	0x3f12b191	0.57302195
219	0xbfe5eb4a	-1.796243
220	0xbe9cbef9	-0.3061445
221	0xbed72e18	-0.42027354
222	0x3e90cc0a	0.2828067
223	0x3eba7d6c	0.36423814
224	0x40290e4f	2.6414983
225	0xbf765fe8	-0.9624009
226	0xbe548d2e	-0.20756981
227	0xbfb1c7bd	-1.388908
228	0x3c4fedf5	0.012691011
229	0xbfefcd2a	-1.8734486
230	0x3fe65df9	1.7997428
231	0x3e9094d9	0.28238562
232	0x3fd48871	1.6604139
233	0x3e8b2179	0.27173975
234	0xbf4f06f1	-0.80869967
235	0x3e01c393	0.12672262
236	0x3f1217db	0.5706765
237	0xbe0a06d2	-0.13479164
238	0x3eaffb9b	0.34371647
239	0x3ebe5ca3	0.3718005
240	0x3e13dea1	0.14440395
241	0x3f46f483	0.77716845
242	0xc015a3a3	-2.3381126
243	0xbf54413c	-0.8291204
244	0x3f95440c	1.1661391
245	0x3fbd44a6	1.4786575
246	0x3e890403	0.26760873
247	0x3f419112	0.75611985
248	0xbf165ba9	-0.5873361
249	0xc003f682	-2.0619206
250	0x3edc6705	0.43047348
251	0x3eace154	0.33765662
252	0xbeb004a2	-0.34378535
253	0xbf1e0287	-0.61722606
254	0x3fa0614c	1.2529693
255	0xbd529b13	-0.05141742

rnn.weight_ih_l0 f4 [1, 2]
0	0xbf0f5e4d	-0.56003267
1	0x3e882574	0.26591074

rnn.weight_ih_l0_reverse f4 [1, 2]
0	0xbe4fffe8	-0.20312464
1	0xbf494532	-0.7862121

fc1.weight f4 [20, 9]
0	0x3eb17743	0.34661302
1	0xbee0de08	-0.43919396
2	0x3ed34c97	0.4126937
3	0x3d952be9	0.07283766
4	0x3e5a3bab	0.21311824
5	0x3ec28357	0.3799083
6	0xbe20bf0f	-0.15697883
7	0xbec3b762	-0.38225847
8	0x3e2ac20d	0.16675587
9	0xbee7d488	-0.45279336
10	0x3ec0720b	0.37587008
11	0x3da4dc56	0.08049838
12	0xbe8e4d66	-0.27793425
13	0x3d908831	0.070572264
14	0x3e3b4e44	0.18291575
15	0xbe1d86e5	-0.1538349
16	0x3e4412e3	0.1914783
17	0xbc815095	-0.015785495
18	0xbeb4b085	-0.35290924
19	0x3e337ad8	0.1752733
20	0x3e292596	0.16518244
21	0x3e58ef67	0.21185075
22	0xbd50ecab	-0.051006954
23	0xbee0408b	-0.43799242
24	0xbda41691	-0.08012117
25	0xbd29c634	-0.041448787
26	0xbec82fa4	-0.39098847
27	0xbe6926b6	-0.22768673
28	0x3e4dd207	0.2009965
29	0x3ed1065e	0.4082517
30	0xbe98fc76	-0.29880112
31	0xbe15ae36	-0.14617237
32	0xbe05e5ec	-0.1307599
33	0xbddf3a3c	-0.10899779
34	0xbe733e2f	-0.2375419
35	0xbf03f0c3	-0.5153925
36	0xbccb8995	-0.024845878
37	0x3ed08616	0.407273
38	0xbe90041a	-0.2812813
39	0xbebe7509	-0.37198666
40	0xbeab0c47	-0.33407804
41	0xbea898b6	-0.3292901
42	0x3ec02172	0.37525517
43	0xbe8935a5	-0.2679874
44	0xbead56c6	-0.33855265
45	0x3e0fc129	0.14038529
46	0xbe543ef1	-0.20727135
47	0xbdcdefc3	-0.100554965
48	0xbece63a7	-0.40310404
49	0xbe384090	-0.17993379
50	0x3ea8ca36	0.32966775
51	0xbeeb5937	-0.45966503
52	0xbe99e0f2	-0.30054432
53	0x3e833383	0.25625238
54	0x3da7f8f6	0.082017824
55	0xbba4e097	-0.005031656
56	0x3ebe54b0	0.37173986
57	0x3d808696	0.0627567
58	0xbd8df1a3	-0.06930854
59	0xbe9e4333	-0.30910644
60	0x3eb2d1b0	0.34925604
61	0xbda5012a	-0.08056863
62	0xbe94f8bb	-0.29096016
63	0xbdbad94d	-0.09123478
64	0xbdededba	-0.11617608
65	0xbe514c54	-0.20439273
66	0x3ecd8a96	0.40144795
67	0x3ecbfc0b	0.3984073
68	0xbeb944c1	-0.36185268
69	0xbe8e973d	-0.2784976
70	0x3e041b33	0.12901
71	0xbe450707	-0.19240962
72	0xbdc8e20a	-0.098087385
73	0xbe623943	-0.22092156
74	0xbe339760	-0.17538214
75	0x3d100f0b	0.035170596
76	0x3ebaf5e9	0.3651574
77	0x3e659aab	0.22422282
78	0x3e3eaf32	0.18621519
79	0xbe9f9dde	-0.3117513
80	0x3e28d4cf	0.1648743
81	0xbdbe116f	-0.09280669
82	0x3e90f069	0.28308418
83	0x3e9f5fb4	0.31127703
84	0x3d82e906	0.06392102
85	0x3e9a7c95	0.30173174
86	0xbeebc729	-0.46050385
87	0xbea2dbc2	-0.31808287
88	0xbec4fe4a	-0.38475257
89	0xbea43d0e	-0.3207783
90	0xbe596d27	-0.21233045
91	0x3cdda8a6	0.027057957
92	0xbe8d5a32	-0.27607876
93	0x3e0a2053	0.13488893
94	0xbd3115c9	-0.043233667
95	0x3df4b8be	0.11949299
96	0x3eaee024	0.3415538
97	0x3e92c207	0.28663656
98	0x3e823077	0.254276
99	0xbe69e3d3	-0.22840814
100	0xbedf81ae	-0.43653625
101	0xbed05eb9	-0.40697268
102	0xbecd3e8e	-0.40086788
103	0xbe2990f1	-0.16559197
104	0x3eb665c5	0.3562452
105	0x3eea615f	0.45777413
106	0x3eaebe87	0.34129736
107	0x3ea87a8c	0.32905996
108	0xbe03082f	-0.1279609
109	0xbe05b581	-0.1305752
110	0xbd48e0c6	-0.049042486
111	0x3d044adb	0.03229795
112	0xbee49825	-0.44647327
113	0xbe67c49a	-0.22633591
114	0xbe57a4ae	-0.21058914
115	0xbdf94ba1	-0.12172628
116	0x3d31ea23	0.04343618
117	0xbeb9f4f3	-0.36319694
118	0xbe84dbef	-0.25949046
119	0x3ddcb511	0.10776723
120	0xbec64bac	-0.38729608
121	0x3e94a049	0.29028538
122	0xbe845f6c	-0.2585405
123	0xbe5f593d	-0.21811385
124	0xbd53cfd7	-0.051711883
125	0x3ed745d1	0.42045453
126	0x3e1d005d	0.1533217
127	0xbd9cd8f5	-0.07658569
128	0x3e11d348	0.14240754
129	0x3b182cab	0.0023219984
130	0xbbdd75db	-0.006758434
131	0x3dca5374	0.09879199
132	0x3eb9dad2	0.3629976
133	0x3ec4bb14	0.3842398
134	0x3e62944a	0.2212688
135	0xbe87ac33	-0.26498565
136	0xbcde9958	-0.02717273
137	0x3dfa069c	0.12208292
138	0xbe550ce3	-0.20805697
139	0x3a6674ea	0.0008791225
140	0xbe081600	-0.13289642
141	0xbdf45f3f	-0.11932229
142	0x3dbf0a7f	0.09328174
143	0xbe990b23	-0.2989131
144	0xbe1e4c30	-0.1545875
145	0xbdedb592	-0.116068974
146	0x3dc576c4	0.09641793
147	0xbd1a9006	-0.037735008
148	0x3e7c8273	0.24659137
149	0x3e2aaa7b	0.16666596
150	0x3ed122f7	0.4084699
151	0xbea5a5e0	-0.32353115
152	0x3e3876f5	0.18014129
153	0xbec3f999	-0.38276365
154	0x3ec96b8e	0.3933987
155	0x3e98c16a	0.29835063
156	0xbcbe8cc6	-0.023260485
157	0x3e56ae10	0.20964837
158	0xbdb6b156	-0.08920543
159	0xbeb83db1	-0.35984567
160	0x3e4556c9	0.19271387
161	0x3e546d66	0.20744857
162	0xbe0a59a6	-0.1351076
163	0x3e4a6f37	0.19768988
164	0x3ed4d303	0.4156724
165	0x3ef5c53b	0.48002037
166	0xbd46f0c5	-0.04856946
167	0x3ded0e76	0.11575024
168	0x3ecd5c31	0.401094
169	0x3d97bcf0	0.07409084
170	0xbdb70d43	-0.08938076
171	0xbe98d8f9	-0.29853037
172	0xbea26f7f	-0.3172569
173	0xbe140371	-0.14454438
174	0x3e326240	0.17420292
175	0x3e144f8c	0.1448347
176	0xbe4ebf88	-0.20190251
177	0xbea11409	-0.31460598
178	0x3ed57406	0.4169008
179	0x3eb30d02	0.34970862

fc1.bias f4 [20]
0	0xbc0e8abb	-0.008700068
1	0xbc84c64b	-0.016207835
2	0x3a262cb3	0.0006339058
3	0xbcbca695	-0.023028651
4	0x3d03962d	0.03212564
5	0x3ce31988	0.027722135
6	0x3a1cc83a	0.0005980764
7	0x3cd91e9b	0.026503852
8	0x3cfe918d	0.031075263
9	0x3ce34b36	0.027745824
10	0x3d0636b0	0.032766998
11	0xbd0db42e	-0.03459566
12	0xbca66e85	-0.020316372
13	0x3d58008b	0.052734893
14	0xbccbcc75	-0.024877766
15	0xbcf0c850	-0.029392391
16	0x3c956568	0.01823683
17	0xbd267abb	-0.04064439
18	0xbcd8e9f7	-0.02647875
19	0x3d70399a	0.058648683

fc2.weight f4 [1, 20]
0	0x3e14d92d	0.14535971
1	0xbe77a99f	-0.24185799
2	0x3e3d0c93	0.18461828
3	0xbe64ce1a	-0.22344247
4	0x3ec75a97	0.38936302
5	0x3dfdfc59	0.12401647
6	0xbeff918a	-0.49915725
7	0xbbe3bd13	-0.0069500296
8	0x3d00af88	0.0314174
9	0x3ebdfcc8	0.3710692
10	0x3ecf1b44	0.4045049
11	0xbea81e5e	-0.32835668
12	0xbecfd78d	-0.4059414
13	0x3ec50b18	0.38485026
14	0xbd212bd9	-0.039348457
15	0xbedade96	-0.42747945
16	0x3e8d2e2e	0.27574295
17	0xbe899da7	-0.26878092
18	0xbe05f7d8	-0.13082826
19	0x3dca5593	0.09879603
