MentorMix/checkpoint/MentorNet/MentorNet_Fold_3_Epoch_1.pt (torch, 6655 bytes, 7 tensors)

embedding_layer1.weight f4 [2, 2]
1.0841439 -0.0076367264 0.8085522 -0.32557642
00000000: 3ac5 8a3f 813d fabb 47fd 4e3f f4b1 a6be

embedding_layer2.weight f4 [101, 5]
-0.5456451 1.334334 -0.54216856 2.108626 -0.9699317 0.5076447 0.07317984 -0.68583447
-0.7674139 -0.46678665 0.44899133 1.1551832 0.49784917 -1.9457939 0.6115228 -0.48041284
0.87669665 -0.7540754 0.8605156 -0.67675114 -0.6791255 0.07252846 0.08385726 0.61076075
0.53657025 -0.17676383 -0.59507436 1.0289851 -1.0810732 -0.18040538 0.6296842 -0.021068789
-0.117609166 -1.3498112 1.4427873 -1.1165382 0.14369765 -0.6355303 0.29862446 0.4172351
1.258227 1.0288861 1.9699428 -2.2211287 -1.5709329 1.1814961 0.07389462 -0.63597083
0.4038921 -0.7376809 -2.42256 -0.5382868 -0.9533148 0.42129126 -0.6087795 0.8559479
-0.1340775 1.6559418 -1.9023695 -0.41746333 1.726907 1.5063946 1.0648742 -0.21300247
0.1702646 0.22448623 -0.85524136 1.685099 -0.30739465 -0.2323371 1.9194341 1.7787969
0.5456126 1.1912117 -1.9509331 -0.82017577 0.19614685 1.025027 1.8563946 0.78811187
-0.9974017 0.853599 2.165607 0.027837787 -0.074655935 0.52109766 -1.5803418 -2.8313184
-1.7030133 -1.3933803 -1.5918531 0.019433646 -0.9021126 -0.12867358 0.5754062 0.08988098
0.07438303 2.127848 -0.44947553 0.98178583 1.7686743 -0.55887246 -0.4111645 0.26285303
1.1897738 1.3345462 1.1713524 -0.22717598 0.037396315 -1.7852864 -0.4372574 1.2162952
-0.45650157 -1.0694807 0.75439805 0.9838232 0.5785828 -0.7820602 -0.11979035 0.7000588
-0.37721726 -0.15160188 0.9391576 0.5542785 0.43050072 0.37042916 -1.2843802 0.6619712
0.8554598 -0.7242537 -0.173967 -0.37249124 0.064689174 0.08178461 -1.8067143 -0.36504024
0.34092203 -1.0333661 -0.44048655 0.6710798 1.728031 1.2051961 2.290394 1.4977481
0.87773 0.24772014 0.8133443 -0.120246865 -0.17562844 0.3004771 -0.8579131 -0.16294292
2.3500133 -0.50069934 1.0214897 0.37688777 -0.4279504 -0.9953346 -0.9831089 -0.31229845
-2.278207 -0.073966615 0.29947835 -0.28320083 0.061584625 -1.6068239 -0.54594386 -0.36407351
0.21068616 -0.4520177 -1.1506153 -0.21756561 -0.484508 -0.043686986 -1.2204466 1.0421511
2.1901307 0.06217005 -0.13730115 0.0019067059 -0.31551647 2.5033264 -2.2323003 -0.10479449
-0.6095959 0.939917 0.30384526 -0.81108004 -1.1055003 -0.85561603 0.97078425 0.11331529
0.33502415 -0.56465334 -0.49392408 0.1767904 -0.25009423 0.40606436 -1.2768915 0.9144816
0.55587196 1.6227074 -0.24547611 -0.8306553 -0.836643 0.13596117 -1.1226356 0.3611121
0.52379036 0.09031559 0.09608314 -0.18518269 0.09687882 -1.2018168 -0.28236562 0.315833
-0.5451898 0.15469684 0.95986944 0.5216907 -1.5667733 0.21445252 0.90771997 -1.515254
-1.22686 0.17965557 1.8222834 -0.11548904 -0.61620516 0.1794368 -1.752109 -2.2879643
1.8892738 1.1411607 -1.4660649 -0.069625504 -1.937644 0.22566451 -0.3825962 0.41719925
1.3482848 -0.13606097 -1.4063013 -0.3431392 -0.8639916 -0.35258755 -0.53872406 -1.1004426
-0.852896 1.1987094 -0.10415617 0.31287557 0.91967785 -0.061249148 0.76107776 -2.3616595
00000000: 66af 0bbf 75cb aa3f 8fcb 0abf baf3 0640
00000010: 724d 78bf 01f5 013f 50df 953d d992 2fbf
00000020: 3d75 44bf a9fe eebe 31e2 e53e 0bdd 933f
00000030: 16e6 fe3e c60f f9bf c28c 1c3f acf8 f5be
00000040: 316f 603f 160b 41bf c04a 5c3f 903f 2dbf
00000050: 2bdb 2dbf cd89 943d 5bbd ab3d d15a 1c3f
00000060: ab5c 093f 9401 35be cb56 18bf c9b5 833f
00000070: 9b60 8abf 30bc 38be fc32 213f 7498 acbc
00000080: 13dd f0bd 9dc6 acbf 41ad b83f b9ea 8ebf
00000090: 7a25 133e 1db2 22bf 4ee5 983e d79f d53e
000000a0: 950d a13f 8ab2 833f 1627 fc3f f926 0ec0
000000b0: 5414 c9bf 443b 973f 1056 973d fcce 22bf
000000c0: f2ca ce3e a8d8 3cbf 390b 1bc0 2acd 09bf
000000d0: 700c 74bf 7db3 d73e f9d8 1bbf 671f 5b3f
000000e0: 9d4b 09be e7f5 d33f d880 f3bf c1bd d5be
000000f0: 4a0b dd3f 8ad1 c03f cc4d 883f 521d 5abe
00000100: d859 2e3e b8df 653e 19f1 5abf 53b1 d73f
00000110: d562 9dbe c7e9 6dbe 04b0 f53f 9eaf e33f
00000120: 44ad 0b3f a079 983f 2db8 f9bf 0af7 51bf
00000130: b8da 483e 1634 833f 579e ed3f b3c1 493f
00000140: b855 7fbf 7785 5a3f 4e99 0a40 120c e43c
00000150: 36e5 98bd a866 053f a448 cabf 5234 35c0
00000160: 57fc d9bf 495a b2bf d8c1 cbbf 4f33 9f3c
00000170: daf0 66bf 02c3 03be d24d 133f 8513 b83d
00000180: 2156 983d a92e 0840 a821 e6be 5156 7b3f
00000190: eb63 e23f 4412 0fbf 2784 d2be ac94 863e
000001a0: 824a 983f 69d2 aa3f e0ee 953f d2a0 68be
000001b0: e12c 193d 4484 e4bf 34e0 dfbe 90af 9b3f
000001c0: 93ba e9be bee4 88bf 3b20 413f d6db 7b3f
000001d0: 011e 143f 1935 48bf a554 f5bd 0e37 333f
000001e0: 9f22 c1be 863d 1bbe a26c 703f 32e5 0d3f
000001f0: 976a dc3e e4a8 bd3e 9266 a4bf f276 293f
00000200: 6aff 5a3f b168 39bf 6824 32be 2cb7 bebe
00000210: c27b 843d b17e a73d 6a42 e7bf 8ee6 babe
00000220: 558d ae3e 5745 84bf 7487 e1be e3cb 2b3f
00000230: 1f30 dd3f de43 9a3f d195 1240 36b6 bf3f
00000240: eab2 603f 59aa 7d3e 5537 503f fd43 f6bd
00000250: f1d7 33be 22d8 993e 31a0 5bbf 82da 26be
00000260: 9e66 1640 d52d 00bf 2dc0 823f 6ff7 c03e
00000270: 511c dbbe 40ce 7ebf 06ad 7bbf 95e5 9fbe
00000280: 25ce 11c0 cf7b 97bd 3a55 993e b3ff 90be
00000290: 2940 7c3d 68ac cdbf fac2 0bbf d867 babe
000002a0: 1dbe 573e dd6e e7be 5d47 93bf 85c9 5ebe
000002b0: 6f11 f8be 20f1 32bd 9837 9cbf 3565 853f
000002c0: 1a2b 0c40 06a6 7e3d ac98 0cbe 6fea f93a
000002d0: 608b a1be 8036 2040 02de 0ec0 7e9e d6bd
000002e0: 7a0e 1cbf 679e 703f 9b91 9b3e f1a2 4fbf
000002f0: 0981 8dbf a709 5bbf 5185 783f d911 e83d
00000300: 4988 ab3e 1f8d 10bf 9ee3 fcbe 8b08 353e
00000310: 5a0c 80be abe7 cf3e 2e71 a3bf 771b 6a3f
00000320: a04d 0e3f e0b4 cf3f 175e 7bbe d3a5 54bf
00000330: 3c2e 56bf 6839 0b3e 86b2 8fbf afe3 b83e
00000340: 2017 063f 61f7 b83d 3dc7 c43d 88a0 3dbe
00000350: 6768 c63d 22d5 99bf 3a92 90be ddb4 a13e
00000360: 8f91 0bbf d968 1e3e 01ba 753f 868d 053f
00000370: 078c c8bf 7199 5b3e 5660 683f d8f3 c1bf
00000380: c009 9dbf a1f7 373e 9540 e93f 8585 ecbd
00000390: 9fbf 1dbf 48be 373e 1c45 e0bf 026e 12c0
000003a0: b9d3 f13f 8e11 923f 04a8 bbbf d197 8ebd
000003b0: b804 f8bf 9914 673e a6e3 c3be 249b d53e
000003c0: 9994 ac3f 9153 0bbe ae01 b4bf f1af afbe
000003d0: 8e2e 5dbf 5b86 b4be d2e9 09bf 4edb 8cbf
000003e0: 6457 5abf 4f6f 993f d44f d5bd 3a31 a03e
000003f0: 0270 6b3f 63e0 7abd fed5 423f 6e25 17c0

rnn.weight_ih_l0 f4 [1, 2]
-0.110521264 -0.79555875
00000000: f958 e2bd bda9 4bbf

rnn.weight_ih_l0_reverse f4 [1, 2]
-0.023576038 -0.51106995
00000000: 8922 c1bc 7bd5 02bf

fc1.weight f4 [20, 9]
0.30117953 -0.39472 0.24940291 -0.3098147 -0.13027714 0.35346508 -0.25768512 0.43508026
0.271626 -0.47359413 0.07395668 -0.16805921 0.09257019 -0.3965215 0.23410138 -0.36952102
0.19437991 0.017178264 0.4244578 -0.2109654 -0.40881622 0.42764065 -0.23545173 -0.11306946
0.45339778 0.124821655 0.29549384 0.26511052 0.18617623 0.0401677 -0.4091874 -0.0024938358
0.026909946 0.34026793 -0.3366647 0.26415837 0.1280443 -0.31549722 -0.33193213 0.054749817
-0.42496654 -0.17752706 -0.21488595 -0.14787102 -0.09087906 0.35815018 -0.42415902 -0.05589108
0.019148268 0.4606336 -0.012275456 -0.0292034 -0.4009757 -0.32316843 0.24816886 -0.4677042
0.11159981 0.13899893 -0.29587412 0.12829341 -0.11616205 0.02575677 -0.03317012 0.40493053
0.4263239 0.35061678 0.245771 -0.10678374 -0.04674655 0.11811332 0.017351042 -0.23865122
-0.4307765 -0.13453674 -0.41243014 -0.14159214 -0.036498662 -0.14341527 -0.033826698 -0.31836322
-0.4101499 -0.2573761 0.074605405 0.05440037 -0.009643662 0.32229894 0.14483887 0.39632636
0.1635787 -0.32382128 -0.10706298 0.1295437 0.30035698 0.25074422 0.015266163 0.09294071
-0.09456247 -0.33369192 0.43750528 0.17410114 -0.22113816 0.17955908 0.19316383 0.22806855
0.30742353 0.16582403 0.0142843975 -0.1471108 -0.24503155 0.039757058 -0.25924006 0.32676044
-0.1350865 -0.2605897 0.0056567513 0.118343465 0.41414332 -0.18873702 -0.26560506 0.2604435
-0.38455343 0.097051635 -0.4558778 0.29572427 0.02606796 -0.17883241 -0.28944674 0.048160315
-0.079159744 0.32514966 -0.41997755 -0.1827148 0.15492494 0.38735965 -0.4373899 0.09279762
-0.00956107 0.084683575 0.021062186 -0.004928255 0.37725654 0.11788025 -0.2774253 0.23792265
0.027697667 0.27378586 -0.20950235 -0.45352182 0.14479254 -0.020298412 -0.3039623 -0.113632835
-0.21724676 -0.4409277 -0.05839234 -0.31561434 -0.3871246 0.35589534 0.03585474 -0.3855155
-0.20669866 0.32243317 -0.012226307 0.25310513 0.420143 0.36900425 0.3723869 -0.05699099
-0.4173428 0.08865838 0.22655433 0.3604924 -0.25682133 -0.38792425 0.37130967 0.13312702
-0.05874637 0.41782403 0.30821332 0.19847874
00000000: 3434 9a3e bd18 cabe 7a63 7f3e 08a0 9ebe
00000010: 5f67 05be 60f9 b43e 4eef 83be d7c2 de3e
00000020: 9012 8b3e ee7a f2be 9a76 973d b717 2cbe
00000030: 7195 bd3d de04 cbbe 46b8 6f3e dc31 bdbe
00000040: 870b 473e 6eb9 8c3c 8852 d93e 5007 58be
00000050: 5c50 d1be b7f3 da3e 421a 71be f690 e7bd
00000060: c123 e83e 7fa2 ff3d f84a 973e 91bc 873e
00000070: fba4 3e3e e386 243d 0381 d1be 9f6f 23bb
00000080: 3f72 dc3c 9937 ae3e 515f acbe c43f 873e
00000090: 0c1e 033e da88 a1be 02f3 a9be 5841 603d
000000a0: 3795 d9be a7c9 35be 100b 5cbe 806b 17be
000000b0: cd1e babd 765f b73e 5f2b d9be 0cee 64bd
000000c0: d4dc 9c3c 2bd8 eb3e ff1e 49bc f83b efbc
000000d0: b04c cdbe 5576 a5be fa1f 7e3e ed76 efbe
000000e0: 718e e43d bc55 0e3e d07c 97be 595f 033e
000000f0: 5ee6 edbd ddff d23c 64dd 07bd 0e53 cf3e
00000100: 2047 da3e 0b84 b33e 65ab 7b3e 6fb1 dabd
00000110: 4f79 3fbd 65e5 f13d c623 8e3c fc60 74be
00000120: bd8e dcbe 00c4 09be 0b2a d3be 88fd 10be
00000130: 9f7f 15bd 74db 12be dd8d 0abd 8100 a3be
00000140: 2bff d1be cdc6 83be b8ca 983d ecd2 5e3d
00000150: 7300 1ebc 5e04 a53e a450 143e 4aeb ca3e
00000160: 2d81 273e e7cb a5be d643 dbbd 1ba7 043e
00000170: 64c8 993e 8c61 803e ee1e 7a3c b357 be3d
00000180: f8a9 c1bd abd9 aabe b100 e03e 9247 323e
00000190: 0b72 62be 56de 373e bdcc 453e cd8a 693e
000001a0: 9e66 9d3e c6cd 293e 1b09 6a3c 37a4 16be
000001b0: 8de9 7abe 4cd8 223d 1dbb 84be 254d a73e
000001c0: 1e54 0abe 036c 85be 455c b93b 0f5e f23d
000001d0: 980a d43e 4744 41be 63fd 87be da58 853e
000001e0: 30e4 c4be 02c3 c63d d168 e9be 2c69 973e
000001f0: 798c d53c d81f 37be 5d32 94be c043 453d
00000200: 811e a2bd 047a a63e 4c07 d7be 9719 3bbe
00000210: a5a4 1e3e 0154 c63e 92f1 dfbe ae0c be3d
00000220: 09a6 1cbc 956e ad3d 9b8a ac3c 337d a1bb
00000230: c527 c13e 336b f13d b00a 8ebe ffa1 733e
00000240: 38e6 e23c a92d 8c3e c987 56be 0334 e8be
00000250: 7f44 143e db48 a6bc f2a0 9bbe 55b8 e8bd
00000260: ef75 5ebe 47c1 e1be ce2c 6fbd 3498 a1be
00000270: 3235 c6be ea37 b63e 6bdc 123d 4a62 c5be
00000280: d0a8 53be f615 a53e d950 48bc ff96 813e
00000290: fc1c d73e 20ee bc3e 7fa9 be3e 626f 69bd
000002a0: f5ad d5be 8692 b53d dcfd 673e 7692 b83e
000002b0: 167e 83be 029e c6be 4d1c be3e 7352 083e
000002c0: 09a0 70bd 08ed d53e 23ce 9d3e 033e 4b3e

fc1.bias f4 [20]
-0.01909684 -0.019372135 -0.01897225 0.019489668 0.018297512 -0.019104017 0.018409545 -0.017214814
0.01888169 0.016641822 0.014156485 -0.017757501 0.01832241 -0.018348517 0.007203455 0.01584597
-0.018672217 -0.01914317 0.0187077 0.018492514
00000000: fa70 9cbc 50b2 9ebc b16b 9bbc cca8 9f3c
00000010: aae4 953c 0780 9cbc 9dcf 963c 1506 8dbc
00000020: c6ad 9a3c 6e54 883c 9af0 673c 2e78 91bc
00000030: e118 963c a14f 96bc f60a ec3b 68cf 813c
00000040: 7af6 98bc 23d2 9cbc e440 993c 9d7d 973c

fc2.weight f4 [1, 20]
0.52974474 0.12783471 0.16585499 -0.2365403 0.41488275 -0.31969082 -0.33584946 -0.47427046
-0.4953357 -0.5082066 -0.0085849995 -0.07631441 0.06908526 0.06376591 -0.15374307 0.22828151
0.2572214 0.3991758 -0.39614987 -0.30059233
00000000: 5a9d 073f 1ae7 023e e4d5 293e 9f37 72be
00000010: 836b d43e 84ae a3be 76f4 abbe 94d3 f2be
00000020: a49c fdbe d419 02bf 19a8 0cbc bb4a 9cbd
00000030: 937c 8d3d b497 823d d36e 1dbe a1c2 693e
00000040: 86b2 833e c560 cc3e 28d4 cabe 3de7 99be
