MentorMix/checkpoint/MentorNet/MentorNet_Fold_2_Epoch_9.pt (torch, 6655 bytes, 7 tensors)

embedding_layer1.weight f4 [2, 2]
-1.159822 1.2573236 0.3202822 -0.04446319
00000000: 0c75 94bf fbef a03f 07fc a33e 091f 36bd

embedding_layer2.weight f4 [101, 5]
2.0790367 1.5061566 -0.4510729 -0.061992258 0.34361246 0.8960336 -0.9131245 0.22209883
2.3992677 0.024942685 1.6085908 0.9735401 -1.3202235 0.91245025 2.027868 0.4544703
1.5551693 0.9309372 -0.42388624 -1.9139578 0.8915239 1.4169725 1.2569332 1.2595882
0.39023182 -0.4164424 0.18395945 0.57409096 0.09448406 -0.03555666 -0.005175218 -0.9154438
0.5636944 -0.9464584 -0.14057662 0.2597254 -1.1578075 -1.3699645 -0.18041652 0.6456502
0.31966674 -1.3329968 1.6948701 0.6117981 1.0930016 -1.810879 -0.2673226 -0.18008865
-1.056883 0.9409241 -1.8335972 0.47078758 1.5225805 0.4063544 0.46205512 0.5332939
-0.28198463 0.57377243 -1.4071566 1.500491 1.6254936 0.96509755 0.20084518 -0.12304263
0.25451306 -0.9659184 -2.0737052 1.6326228 -1.8301901 -1.1747425 -0.04414257 0.40889248
0.482073 1.7429023 -0.77667135 1.901187 0.87826455 0.9624908 -0.19021517 -1.4811308
0.91998583 -1.5347229 0.12308578 -0.666572 -1.1208633 1.2822317 0.9033694 0.363537
-0.25730366 -1.0597578 -0.013341581 -0.60158235 -0.13531642 0.4625955 -0.9702104 -0.6966996
0.34305233 1.629288 -1.2041329 0.25653958 -0.7364791 -0.8075273 -0.5837566 -0.1328005
-0.630006 0.8479924 0.07078407 0.63955855 -0.23470163 0.631847 -2.0521681 -1.4369794
1.0554612 -0.20439987 0.24303901 -0.029711993 -1.5992196 2.3168929 -0.45822704 -1.1189729
0.26113272 -0.7974768 0.2162447 0.9814972 0.36496893 0.23529528 -0.32557333 0.22720474
0.008798593 -0.1995536 -0.63558835 -0.046193656 -0.98087674 -0.141001 0.7540015 0.13076752
0.29844514 -0.7659726 0.75272816 -0.05177682 0.07095669 -0.94751364 -0.77582926 -2.1362367
-1.8243952 -0.32777056 0.092128396 1.4027742 0.027142737 0.06917377 0.5554126 1.0274687
0.6710218 1.3316481 0.58029044 -2.0470936 0.57769895 -1.1823194 -0.21629679 -1.2150942
0.008132411 -0.39826998 0.21956861 -0.9013469 -0.655931 0.40613213 -0.02365569 0.4066204
0.083772846 1.3168442 -0.0062454436 -0.7024383 0.67415845 0.3680233 1.9527997 -0.411912
0.15158328 0.24597493 0.12270807 0.2583862 -0.58666015 0.5244999 0.21786307 -1.1335088
0.6115414 -0.667791 0.48405567 0.7146662 -1.6825899 -0.026593393 0.15425602 1.3493015
-0.65320694 -2.7878838 0.4396071 -0.9486473 0.27339926 -0.6335527 -1.2298791 0.47092646
-0.14404544 0.34949374 -1.3223827 -0.053832952 1.3686415 -1.1409979 -1.0490938 -1.0374506
-1.5671287 1.9777335 -0.6452641 0.43015963 4.1636887 1.1536481 0.91541624 -0.77532685
-0.8780456 0.2776668 2.1541655 0.98781353 0.08856774 1.8714055 0.9946557 0.84601015
0.22488117 1.1322514 0.7466037 0.8957837 0.24718592 0.55532175 0.33388487 1.6365747
0.27417573 -0.10773076 0.16330694 -0.8089285 1.0775397 0.45575505 0.017589556 -0.20480037
0.6285033 -0.915623 0.31887802 -1.1935332 0.48199147 0.008720966 0.18951218 -0.011751132
-1.3773214 0.98761475 -0.8541721 -1.114624 0.28225002 -0.10137577 -0.6086994 -1.6054405
00000000: f00e 0540 bdc9 c03f 07f3 e6be 98eb 7dbd
00000010: f9ed af3e 7562 653f 87c2 69bf e06d 633e
00000020: 9a8d 1940 9a54 cc3c 4ee6 cd3f ed39 793f
00000030: 15fd a8bf 5796 693f 97c8 0140 55b0 e83e
00000040: ca0f c73f e651 6e3f 9e07 d9be 92fc f4bf
00000050: e93a 643f 5b5f b53f 30e3 a03f 303a a13f
00000060: 77cc c73e f037 d5be de5f 3c3e a0f7 123f
00000070: dc80 c13d dca3 11bd e094 a9bb 865a 6abf
00000080: 474e 103f 194b 72bf 51f3 0fbe bafa 843e
00000090: 0933 94bf ff5a afbf 1cbf 38be 5549 253f
000000a0: 5cab a33e a49f aabf 81f1 d83f cd9e 1c3f
000000b0: 7ae7 8b3f e2ca e7bf 82de 88be 2969 38be
000000c0: f147 87bf 67e0 703f 50b3 eabf 120b f13e
000000d0: ebe3 c23f af0d d03e 7d92 ec3e f385 083f
000000e0: 4a60 90be c0e2 123f b51d b4bf 1710 c03f
000000f0: 2d10 d03f a210 773f 5caa 4d3e c6fd fbbd
00000100: 894f 823e 6e46 77bf 96b7 04c0 c9f9 d03f
00000110: ab43 eabf f65d 96bf d7ce 34bd 5b5a d13e
00000120: 46d2 f63e 6c17 df3f efd3 46bf 185a f33f
00000130: f2d5 603f cc65 763f c4c7 42be b295 bdbf
00000140: 3184 6b3f cd71 c4bf 6614 fc3d 76a4 2abf
00000150: 7378 8fbf 2b20 a43f 3843 673f 8621 ba3e
00000160: 4ebd 83be 25a6 87bf a696 5abc 4d01 1abf
00000170: 6390 0abe 51d9 ec3e b55f 78bf e85a 32bf
00000180: 8ea4 af3e 828c d03f 0721 9abf 2859 833e
00000190: e589 3cbf 1cba 4ebf 1371 15bf dbfc 07be
000001a0: 1348 21bf 0816 593f 3df7 903d 1cba 233f
000001b0: a055 70be bac0 213f b956 03c0 f1ee b7bf
000001c0: 5a19 873f 334e 51be 38df 783e 9166 f3bc
000001d0: 3ab3 ccbf f947 1440 bc9c eabe 813a 8fbf
000001e0: 30b3 853e 7127 4cbf 406f 5d3e 6743 7b3f
000001f0: 35dd ba3e 3ff1 703e 8cb1 a6be 5ca8 683e
00000200: f927 103c c757 4cbe ebb5 22bf 8f35 3dbd
00000210: bd1a 7bbf 9162 10be 3e06 413f ece7 053e
00000220: cdcd 983e c816 44bf cbb2 403f ee13 54bd
00000230: be51 913d 4190 72bf bf9c 46bf 1ab8 08c0
00000240: c885 e9bf 8bd1 a7be d0ad bc3d 1b8e b33f
00000250: 725a de3c faaa 8d3d 852f 0e3f 1884 833f
00000260: 16c8 2b3f 7273 aa3f ea8d 143f 9503 03c0
00000270: 14e4 133f 3e56 97bf e87c 5dbe 3588 9bbf
00000280: ce3d 053c 0bea cbbe 98d6 603e acbe 66bf
00000290: 18eb 27bf 8df0 cf3e 94c9 c1bc 8d30 d03e
000002a0: 1991 ab3d 5a8e a83f 94a6 ccbb ffd2 33bf
000002b0: a695 2c3f 8d6d bc3e 57f5 f93f 21e6 d2be
000002c0: a638 1b3e dae0 7b3e 5e4e fb3d 324b 843e
000002d0: 5c2f 16bf a045 063f 7f17 5f3e d116 91bf
000002e0: fa8d 1c3f 5af4 2abf 25d6 f73e 5df4 363f
000002f0: 1b5f d7bf 63da d9bc 4af5 1d3e e9b5 ac3f
00000300: 9238 27bf b06c 32c0 2f14 e13e 8dda 72bf
00000310: fdfa 8b3e 8230 22bf ae6c 9dbf 461d f13e
00000320: a680 13be d8f0 b23e d643 a9bf f17f 5cbd
00000330: a52f af3f 380c 92bf b548 86bf 2ecb 84bf
00000340: ac97 c8bf 5f26 fd3f 0730 25bf e23d dc3e
00000350: f03c 8540 beaa 933f b858 6a3f d27b 46bf
00000360: 99c7 60bf 582a 8e3e d9dd 0940 59e1 7c3f
00000370: 0163 b53d 378a ef3f c2a1 7e3f 1f94 583f
00000380: 4047 663e 9ded 903f 6c21 3f3f 1552 653f
00000390: 4e1e 7d3e 9129 0e3f f5f2 aa3e 487b d13f
000003a0: c360 8c3e f2a1 dcbd ef39 273e f015 4fbf
000003b0: d2ec 893f ba58 e93e f917 903c 30b7 51be
000003c0: 98e5 203f 4566 6abf fb43 a33e b2c5 98bf
000003d0: 96c7 f63e 62e2 0e3c 7b0f 423e d287 40bc
000003e0: 114c b0bf 52d4 7c3f 06ab 5abf 00ac 8ebf
000003f0: 1383 903e 1a9e cfbd b9d3 1bbf 137f cdbf

rnn.weight_ih_l0 f4 [1, 2]
-0.818655 0.6621223
00000000: 6093 51bf d980 293f

rnn.weight_ih_l0_reverse f4 [1, 2]
0.09758746 -0.9712175
00000000: efdb c73d b6a1 78bf

fc1.weight f4 [20, 9]
0.159219 -0.20394279 0.08073966 -0.037058093 0.20778003 -0.2735281 0.21065168 -0.11816051
-0.49227658 0.37910014 -0.3322711 -0.060182285 0.12330927 0.27793127 -0.2797732 0.12863064
0.46910882 0.46350154 0.3442278 0.3406906 0.46133518 0.19722475 0.054763373 0.095333554
-0.28652194 -0.35878846 -0.071986966 -0.07406555 -0.29328445 0.08746773 -0.10848486 -0.059747465
0.068440266 -0.20453535 0.074092165 0.4546702 0.1435257 -0.026455209 -0.30014202 0.20486438
-0.30093816 -0.12112361 0.35222247 0.091979824 0.50447714 0.07751733 -0.25975776 -0.10212587
0.13798116 0.35631096 -0.24659024 0.23102263 0.40681309 -0.044791326 -0.13528435 -0.35678896
0.4589638 -0.40303186 0.23960824 0.031660672 -0.4010274 0.26895684 0.27151585 -0.2785267
-0.4281127 0.21344084 -0.16497147 0.27053264 0.2811407 0.0047919555 0.38871548 0.057466973
-0.20764436 -0.45444748 -0.09009611 0.1318594 0.16827466 0.22612774 -0.39698195 0.054419883
0.042121794 -0.18360624 0.23144665 0.1561419 -0.29647213 0.07877077 -0.082108155 -0.4521248
0.3543274 0.26435602 0.40385956 0.036298975 0.33209828 0.3388822 0.26453492 0.31435794
-0.27524844 -0.22261392 0.098105825 0.24550974 0.37666607 -0.29068092 0.04558441 -0.054379385
-0.09270036 0.008684551 -0.380164 -0.3017555 0.5041414 -0.31308177 0.011396686 -0.3073981
-0.0420485 0.0181141 -0.3927583 -0.32902268 0.08523711 -0.1954778 -0.3746819 -0.15740521
0.3057979 0.09628527 0.2755119 -0.16159275 0.2530477 0.17638063 0.015571336 0.43570295
0.17327979 -0.40296572 0.026326308 -0.14415725 -0.42069653 -0.04122934 0.0582392 0.30892995
0.44801235 0.41991177 0.068928204 -0.10325141 -0.008900359 0.3165248 0.16166334 0.18779972
0.011395178 0.2959504 0.11593217 -0.35611698 -0.3543902 -0.30238673 0.41507176 0.1710508
0.3018744 0.40928048 -0.1032731 0.11121494 -0.16337717 -0.31041455 -0.010068328 -0.10895791
-0.3355385 0.03411129 -0.12586856 0.26709428 -0.34139758 -0.13118005 -0.12790224 -0.16404597
0.17237492 -0.22286014 0.25822473 -0.48351407 -0.39917332 0.2945686 0.13892558 -0.3929363
0.042814266 -0.26325294 -0.35805422 0.5362875
00000000: 4e0a 233e 61d6 50be d65a a53d 3aca 17bd
00000010: 4ac4 543e e00b 8cbe 13b5 573e 23fe f1bd
00000020: ad0b fcbe 6a19 c23e 701f aabe b381 76bd
00000030: 9289 fc3d 024d 8e3e 6f3e 8fbe c0b7 033e
00000040: 082f f03e 1350 ed3e a03e b03e 006f ae3e
00000050: 2034 ec3e 49f5 493e 8f4f 603d 3d3e c33d
00000060: 01b3 92be 1fb3 b7be e76d 93bd aeaf 97bd
00000070: 6129 96be 4822 b33d 4f2d debd c2b9 74bd
00000080: 692a 8c3d b771 51be a2bd 973d 88ca e83e
00000090: 67f8 123e 98b8 d8bc 37ac 99be f8c7 513e
000000a0: 9114 9abe a80f f8bd 8156 b43e eb5f bc3d
000000b0: 6a25 013f 68c1 9e3d f8fe 84be 5e27 d1bd
000000c0: ef4a 0d3e 646e b63e 2782 7cbe 3291 6c3e
000000d0: ce49 d03e 1c77 37bd fb87 0abe 0bad b6be
000000e0: 4efd ea3e 315a cebe dd5b 753e 9fae 013d
000000f0: 7753 cdbe b6b4 893e 2004 8b3e 0d9b 8ebe
00000100: 9631 dbbe 3c90 5a3e 48ee 28be 4183 8a3e
00000110: adf1 8f3e d605 9d3b b705 c73e 7d62 6b3d
00000120: b9a0 54be 57ad e8be 4f84 b8bd 2706 073e
00000130: 3150 2c3e 088e 673e 3841 cbbe 62e7 5e3d
00000140: e787 2c3d 4603 3cbe 5a00 6d3e aae3 1f3e
00000150: 32cb 97be 9252 a13d 5228 a8bd e77c e7be
00000160: 676a b53e ac59 873e aec6 ce3e 3cae 143d
00000170: c908 aa3e f881 ad3e 1f71 873e 86f3 a03e
00000180: 5ded 8cbe e7f4 63be b5eb c83d e866 7b3e
00000190: 60da c03e 21d4 94be b8b6 3a3d ebbc 5ebd
000001a0: b0d9 bdbd a649 0e3c dba4 c2be b27f 9abe
000001b0: 690f 013f 414c a0be 2ab9 3a3c 4963 9dbe
000001c0: 0c3b 2cbd 0564 943c 9e17 c9be a975 a8be
000001d0: cb90 ae3d 552b 48be 4ed6 bfbe d52e 21be
000001e0: 8b91 9c3e 3631 c53d e50f 8d3e 9278 25be
000001f0: 788f 813e 209d 343e eb1e 7f3c 7514 df3e
00000200: 4270 313e 8651 cebe 45aa d73c f59d 13be
00000210: 8965 d7be 19e0 28bd 3a8c 6e3d 112c 9e3e
00000220: e061 e53e adfe d63e 3b2a 8d3d 7a75 d3bd
00000230: d0d2 11bc 8a0f a23e 138b 253e 924e 403e
00000240: d7b2 3a3c d086 973e d86d ed3d f754 b6be
00000250: a272 b5be 6fd2 9abe 4984 d43e f127 2f3e
00000260: 488f 9a3e 368d d13e d980 d3bd a9c4 e33d
00000270: 584c 27be a8ee 9ebe a1f5 24bc 5325 dfbd
00000280: b4cb abbe 48b8 0b3d b0e3 00be 95c0 883e
00000290: aacb aebe 1054 06be cef8 02be abfb 27be
000002a0: 0d83 303e 7335 64be 0836 843e 288f f7be
000002b0: 7260 ccbe b2d1 963e 8242 0e3e f22e c9be
000002c0: 035e 2f3d 17c9 86be e252 b7be 234a 093f

fc1.bias f4 [20]
0.22039764 0.055270564 -0.032181807 0.08837774 0.08483066 0.044223666 -0.001628206 -0.056053545
-0.07858696 -0.06731304 -0.09150541 0.071779385 -0.072304815 -0.0845268 0.061628025 0.055468295
-0.10480195 -0.044543173 -0.07307706 0.041364767
00000000: ebaf 613e 6363 623d 12d1 03bd 63ff b43d
00000010: b2bb ad3d e023 353d 8769 d5ba 6798 65bd
00000020: 33f2 a0bd 6bdb 89bd 3067 bbbd 1201 933d
00000030: 8c14 94bd 631c adbd ab6d 7c3d b932 633d
00000040: 68a2 d6bd e772 36bd 6da9 95bd 1a6e 293d

fc2.weight f4 [1, 20]
-0.20410477 0.33754498 0.21085405 0.3156336 0.66714746 -0.2423729 0.0023907209 0.38999522
0.19971207 0.5924446 0.28657332 -0.2674552 -0.0144093335 0.44359714 -0.23408219 -0.40722275
0.44287357 -0.33363432 0.29444247 0.668571
00000000: d700 51be b2d2 ac3e 20ea 573e ba9a a13e
00000010: 2dca 2a3f 9a30 78be a4ad 1c3b 74ad c73e
00000020: 5281 4c3e 73aa 173f bdb9 923e e3ef 88be
00000030: 2015 6cbc 2a1f e33e 3eb3 6fbe 807f d0be
00000040: 53c0 e23e 1ed2 aabe 2ac1 963e 7827 2b3f
