MentorMix/checkpoint/MentorNet/MentorNet_Fold_3_Epoch_10.pt (torch, 6666 bytes, 7 tensors)

embedding_layer1.weight f4 [2, 2]
000000 9a 50 84 3f 53 45 a0 bc 47 fd 4e 3f f4 b1 a6 be
       1.0337098 -0.019564306 0.8085522 -0.32557642

embedding_layer2.weight f4 [101, 5]
000000 d2 9c 0d bf 81 d9 ab 3f c3 e3 08 bf d7 79 06 40
       -0.55317414 1.3425752 -0.53472537 2.1011865
000010 45 57 76 bf 01 f5 01 3f 50 df 95 3d d9 92 2f bf
       -0.9622691 0.5076447 0.07317984 -0.68583447
000020 3d 75 44 bf a9 fe ee be 31 e2 e5 3e 0b dd 93 3f
       -0.7674139 -0.46678665 0.44899133 1.1551832
000030 16 e6 fe 3e c6 0f f9 bf c2 8c 1c 3f ac f8 f5 be
       0.49784917 -1.9457939 0.6115228 -0.48041284
000040 31 6f 60 3f 16 0b 41 bf c0 4a 5c 3f 90 3f 2d bf
       0.87669665 -0.7540754 0.8605156 -0.67675114
000050 2b db 2d bf cd 89 94 3d 5b bd ab 3d d1 5a 1c 3f
       -0.6791255 0.07252846 0.08385726 0.61076075
000060 ab 5c 09 3f 94 01 35 be cb 56 18 bf c9 b5 83 3f
       0.53657025 -0.17676383 -0.59507436 1.0289851
000070 9b 60 8a bf 30 bc 38 be fc 32 21 3f 74 98 ac bc
       -1.0810732 -0.18040538 0.6296842 -0.021068789
000080 13 dd f0 bd 9d c6 ac bf 41 ad b8 3f b9 ea 8e bf
       -0.117609166 -1.3498112 1.4427873 -1.1165382
000090 7a 25 13 3e 1d b2 22 bf 4e e5 98 3e d7 9f d5 3e
       0.14369765 -0.6355303 0.29862446 0.4172351
0000a0 95 0d a1 3f 8a b2 83 3f 16 27 fc 3f f9 26 0e c0
       1.258227 1.0288861 1.9699428 -2.2211287
0000b0 54 14 c9 bf 44 3b 97 3f 10 56 97 3d fc ce 22 bf
       -1.5709329 1.1814961 0.07389462 -0.63597083
0000c0 f2 ca ce 3e a8 d8 3c bf 49 f7 18 c0 88 50 01 bf
       0.4038921 -0.7376809 -2.390093 -0.50513506
0000d0 1c 75 6c bf 11 70 c7 3e 0d 68 13 bf 67 1f 5b 3f
       -0.92366195 0.38952687 -0.57580644 0.8559479
0000e0 9d 4b 09 be e7 f5 d3 3f d8 80 f3 bf c1 bd d5 be
       -0.1340775 1.6559418 -1.9023695 -0.41746333
0000f0 4a 0b dd 3f 8a d1 c0 3f cc 4d 88 3f 52 1d 5a be
       1.726907 1.5063946 1.0648742 -0.21300247
000100 d8 59 2e 3e b8 df 65 3e 19 f1 5a bf 53 b1 d7 3f
       0.1702646 0.22448623 -0.85524136 1.685099
000110 d5 62 9d be c7 e9 6d be 04 b0 f5 3f 9e af e3 3f
       -0.30739465 -0.2323371 1.9194341 1.7787969
000120 44 ad 0b 3f a0 79 98 3f 2d b8 f9 bf 0a f7 51 bf
       0.5456126 1.1912117 -1.9509331 -0.82017577
000130 b8 da 48 3e 16 34 83 3f 57 9e ed 3f b3 c1 49 3f
       0.19614685 1.025027 1.8563946 0.78811187
000140 b8 55 7f bf 77 85 5a 3f 4e 99 0a 40 12 0c e4 3c
       -0.9974017 0.853599 2.165607 0.027837787
000150 36 e5 98 bd a8 66 05 3f a4 48 ca bf 52 34 35 c0
       -0.074655935 0.52109766 -1.5803418 -2.8313184
000160 57 fc d9 bf 49 5a b2 bf d8 c1 cb bf 4f 33 9f 3c
       -1.7030133 -1.3933803 -1.5918531 0.019433646
000170 da f0 66 bf 02 c3 03 be d2 4d 13 3f 85 13 b8 3d
       -0.9021126 -0.12867358 0.5754062 0.08988098
000180 21 56 98 3d a9 2e 08 40 a8 21 e6 be 51 56 7b 3f
       0.07438303 2.127848 -0.44947553 0.98178583
000190 ab 03 de 3f 41 6d 17 bf 90 0f e3 be 2a e8 69 3e
       1.7344869 -0.59151083 -0.4434781 0.2284247
0001a0 aa 38 96 3f 69 d2 aa 3f e0 ee 95 3f d2 a0 68 be
       1.1736042 1.3345462 1.1713524 -0.22717598
0001b0 e1 2c 19 3d 44 84 e4 bf 34 e0 df be 90 af 9b 3f
       0.037396315 -1.7852864 -0.4372574 1.2162952
0001c0 93 ba e9 be be e4 88 bf 3b 20 41 3f d6 db 7b 3f
       -0.45650157 -1.0694807 0.75439805 0.9838232
0001d0 01 1e 14 3f 19 35 48 bf a5 54 f5 bd 0e 37 33 3f
       0.5785828 -0.7820602 -0.11979035 0.7000588
0001e0 9f 22 c1 be 86 3d 1b be a2 6c 70 3f 32 e5 0d 3f
       -0.37721726 -0.15160188 0.9391576 0.5542785
0001f0 97 6a dc 3e e4 a8 bd 3e 92 66 a4 bf f2 76 29 3f
       0.43050072 0.37042916 -1.2843802 0.6619712
000200 6a ff 5a 3f b1 68 39 bf 68 24 32 be 2c b7 be be
       0.8554598 -0.7242537 -0.173967 -0.37249124
000210 c2 7b 84 3d b1 7e a7 3d 6a 42 e7 bf 8e e6 ba be
       0.064689174 0.08178461 -1.8067143 -0.36504024
000220 55 8d ae 3e 57 45 84 bf 74 87 e1 be e3 cb 2b 3f
       0.34092203 -1.0333661 -0.44048655 0.6710798
000230 1f 30 dd 3f de 43 9a 3f d1 95 12 40 36 b6 bf 3f
       1.728031 1.2051961 2.290394 1.4977481
000240 ea b2 60 3f 59 aa 7d 3e 55 37 50 3f fd 43 f6 bd
       0.87773 0.24772014 0.8133443 -0.120246865
000250 f1 d7 33 be 22 d8 99 3e 39 ba 4f bf f5 46 53 be
       -0.17562844 0.3004771 -0.8114353 -0.20632537
000260 ba 95 13 40 df 31 ea be f3 80 7a 3f 6f f7 c0 3e
       2.3060136 -0.45741174 0.9785301 0.37688777
000270 51 1c db be 40 ce 7e bf 06 ad 7b bf 95 e5 9f be
       -0.4279504 -0.9953346 -0.9831089 -0.31229845
000280 25 ce 11 c0 cf 7b 97 bd 3a 55 99 3e b3 ff 90 be
       -2.278207 -0.073966615 0.29947835 -0.28320083
000290 29 40 7c 3d 68 ac cd bf fa c2 0b bf d8 67 ba be
       0.061584625 -1.6068239 -0.54594386 -0.36407351
0002a0 1d be 57 3e dd 6e e7 be 5d 47 93 bf 85 c9 5e be
       0.21068616 -0.4520177 -1.1506153 -0.21756561
0002b0 6f 11 f8 be 20 f1 32 bd 98 37 9c bf 35 65 85 3f
       -0.484508 -0.043686986 -1.2204466 1.0421511
0002c0 1a 2b 0c 40 06 a6 7e 3d ac 98 0c be 6f ea f9 3a
       2.1901307 0.06217005 -0.13730115 0.0019067059
0002d0 60 8b a1 be 80 36 20 40 02 de 0e c0 7e 9e d6 bd
       -0.31551647 2.5033264 -2.2323003 -0.10479449
0002e0 7a 0e 1c bf 67 9e 70 3f 9b 91 9b 3e f1 a2 4f bf
       -0.6095959 0.939917 0.30384526 -0.81108004
0002f0 09 81 8d bf a7 09 5b bf 51 85 78 3f d9 11 e8 3d
       -1.1055003 -0.85561603 0.97078425 0.11331529
000300 49 88 ab 3e 1f 8d 10 bf 9e e3 fc be 8b 08 35 3e
       0.33502415 -0.56465334 -0.49392408 0.1767904
000310 5a 0c 80 be ab e7 cf 3e 2e 71 a3 bf 77 1b 6a 3f
       -0.25009423 0.40606436 -1.2768915 0.9144816
000320 61 2d ff 3e 8a 26 c9 3f dd 47 96 be f2 a0 48 bf
       0.4983931 1.5714886 -0.29351702 -0.78370583
000330 ae 16 63 bf 68 39 0b 3e 86 b2 8f bf af e3 b8 3e
       -0.8870648 0.13596117 -1.1226356 0.3611121
000340 20 17 06 3f 61 f7 b8 3d 3d c7 c4 3d 88 a0 3d be
       0.52379036 0.09031559 0.09608314 -0.18518269
000350 67 68 c6 3d 22 d5 99 bf 3a 92 90 be dd b4 a1 3e
       0.09687882 -1.2018168 -0.28236562 0.315833
000360 8f 91 0b bf d9 68 1e 3e 01 ba 75 3f 86 8d 05 3f
       -0.5451898 0.15469684 0.95986944 0.5216907
000370 07 8c c8 bf 71 99 5b 3e 56 60 68 3f d8 f3 c1 bf
       -1.5667733 0.21445252 0.90771997 -1.515254
000380 c0 09 9d bf a1 f7 37 3e 95 40 e9 3f 85 85 ec bd
       -1.22686 0.17965557 1.8222834 -0.11548904
000390 9f bf 1d bf 48 be 37 3e 1c 45 e0 bf 02 6e 12 c0
       -0.61620516 0.1794368 -1.752109 -2.2879643
0003a0 b9 d3 f1 3f 8e 11 92 3f 04 a8 bb bf d1 97 8e bd
       1.8892738 1.1411607 -1.4660649 -0.069625504
0003b0 b8 04 f8 bf 99 14 67 3e a6 e3 c3 be 24 9b d5 3e
       -1.937644 0.22566451 -0.3825962 0.41719925
0003c0 99 94 ac 3f 91 53 0b be ae 01 b4 bf f1 af af be
       1.3482848 -0.13606097 -1.4063013 -0.3431392
0003d0 8e 2e 5d bf 5b 86 b4 be d2 e9 09 bf 4e db 8c bf
       -0.8639916 -0.35258755 -0.53872406 -1.1004426
0003e0 64 57 5a bf 4f 6f 99 3f 7f a6 25 be 3f fa 84 3e
       -0.852896 1.1987094 -0.16176794 0.25972173
0003f0 df 04 5d 3f aa 68 28 bd 4b 05 35 3f 6e 25 17 c0
       0.8633556 -0.04111544 0.707112 -2.3616595

rnn.weight_ih_l0 f4 [1, 2]
000000 16 fc 95 be 36 f0 75 bf
       -0.2929389 -0.9606966

rnn.weight_ih_l0_reverse f4 [1, 2]
000000 d8 2c 0e be 20 0c 22 bf
       -0.13884294 -0.6329975

fc1.weight f4 [20, 9]
000000 46 79 97 3e 8d 1d bb be 40 b3 60 3e 84 58 94 be
       0.29584712 -0.36545983 0.21943378 -0.28973782
000010 57 05 2a bd 89 4b a4 3e 05 41 87 be aa a0 0a 3f
       -0.041509 0.3208888 -0.26416793 0.54151404
000020 a0 e4 c2 3e 3c de e0 be 91 c5 a8 3d 34 f7 b5 bd
       0.38065052 -0.4391955 0.08240808 -0.08885041
000030 2d 41 dd 3d 6f c0 bf be ac 7d 6e 3e ce a7 91 be
       0.10803447 -0.37451503 0.23290128 -0.28448337
000040 77 46 95 3e 12 cf f5 3d 83 b3 b3 3e 92 95 25 be
       0.29155323 0.12002386 0.35097894 -0.16170338
000050 40 05 b9 be f8 3b d9 3e 8f 18 1f be b3 02 f3 bd
       -0.36136818 0.42428565 -0.15536712 -0.11865749
000060 db 0a e2 3e ac a9 78 3e 86 bc d3 3e 81 5c 3d 3e
       0.44148907 0.24283475 0.4135477 0.18492319
000070 cf 30 37 3e 08 64 03 bd fb f9 d0 be 41 db 29 bd
       0.17889713 -0.03207782 -0.4081572 -0.041468862
000080 fc b5 eb 3c b8 62 5e 3e 8b 59 df be b9 81 21 3e
       0.0287733 0.21717346 -0.43623003 0.15772142
000090 3c 7e 49 3e 67 c8 a3 be 20 30 a4 be e6 d6 c0 3d
       0.19677061 -0.31988832 -0.32067966 0.094159886
0000a0 23 70 d7 be 62 5d 3b be ce e1 55 be af bc 9a bd
       -0.4207774 -0.18297341 -0.20886919 -0.0755552
0000b0 cb 14 86 bc 67 a5 a1 3e 7b 08 ec be 49 85 78 bd
       -0.016367337 0.31571504 -0.4610022 -0.060673986
0000c0 03 a5 05 bc 83 db b9 3e 59 0f c4 ba 0c 63 19 bd
       -0.008157018 0.36300287 -0.0014958187 -0.037447974
0000d0 c9 a5 fd be b4 52 d6 be e7 b3 37 3e 55 33 f9 be
       -0.49540547 -0.41859972 0.17939721 -0.48671976
0000e0 f5 4d 34 3d 5c 59 cf 3d 8c c4 a0 be 16 24 21 3e
       0.044019658 0.10124466 -0.31399953 0.15736422
0000f0 0c 08 58 be 9e 03 bc bd 4b 71 1d be d7 1d ac 3e
       -0.2109682 -0.091803774 -0.15375249 0.33616516
000100 dd 29 d5 3e 8a fd 96 3e 4c be 50 3e 87 9e 16 be
       0.41633502 0.2949031 0.20385092 -0.14708911
000110 d4 1a 12 bd 92 33 87 3c 87 49 83 bd cf db a5 be
       -0.035670117 0.016504083 -0.064105086 -0.32394263
000120 90 62 cc be bc 61 17 be bb 95 a6 be e3 f4 04 be
       -0.39918947 -0.14783376 -0.3253611 -0.12984042
000130 0e 25 af bd 0e 2d ff bd c8 31 5c bb f5 b0 d3 be
       -0.085519895 -0.124597654 -0.0033599008 -0.41345945
000140 f4 87 01 bf 1b 30 92 be f5 a1 d4 3c 8a d4 a3 3b
       -0.50598073 -0.28552327 0.025956133 0.004999702
000150 55 35 89 bb 17 79 6e 3e a7 7c 1e 3e 9b a6 9c 3e
       -0.004187266 0.2328838 0.15477239 0.3059586
000160 c6 85 7c 3d 75 eb da be dd 68 a7 3c 08 28 18 3e
       0.061651014 -0.42757764 0.020435745 0.1485902
000170 d1 56 8b 3e 87 bf 87 3e d0 84 23 3d 00 46 80 3d
       0.27214673 0.2651331 0.03992158 0.062633514
000180 55 07 51 bc c7 82 3b be 35 44 17 3f 93 39 df 3d
       -0.012758096 -0.18311606 0.5908845 0.10899653
000190 34 57 8d be df df b1 3d 48 ab 18 3e 96 70 23 3e
       -0.27605593 0.08685278 0.14909089 0.15960917
0001a0 9a d3 97 3e 7d 2f 1a 3d 76 ad 0b be 18 52 9a be
       0.29653627 0.037642945 -0.13640389 -0.30140758
0001b0 97 c0 30 be 91 67 80 3d 48 cb 26 be f0 34 a2 3e
       -0.17260967 0.06269754 -0.16288483 0.31681013
0001c0 ba 31 b1 bd de 9e 53 be 94 c2 0f 3e fc e3 80 3e
       -0.08652063 -0.20666072 0.1403907 0.25173938
0001d0 33 3a 0d 3f df 20 f2 bd 00 37 45 be da 27 9b 3e
       0.5516693 -0.11822676 -0.19259262 0.30303842
0001e0 d9 a4 ae be dd 7a 1e 3e 96 46 0a bf 81 3f bf 3e
       -0.34110144 0.15476556 -0.54013956 0.37353137
0001f0 05 38 72 3e 51 94 ef 3c 56 19 ac be 8a b4 6e 3c
       0.23654182 0.029245527 -0.3361308 0.014569411
000200 1e 8d 0f be 2c 20 8d 3e 37 f5 e2 be 53 8c 12 be
       -0.14018676 0.27563608 -0.4432771 -0.14311342
000210 a5 4f aa 3d c7 d4 9a 3e 58 35 06 bf 2d d6 0a 3e
       0.08315972 0.3024046 -0.52425146 0.13558264
000220 07 24 17 3d 5a c3 01 3e 1f 48 8a 3d 63 15 75 3d
       0.036899593 0.12672177 0.06752037 0.05983485
000230 6c e6 b1 3e f7 84 37 3e 61 50 34 be cc 8f ae 3e
       0.3474611 0.17921816 -0.17608787 0.34094083
000240 f8 ef 43 3d 91 b1 9b 3e bc 55 83 be ea de e9 be
       0.047836274 0.3040891 -0.25651348 -0.45677882
000250 68 01 5a 3e 37 70 21 bd 02 e6 8c be 28 af 4b bd
       0.21289599 -0.039413657 -0.27519232 -0.04972759
000260 90 43 1a be 46 83 ce be 8f 34 e3 bc 1b 9f 8e be
       -0.15064836 -0.4033453 -0.027735023 -0.27855763
000270 46 e3 af be 4e fa d7 3e b3 89 8c bc b7 6d 95 be
       -0.34353083 0.42183155 -0.017155504 -0.29185268
000280 73 88 17 be 9f 8d c4 3e 78 e9 86 bd aa c8 6d 3e
       -0.14798145 0.38389298 -0.065874994 0.23221079
000290 99 37 ca 3e af 13 c6 3e a9 ca b0 3e 65 87 49 bd
       0.39495543 0.38686892 0.34529617 -0.049201388
0002a0 a5 55 f7 be 95 91 e6 3c aa ce 26 3e 74 34 c2 3e
       -0.4830753 0.02814559 0.16289774 0.37930644
0002b0 54 36 8d be 3c a1 ea be a4 e9 be 3e 6f 37 f6 3d
       -0.27580512 -0.45826137 0.3728763 0.12022292
0002c0 61 a7 68 bd e2 d3 c7 3e af f9 75 3e c3 40 03 3e
       -0.05680025 0.3902884 0.24021028 0.12817673

fc1.bias f4 [20]
000000 d4 43 c9 bc f0 ab 82 3c 33 c2 c1 bd 5a b5 7e bd
       -0.024568476 0.015951127 -0.09460869 -0.06218467
000010 2f e2 b4 3d b0 86 7c bd a9 30 53 bd 08 65 b2 bd
       0.088322036 -0.061651886 -0.051560078 -0.087106764
000020 dc b1 51 3d 6d 97 3f bc a3 06 12 3e 42 bc aa bd
       0.05119501 -0.011693818 0.14260344 -0.083366886
000030 18 32 bb 3d 4e 8c 57 3d e2 07 25 bd 43 78 71 3d
       0.09140414 0.05262404 -0.04029072 0.05895258
000040 04 35 db 3a fd bb 9d 3c f7 ac 13 bd d5 9a 1a 3d
       0.0016724174 0.019254679 -0.036053624 0.037745316

fc2.weight f4 [1, 20]
000000 33 b9 28 3f 60 c6 2a 3e cf 9c 92 3e ca 1d a6 be
       0.6590759 0.16677237 0.2863526 -0.32444602
000010 d6 be b1 3e af f8 cd be a1 58 dd be 99 de 06 bf
       0.3471591 -0.40228793 -0.4323168 -0.5268341
000020 6d 36 1d bf e4 8a 14 bf db 9d db 3d 99 05 3c be
       -0.6141117 -0.5802443 0.10723468 -0.1836151
000030 99 c5 2b 3e bc 51 31 3e c5 e5 60 be 65 f1 86 3e
       0.16774596 0.17316335 -0.2196265 0.26356044
000040 7c f4 3b 3e da a0 c0 3e dc 99 a7 be 11 07 64 be
       0.18354982 0.3762272 -0.32734573 -0.2226832
