MentorMix/checkpoint/MentorNet/MentorNet_Fold_1_Epoch_9.pt (torch, 6655 bytes, 7 tensors)

embedding_layer1.weight f4 [2, 2]
0.54814893 0.28152138 0.06167726 0.6213173
00000000: 7d53 0c3f 9223 903e 4ba1 7c3d a70e 1f3f

embedding_layer2.weight f4 [101, 5]
-1.1434902 -1.0503607 1.3413907 -0.7076959 -0.5914899 0.27376235 -0.96485204 -0.23581198
-0.5709802 0.013488896 -0.5494922 -1.0112808 1.3949215 0.8081901 0.5608995 1.0762349
0.43914157 1.1712008 1.7674273 -0.09536188 0.1393715 -1.5785011 -0.32062083 -0.29934606
-0.7984398 0.33573052 0.27533352 1.7163026 -0.056139667 0.910702 -1.3923858 2.689087
-1.8821425 -0.77654505 2.024202 -0.0865412 0.098123536 -1.2150067 0.7311667 1.1718048
2.4069781 0.27856624 0.24675292 1.1843266 -0.7282137 1.1632744 -0.0090745855 -0.8424634
0.21518245 -0.52419364 -1.8349664 -1.3420404 0.4201733 1.1677498 0.28168032 -1.7754008
1.1173496 0.2981353 0.10988554 -0.6463385 0.4285423 1.4760778 -1.7868679 1.6103176
0.9837094 0.87928617 -1.4503865 -1.1802155 0.40997243 0.40845066 0.2578654 1.0950214
1.3263941 0.8547218 -0.280524 0.7000165 -1.456733 1.6089354 0.093769975 -1.259749
-0.50467217 -1.4745737 -0.34157753 -0.30025828 1.3075355 -1.1627988 0.11963611 -0.16313533
-0.9246983 -0.93010116 1.4301451 0.4207734 -0.35380653 0.76392704 -0.5889507 -0.76359737
0.6155449 0.19382203 -2.5832138 0.85394204 1.2853268 0.5442215 0.9908141 1.2562684
-0.1414089 0.34335375 -1.0702778 -0.87426317 -1.4647994 -1.2629284 1.1220188 1.5663341
0.15728118 1.2539585 1.3275172 -0.4954058 1.5496205 0.34762925 0.09300803 0.6147403
-0.64466584 -0.28702253 3.3212175 -0.40206036 -0.71225893 -0.6200344 -0.22813495 -0.78927463
-1.0371166 -1.0669051 -0.20850393 -0.21552248 0.27052772 0.55969197 -0.3183963 1.5117207
-1.5208013 0.9195754 -0.54835236 -0.34724024 -0.7474459 -0.92343855 0.5733984 -0.10929951
0.7574802 -0.40676087 -0.12773234 0.28036582 0.0374569 -0.6378393 -0.8419358 -0.64085805
0.72668594 -1.1226737 -0.24321172 -0.5602604 0.6817095 -0.51700455 1.7902275 0.58767647
0.2504676 -0.7930326 0.52310103 1.2236058 -0.94579434 -1.3529137 3.38374 -2.4043953
-0.38911948 -0.07960036 0.7604781 -1.0025175 0.946171 0.35120168 1.5728474 1.7185327
-0.059443872 -2.491939 0.2422618 0.28830886 -0.10951661 0.31256905 1.5037949 0.50377077
0.6223302 -0.4481365 -0.2856487 0.387978 -1.1434665 -0.65123045 -0.103163965 0.6936977
-1.1991774 -0.047417123 -2.002951 -0.49140018 1.7086049 0.791276 1.0230097 0.9839178
-0.76127595 -0.5820651 -1.1388218 -0.6444539 0.6100253 -0.90588295 -0.4356011 -0.5961388
-0.07051458 0.3469794 -0.6536796 1.5586202 0.4000731 2.4422815 -0.38184077 0.43265304
-2.0173 0.4235032 0.57302195 -1.796243 -0.3061445 -0.42027354 0.2828067 0.36423814
2.6414983 -0.9624009 -0.20756981 -1.388908 0.012691011 -1.8734486 1.7997428 0.28238562
1.6604139 0.27173975 -0.80869967 0.12672262 0.5706765 -0.13479164 0.34371647 0.3718005
0.14440395 0.77716845 -2.3381126 -0.8291204 1.1661391 1.4786575 0.26760873 0.75611985
-0.5873361 -2.0619206 0.37331888 0.27963817 -0.29200193 -0.67373556 1.1964053 -0.05141742
00000000: e35d 92bf 3872 86bf b1b2 ab3f 8f2b 35bf
00000010: e26b 17bf 942a 8c3e 8b00 77bf b278 71be
00000020: c22b 12bf 8800 5d3c 85ab 0cbf a671 81bf
00000030: ca8c b23f 8ce5 4e3f 1c97 0f3f 11c2 893f
00000040: 2ad7 e03e e8e9 953f 0f3b e23f 174d c3bd
00000050: 67b7 0e3e 530c cabf 6a28 a4be e343 99be
00000060: 8d66 4cbf dfe4 ab3e 84f8 8c3e ceaf db3f
00000070: b5f2 65bd c423 693f b339 b2bf 001a 2c40
00000080: 0cea f0bf a8cb 46bf 878c 0140 833c b1bd
00000090: fef4 c83d 5785 9bbf be2d 3b3f b3fd 953f
000000a0: ee0b 1a40 3ca0 8e3e ccac 7c3e 0498 973f
000000b0: 376c 3abf 2de6 943f 92ad 14bc aeab 57bf
000000c0: ca58 5c3e 8e31 06bf 2ee0 eabf fbc7 abbf
000000d0: f420 d73e d378 953f 6738 903e 5540 e3bf
000000e0: 5005 8f3f 31a5 983e ac0b e13d 7176 25bf
000000f0: e569 db3e 1ef0 bc3f 16b8 e4bf e31e ce3f
00000100: 61d4 7b3f e618 613f 44a6 b9bf 4d11 97bf
00000110: e8e7 d13e 7220 d13e ef06 843e a929 8c3f
00000120: 48c7 a93f 0ccf 5a3f d7a0 8fbe 4834 333f
00000130: 3a76 babf 98f1 cd3f 790a c03d 753f a1bf
00000140: 3232 01bf d5be bcbf 40e3 aebe 74bb 99be
00000150: 535d a73f 97d6 94bf c703 f53d f30c 27be
00000160: 07b9 6cbf 1c1b 6ebf ff0e b73f 9c6f d73e
00000170: 2126 b5be b990 433f 79c5 16bf 1e7b 43bf
00000180: 5a94 1d3f 4879 463e 6053 25c0 f29b 5a3f
00000190: 9785 a43f 1a52 0b3f fea5 7d3f 67cd a03f
000001a0: 7fcd 10be 10cc af3e ddfe 88bf b6cf 5fbf
000001b0: 8c7e bbbf a3a7 a1bf 509e 8f3f a37d c83f
000001c0: 510e 213e b681 a03f 15ec a93f d4a5 fdbe
000001d0: f759 c63f 76fc b13e fe7a be3d 9f5f 1d3f
000001e0: d208 25bf 9ef4 92be d48e 5440 dbda cdbe
000001f0: 9a56 36bf 93ba 1ebf 359c 69be e70d 4abf
00000200: 3dc0 84bf 5990 88bf 0e82 55be edb1 5cbe
00000210: 9c82 8a3e f947 0f3f d704 a3be 1080 c13f
00000220: 9ea9 c2bf 4b69 6b3f d260 0cbf 79c9 b1be
00000230: 9d58 3fbf 7866 6cbf 3dca 123f 6cd8 dfbd
00000240: 39ea 413f f642 d0be 44cc 02be 1c8c 8f3e
00000250: 686c 193d 7049 23bf 1b89 57bf 460f 24bf
00000260: 1708 3a3f c6b3 8fbf 7e0c 79be 3a6d 0fbf
00000270: 8484 2e3f 695a 04bf 2d26 e53f f771 163f
00000280: 4a3d 803e 2f04 4bbf f3e9 053f 1d9f 9c3f
00000290: 941f 72bf 472c adbf 328f 5840 9de1 19c0
000002a0: ab3a c7be 8305 a3bd b1ae 423f 7e52 80bf
000002b0: 4338 723f b5d0 b33e 1053 c93f e1f8 db3f
000002c0: 6b7b 73bd ee7b 1fc0 7a13 783e 389d 933e
000002d0: 3f4a e0bd 0d09 a03e 5a7c c03f 1ff7 003f
000002e0: 0851 1f3f 2672 e5be 8c40 92be 0da5 c63e
000002f0: 1c5d 92bf 0ab7 26bf a147 d3bd 2c96 313f
00000300: a57e 99bf 7538 42bd 5930 00c0 ce98 fbbe
00000310: 91b3 da3f 1091 4a3f fbf1 823f 09e2 7b3f
00000320: fbe2 42bf 3802 15bf eac4 91bf eefa 24bf
00000330: 9e2a 1c3f f2e7 67bf 1b07 dfbe 8d9c 18bf
00000340: f369 90bd 49a7 b13e 8c57 27bf de80 c73f
00000350: 62d6 cc3e 574e 1c40 a280 c3be b384 dd3e
00000360: 711b 01c0 69d5 d83e 91b1 123f 4aeb e5bf
00000370: f9be 9cbe 182e d7be 0acc 903e 6c7d ba3e
00000380: 4f0e 2940 e85f 76bf 2e8d 54be bdc7 b1bf
00000390: f5ed 4f3c 2acd efbf f95d e63f d994 903e
000003a0: 7188 d43f 7921 8b3e f106 4fbf 93c3 013e
000003b0: db17 123f d206 0abe 9bfb af3e a35c be3e
000003c0: a1de 133e 83f4 463f a3a3 15c0 3c41 54bf
000003d0: 0c44 953f a644 bd3f 0304 893e 1291 413f
000003e0: a95b 16bf 82f6 03c0 a723 bf3e bc2c 8f3e
000003f0: 4781 95be ef79 2cbf cf23 993f 139b 52bd

rnn.weight_ih_l0 f4 [1, 2]
-0.5321401 0.29223374
00000000: 553a 08bf a99f 953e

rnn.weight_ih_l0_reverse f4 [1, 2]
-0.34705317 -0.90416515
00000000: f4b0 b1be 5e77 67bf

fc1.weight f4 [20, 9]
0.33458233 -0.45152172 0.43690223 0.09298529 0.2213284 0.38813484 -0.152444 -0.3590719
0.2185954 -0.4641122 0.36317146 0.06480992 -0.27717438 0.08028411 0.20964839 -0.169904
0.16327663 -0.07631669 -0.3349879 0.19453868 0.20166382 0.22333884 -0.07087946 -0.48521215
-0.030635158 -0.013250806 -0.3354177 -0.2197616 0.20914334 0.34637094 -0.30530855 -0.14223817
-0.09015875 -0.116274156 -0.27966323 -0.6112478 -0.0070561515 0.42731926 -0.28534728 -0.3713153
-0.33883667 -0.34655127 0.40876186 -0.23997699 -0.2695666 0.14987954 -0.19614138 -0.10246458
-0.3985868 -0.18524902 0.31780612 -0.42898592 -0.27591494 0.30683675 0.04172912 -0.047084432
0.31713054 0.03727546 -0.014652758 -0.23104239 0.25615707 -0.12087948 -0.3645687 -0.12003405
-0.14591096 -0.27475017 0.3769191 0.3430849 -0.34394768 -0.270275 0.0059582316 -0.36135152
-0.099987656 -0.22302969 -0.16544527 0.037704684 0.36745846 0.22299905 0.18279742 -0.29670903
0.20526907 -0.09776837 0.27747485 0.32764226 0.06828727 0.3094321 -0.46695864 -0.32806513
-0.35356614 -0.22595434 -0.22808513 0.009113606 -0.24342658 0.1327999 -0.028465284 0.11991707
0.2927502 0.3290108 0.36163205 -0.22803308 -0.43606976 -0.43189108 -0.40819153 -0.17628683
0.36570024 0.46228582 0.31174204 0.25040603 -0.10777116 -0.10723826 -0.07467536 0.039402574
-0.4409211 -0.21588968 -0.17689538 -0.16245057 -0.049457222 -0.25726455 -0.14841844 0.088047944
-0.36132908 0.26138076 -0.2930685 -0.07608331 -0.0048843627 0.48109242 0.15526895 -0.074326865
0.14290518 0.0038381065 -0.008378522 0.099000506 0.37020206 0.37463608 0.19249086 -0.24388768
-0.003597315 0.07613425 -0.19981064 -0.008658681 -0.11902223 -0.074905746 0.049665663 -0.39993122
-0.17416345 -0.13739263 0.14286986 -0.03311846 0.2583409 0.1753653 0.37917212 -0.29013604
0.25335476 -0.43186903 0.34044436 0.30185512 -0.024715135 0.22848256 -0.063953176 -0.4438193
0.16550116 0.16197032 -0.13255878 0.20018291 0.3742204 0.46230128 -0.03907937 0.15170221
0.37016562 -0.0013155955 -0.21543439 -0.22031535 -0.23398684 -0.14636199 0.19265796 0.11870192
-0.23671772 -0.19352993 0.49544743 0.4680356
00000000: 604e ab3e db2d e7be a6b1 df3e 126f be3d
00000010: e9a3 623e 9cb9 c63e 481a 1cbe 46d8 b7be
00000020: 79d7 5f3e 1da0 edbe 9cf1 b93e 10bb 843d
00000030: cde9 8dbe ff6b a43d 11ae 563e 50fb 2dbe
00000040: fd31 273e ed4b 9cbd 8983 abbe 2635 473e
00000050: f680 4e3e f0b2 643e 4029 91bd ba6d f8be
00000060: 95f6 fabc e919 59bc debb abbe 2f09 61be
00000070: ac29 563e 8857 b13e 6751 9cbe e2a6 11be
00000080: 27a5 b8bd 2521 eebd 0530 8fbe bc7a 1cbf
00000090: 4a37 e7bb 97c9 da3e 0a19 92be 0a1d bebe
000000a0: 007c adbe 2b6f b1be 3c49 d13e 87bc 75be
000000b0: a204 8abe 067a 193e 49d9 48be f3d8 d1bd
000000c0: 9213 ccbe ebb1 3dbe 7cb7 a23e 0ba4 dbbe
000000d0: b944 8dbe b519 9d3e 27ec 2a3d 9bdb 40bd
000000e0: ef5e a23e 27ae 183d 1f12 70bc 6096 6cbe
000000f0: 0527 833e a98f f7bd c0a8 babe 69d4 f5bd
00000100: af69 15be 0eac 8cbe 8afb c03e d3a8 af3e
00000110: e919 b0be 7c61 8abe 453d c33b 1103 b9be
00000120: 54c6 ccbd e561 64be 7c6a 29be 3a70 1a3d
00000130: 8423 bc3e dd59 643e 3f2f 3b3e 3fea 97be
00000140: 0e32 523e c83a c8bd 2f11 8e3e bac0 a73e
00000150: 32da 8b3d e26d 9e3e 3415 efbe 27f8 a7be
00000160: 9f06 b5be 9360 67be 268f 69be 3c51 153c
00000170: d144 79be b2fc 073e 0730 e9bc 1597 f53d
00000180: 5be3 953e 1b74 a83e d627 b93e 8181 69be
00000190: 8944 dfbe d420 ddbe 7bfe d0be 8984 34be
000001a0: 103d bb3e bab0 ec3e a79c 9f3e 3835 803e
000001b0: 20b7 dcbd bc9f dbbd 65ef 98bd 9864 213d
000001c0: 69c0 e1be 2f12 5dbe 1024 35be 7159 26be
000001d0: a893 4abd 2eb8 83be 01fb 17be 7b52 b43d
000001e0: 2000 b9be b3d3 853e 130d 96be 91d1 9bbd
000001f0: 010d a0bb bf51 f63e d3fe 1e3e af38 98bd
00000200: bc55 123e be88 7b3b 1146 09bc c7c0 ca3d
00000210: 208b bd3e 4dd0 bf3e 531c 453e b1bd 79be
00000220: eec0 6bbb 46ec 9b3d 299b 4cbe 24dd 0dbc
00000230: edc1 f3bd 2f68 99bd 396e 4b3d c9c3 ccbe
00000240: e757 32be a7b0 0cbe 7a4c 123e 39a7 07bd
00000250: 4245 843e f692 333e d922 c23e b68c 94be
00000260: b7b7 813e f01d ddbe b94e ae3e c18c 9a3e
00000270: 6577 cabc 55f7 693e e2f9 82bd 493c e3be
00000280: 2379 293e 8cdb 253e 7dbd 07be c0fc 4c3e
00000290: d199 bf3e c1b2 ec3e b111 20bd d357 1b3e
000002a0: 5986 bd3e 0f70 acba d59a 5cbe 599a 61be
000002b0: 3f9a 6fbe ebdf 15be 2148 453e fe19 f33d
000002c0: 2166 72be b62c 46be 49ab fd3e 5da2 ef3e

fc1.bias f4 [20]
-0.02034562 -0.027999721 0.019316662 -0.014476992 0.05112821 0.03830028 -0.040981375 -0.0029720287
0.029146226 0.022592058 0.015707308 -0.03428798 0.0021591561 0.1633269 -0.022778243 -0.006436172
-0.0026065968 -0.09254994 -0.024146017 0.14099954
00000000: dcab a6bc ac5f e5bc fa3d 9e3c e830 6dbc
00000010: d06b 513d c1e0 1c3d 16dc 27bd 5ec6 42bb
00000020: 11c4 ee3c fb12 b93c 9dac 803c 8e71 0cbd
00000030: a180 0d3b 2b3f 273e 7099 babc 86e6 d2bb
00000040: 70d3 2abb d38a bdbd decd c5bc 2f62 103e

fc2.weight f4 [1, 20]
0.14690864 -0.22769155 0.1338232 -0.28892168 0.34376183 0.15006714 -0.563529 -0.13825442
0.031603806 0.32070985 0.48246652 -0.28784704 -0.45878196 0.46425125 0.0065102684 -0.56188715
0.28540426 -0.23437795 -0.17825586 0.16527131
00000000: 386f 163e f927 69be f308 093e 8bed 93be
00000010: 8d01 b03e 33ab 193e 7043 10bf 9192 0dbe
00000020: fe72 013d 1534 a43e da05 f73e b060 93be
00000030: 78e5 eabe 57b2 ed3e 1754 d53b d6d7 0fbf
00000040: 8220 923e c600 70be b488 36be e23c 293e
