MentorMix/checkpoint/MentorNet/MentorNet_Fold_3_Epoch_4.pt (torch, 6655 bytes, 7 tensors)

embedding_layer1.weight f4 [2, 2]
0	0x3f896534	1.073401
1	0x3c18d506	0.0093281325
2	0x3f4efd47	0.8085522
3	0xbea6b1f4	-0.32557642

embedding_layer2.weight f4 [101, 5]
0	0xbf0d9bbd	-0.5531576
1	0x3fabd8eb	1.3425573
2	0xbf08e4d7	-0.5347418
3	0x40067a18	2.101202
4	0xbf76585f	-0.96228594
5	0x3f01f501	0.5076447
6	0x3d95df50	0.07317984
7	0xbf2f92d9	-0.68583447
8	0xbf44753d	-0.7674139
9	0xbeeefea9	-0.46678665
10	0x3ee5e231	0.44899133
11	0x3f93dd0b	1.1551832
12	0x3efee616	0.49784917
13	0xbff90fc6	-1.9457939
14	0x3f1c8cc2	0.6115228
15	0xbef5f8ac	-0.48041284
16	0x3f606f31	0.87669665
17	0xbf410b16	-0.7540754
18	0x3f5c4ac0	0.8605156
19	0xbf2d3f90	-0.67675114
20	0xbf2ddb2b	-0.6791255
21	0x3d9489cd	0.07252846
22	0x3dabbd5b	0.08385726
23	0x3f1c5ad1	0.61076075
24	0x3f095cab	0.53657025
25	0xbe350194	-0.17676383
26	0xbf1856cb	-0.59507436
27	0x3f83b5c9	1.0289851
28	0xbf8a609b	-1.0810732
29	0xbe38bc30	-0.18040538
30	0x3f2132fc	0.6296842
31	0xbcac9874	-0.021068789
32	0xbdf0dd13	-0.117609166
33	0xbfacc69d	-1.3498112
34	0x3fb8ad41	1.4427873
35	0xbf8eeab9	-1.1165382
36	0x3e13257a	0.14369765
37	0xbf22b21d	-0.6355303
38	0x3e98e54e	0.29862446
39	0x3ed59fd7	0.4172351
40	0x3fa10d95	1.258227
41	0x3f83b28a	1.0288861
42	0x3ffc2716	1.9699428
43	0xc00e26f9	-2.2211287
44	0xbfc91454	-1.5709329
45	0x3f973b44	1.1814961
46	0x3d975610	0.07389462
47	0xbf22cefc	-0.63597083
48	0x3ececaf2	0.4038921
49	0xbf3cd8a8	-0.7376809
50	0xc018fa1b	-2.3902652
51	0xbf015bc0	-0.50530624
52	0xbf6c7e58	-0.92380285
53	0x3ec784b0	0.3896842
54	0xbf137340	-0.5759773
55	0x3f5b1f67	0.8559479
56	0xbe094b9d	-0.1340775
57	0x3fd3f5e7	1.6559418
58	0xbff380d8	-1.9023695
59	0xbed5bdc1	-0.41746333
60	0x3fdd0b4a	1.726907
61	0x3fc0d18a	1.5063946
62	0x3f884dcc	1.0648742
63	0xbe5a1d52	-0.21300247
64	0x3e2e59d8	0.1702646
65	0x3e65dfb8	0.22448623
66	0xbf5af119	-0.85524136
67	0x3fd7b153	1.685099
68	0xbe9d62d5	-0.30739465
69	0xbe6de9c7	-0.2323371
70	0x3ff5b004	1.9194341
71	0x3fe3af9e	1.7787969
72	0x3f0bad44	0.5456126
73	0x3f9879a0	1.1912117
74	0xbff9b82d	-1.9509331
75	0xbf51f70a	-0.82017577
76	0x3e48dab8	0.19614685
77	0x3f833416	1.025027
78	0x3fed9e57	1.8563946
79	0x3f49c1b3	0.78811187
80	0xbf7f55b8	-0.9974017
81	0x3f5a8577	0.853599
82	0x400a994e	2.165607
83	0x3ce40c12	0.027837787
84	0xbd98e536	-0.074655935
85	0x3f0566a8	0.52109766
86	0xbfca48a4	-1.5803418
87	0xc0353452	-2.8313184
88	0xbfd9fc57	-1.7030133
89	0xbfb25a49	-1.3933803
90	0xbfcbc1d8	-1.5918531
91	0x3c9f334f	0.019433646
92	0xbf66f0da	-0.9021126
93	0xbe03c302	-0.12867358
94	0x3f134dd2	0.5754062
95	0x3db81385	0.08988098
96	0x3d985621	0.07438303
97	0x40082ea9	2.127848
98	0xbee621a8	-0.44947553
99	0x3f7b5651	0.98178583
100	0x3fde2cff	1.7357482
101	0xbf171327	-0.590136
102	0xbee26876	-0.44220322
103	0x3e6b32b9	0.22968568
104	0x3f9655a9	1.1744891
105	0x3faad269	1.3345462
106	0x3f95eee0	1.1713524
107	0xbe68a0d2	-0.22717598
108	0x3d192ce1	0.037396315
109	0xbfe48444	-1.7852864
110	0xbedfe034	-0.4372574
111	0x3f9baf90	1.2162952
112	0xbee9ba93	-0.45650157
113	0xbf88e4be	-1.0694807
114	0x3f41203b	0.75439805
115	0x3f7bdbd6	0.9838232
116	0x3f141e01	0.5785828
117	0xbf483519	-0.7820602
118	0xbdf554a5	-0.11979035
119	0x3f33370e	0.7000588
120	0xbec1229f	-0.37721726
121	0xbe1b3d86	-0.15160188
122	0x3f706ca2	0.9391576
123	0x3f0de532	0.5542785
124	0x3edc6a97	0.43050072
125	0x3ebda8e4	0.37042916
126	0xbfa46692	-1.2843802
127	0x3f2976f2	0.6619712
128	0x3f5aff6a	0.8554598
129	0xbf3968b1	-0.7242537
130	0xbe322468	-0.173967
131	0xbebeb72c	-0.37249124
132	0x3d847bc2	0.064689174
133	0x3da77eb1	0.08178461
134	0xbfe7426a	-1.8067143
135	0xbebae68e	-0.36504024
136	0x3eae8d55	0.34092203
137	0xbf844557	-1.0333661
138	0xbee18774	-0.44048655
139	0x3f2bcbe3	0.6710798
140	0x3fdd301f	1.728031
141	0x3f9a43de	1.2051961
142	0x401295d1	2.290394
143	0x3fbfb636	1.4977481
144	0x3f60b2ea	0.87773
145	0x3e7daa59	0.24772014
146	0x3f503755	0.8133443
147	0xbdf643fd	-0.120246865
148	0xbe33d7f1	-0.17562844
149	0x3e99d822	0.3004771
150	0xbf53486a	-0.8253237
151	0xbe468ba7	-0.1938921
152	0x401466ba	2.31877
153	0xbef08b51	-0.4698129
154	0x3f7da415	0.99078494
155	0x3ec0f76f	0.37688777
156	0xbedb1c51	-0.4279504
157	0xbf7ece40	-0.9953346
158	0xbf7bad06	-0.9831089
159	0xbe9fe595	-0.31229845
160	0xc011ce25	-2.278207
161	0xbd977bcf	-0.073966615
162	0x3e99553a	0.29947835
163	0xbe90ffb3	-0.28320083
164	0x3d7c4029	0.061584625
165	0xbfcdac68	-1.6068239
166	0xbf0bc2fa	-0.54594386
167	0xbeba67d8	-0.36407351
168	0x3e57be1d	0.21068616
169	0xbee76edd	-0.4520177
170	0xbf93475d	-1.1506153
171	0xbe5ec985	-0.21756561
172	0xbef8116f	-0.484508
173	0xbd32f120	-0.043686986
174	0xbf9c3798	-1.2204466
175	0x3f856535	1.0421511
176	0x400c2b1a	2.1901307
177	0x3d7ea606	0.06217005
178	0xbe0c98ac	-0.13730115
179	0x3af9ea6f	0.0019067059
180	0xbea18b60	-0.31551647
181	0x40203680	2.5033264
182	0xc00ede02	-2.2323003
183	0xbdd69e7e	-0.10479449
184	0xbf1c0e7a	-0.6095959
185	0x3f709e67	0.939917
186	0x3e9b919b	0.30384526
187	0xbf4fa2f1	-0.81108004
188	0xbf8d8109	-1.1055003
189	0xbf5b09a7	-0.85561603
190	0x3f788551	0.97078425
191	0x3de811d9	0.11331529
192	0x3eab8849	0.33502415
193	0xbf108d1f	-0.56465334
194	0xbefce39e	-0.49392408
195	0x3e35088b	0.1767904
196	0xbe800c5a	-0.25009423
197	0x3ecfe7ab	0.40606436
198	0xbfa3712e	-1.2768915
199	0x3f6a1b77	0.9144816
200	0x3f0e4da0	0.55587196
201	0x3fcfb4e0	1.6227074
202	0xbe7b5e17	-0.24547611
203	0xbf54a5d3	-0.8306553
204	0xbf562e3c	-0.836643
205	0x3e0b3968	0.13596117
206	0xbf8fb286	-1.1226356
207	0x3eb8e3af	0.3611121
208	0x3f061720	0.52379036
209	0x3db8f761	0.09031559
210	0x3dc4c73d	0.09608314
211	0xbe3da088	-0.18518269
212	0x3dc66867	0.09687882
213	0xbf99d522	-1.2018168
214	0xbe90923a	-0.28236562
215	0x3ea1b4dd	0.315833
216	0xbf0b918f	-0.5451898
217	0x3e1e68d9	0.15469684
218	0x3f75ba01	0.95986944
219	0x3f058d86	0.5216907
220	0xbfc88c07	-1.5667733
221	0x3e5b9971	0.21445252
222	0x3f686056	0.90771997
223	0xbfc1f3d8	-1.515254
224	0xbf9d09c0	-1.22686
225	0x3e37f7a1	0.17965557
226	0x3fe94095	1.8222834
227	0xbdec8585	-0.11548904
228	0xbf1dbf9f	-0.61620516
229	0x3e37be48	0.1794368
230	0xbfe0451c	-1.752109
231	0xc0126e02	-2.2879643
232	0x3ff1d3b9	1.8892738
233	0x3f92118e	1.1411607
234	0xbfbba804	-1.4660649
235	0xbd8e97d1	-0.069625504
236	0xbff804b8	-1.937644
237	0x3e671499	0.22566451
238	0xbec3e3a6	-0.3825962
239	0x3ed59b24	0.41719925
240	0x3fac9499	1.3482848
241	0xbe0b5391	-0.13606097
242	0xbfb401ae	-1.4063013
243	0xbeafaff1	-0.3431392
244	0xbf5d2e8e	-0.8639916
245	0xbeb4865b	-0.35258755
246	0xbf09e9d2	-0.53872406
247	0xbf8cdb4e	-1.1004426
248	0xbf5a5764	-0.852896
249	0x3f996f4f	1.1987094
250	0xbdd54fd4	-0.10415617
251	0x3ea0313a	0.31287557
252	0x3f6b7002	0.91967785
253	0xbd7ae063	-0.061249148
254	0x3f42d5fe	0.76107776
255	0xc017256e	-2.3616595

rnn.weight_ih_l0 f4 [1, 2]
0	0xbe2683b2	-0.16261175
1	0xbf566812	-0.8375255

rnn.weight_ih_l0_reverse f4 [1, 2]
0	0xbd842fa3	-0.064543985
1	0xbf0e25b2	-0.5552627

fc1.weight f4 [20, 9]
0	0x3e9340f6	0.287605
1	0xbec3fec7	-0.38280317
2	0x3e823821	0.25433448
3	0xbe9f5365	-0.31118312
4	0xbd9d768f	-0.07688629
5	0x3eadb635	0.33928075
6	0xbe78c960	-0.24295568
7	0x3ef30c9c	0.47470558
8	0x3e9fd41a	0.31216508
9	0xbef94a59	-0.48689535
10	0x3dc3bc3c	0.09557387
11	0xbdfbf23f	-0.12302064
12	0x3db47d48	0.08812958
13	0xbeb97875	-0.36224714
14	0x3e62da4f	0.2215359
15	0xbea79790	-0.3273282
16	0x3e66d9c1	0.22544004
17	0x3d4861e0	0.048921466
18	0x3ed11c0f	0.4084172
19	0xbe4ec185	-0.2019101
20	0xbeba6dfd	-0.3641204
21	0x3ed88ee8	0.4229653
22	0xbe62c6ce	-0.2214615
23	0xbdf9fb54	-0.1220614
24	0x3ef3d7f3	0.47625694
25	0x3e28fb98	0.16502225
26	0x3eac0761	0.3359938
27	0x3e848f96	0.25890797
28	0x3e1946c2	0.14968398
29	0x3ab40442	0.0013734179
30	0xbecb87bf	-0.39752004
31	0xbd50de00	-0.050992966
32	0x3d2f4bf1	0.042797033
33	0x3e92f2a5	0.28700748
34	0xbebcd5ad	-0.36881772
35	0x3e6bcf71	0.23028351
36	0x3e0fcd8b	0.14043252
37	0xbea1c1a0	-0.31593037
38	0xbeb273d1	-0.34853986
39	0x3d78e5de	0.060766093
40	0xbed44a34	-0.41462862
41	0xbe2ff7e4	-0.17184407
42	0xbe5dc9d2	-0.2165902
43	0xbdfd3432	-0.12363471
44	0xbd87fa31	-0.06639517
45	0x3eaa15d3	0.33219776
46	0xbedf83ab	-0.43655142
47	0xbda55beb	-0.080741726
48	0x3c9dd460	0.019266307
49	0x3ee55fcb	0.44799647
50	0xbc9491e7	-0.018135978
51	0xbd4bad23	-0.049725663
52	0xbedde7ea	-0.43341
53	0xbeb6826e	-0.35646385
54	0x3e812854	0.2522608
55	0xbf035a10	-0.513093
56	0x3d887d9f	0.06664585
57	0x3e130172	0.1435602
58	0xbead7ee9	-0.33885887
59	0x3e1622f9	0.14661779
60	0xbe36c199	-0.17847289
61	0xbc99cca8	-0.018774346
62	0xbda08680	-0.07838154
63	0x3ece9cd0	0.40354013
64	0x3ec967b8	0.39336944
65	0x3ea03ff6	0.31298798
66	0x3e71eb65	0.23624952
67	0xbe1c462c	-0.15261143
68	0xbd167570	-0.03673309
69	0x3d827fcf	0.06372034
70	0xbc6bd32a	-0.014393607
71	0xbe8accde	-0.27109426
72	0xbed916c2	-0.42400175
73	0xbe0db09b	-0.13836901
74	0xbec0c291	-0.37648442
75	0xbe0a97b4	-0.13534433
76	0xbd686949	-0.056741033
77	0xbe09ed2d	-0.13469382
78	0xbcff9983	-0.03120113
79	0xbeb3b807	-0.3510134
80	0xbee31f7d	-0.4435996
81	0xbe8656ef	-0.262382
82	0x3d0fdc5e	0.035122268
83	0x3c2de100	0.010612726
84	0x3ae3d6a4	0.0017382693
85	0x3e8c7dd2	0.27439743
86	0x3e2435df	0.16036175
87	0x3ead8f46	0.3389837
88	0x3e02e746	0.12783536
89	0xbeb86ad4	-0.36019003
90	0xbd574211	-0.05255324
91	0x3e28237c	0.16419786
92	0x3e9926f3	0.29912528
93	0x3e6e275b	0.232572
94	0x3ca86488	0.02055575
95	0x3db8b2a2	0.090184465
96	0xbd5a0356	-0.053225838
97	0xbea3031f	-0.3183832
98	0x3ee880b9	0.45410708
99	0x3e2c61b1	0.16834141
100	0xbe8ba67b	-0.27275452
101	0x3e0e1ce9	0.13878216
102	0x3e3f7f49	0.18700899
103	0x3e37d31a	0.17951623
104	0x3ea91dec	0.3303064
105	0x3dc8f3b7	0.0981211
106	0xbd015992	-0.03157956
107	0xbe46e3bf	-0.19422816
108	0xbe65b0f4	-0.22430784
109	0x3d9e837f	0.07739925
110	0xbe5e19e7	-0.21689568
111	0x3ea59921	0.3234339
112	0xbdc5134e	-0.09622823
113	0xbe879102	-0.2647782
114	0x3d711279	0.058855508
115	0x3e20a89d	0.15689321
116	0x3ee8b282	0.4544869
117	0xbe321035	-0.17388995
118	0xbe4fa493	-0.20277624
119	0x3e9ac1ba	0.30225927
120	0xbecc5f19	-0.39916304
121	0x3e13839b	0.14405672
122	0xbef9ad4a	-0.48765022
123	0x3ebe04c8	0.37113023
124	0x3dd1b2e6	0.102392
125	0xbdd320e4	-0.10309008
126	0xbe8e7d45	-0.27829948
127	0x3bd714cc	0.0065637585
128	0xbdf8ba0e	-0.12144862
129	0x3ea47530	0.32120657
130	0xbeebc395	-0.46047655
131	0xbe26b5ce	-0.1628029
132	0x3dc494e3	0.095987104
133	0x3eb864e5	0.36014476
134	0xbeedfb75	-0.4648091
135	0x3dc93485	0.098244704
136	0x3cc649f2	0.024205182
137	0x3df7b6ee	0.12095438
138	0x3ce9b2e5	0.028527686
139	0x3d2b516d	0.0418257
140	0x3ebbfd9b	0.36716923
141	0x3e30e11d	0.17273374
142	0xbe7344a1	-0.23756649
143	0x3e8e5e5d	0.27806368
144	0x3d0fae95	0.035078604
145	0x3e967e5d	0.29393283
146	0xbe6d0733	-0.23147278
147	0xbeed4e2d	-0.46348706
148	0x3e39f3da	0.18159428
149	0xbd0721e8	-0.03299132
150	0xbe904015	-0.2817389
151	0xbdb352f8	-0.087560594
152	0xbe42eec1	-0.1903639
153	0xbee95056	-0.45569104
154	0xbc526af8	-0.012842886
155	0xbe904d10	-0.28183794
156	0xbec0e258	-0.37672687
157	0x3ed1c089	0.40967205
158	0x3a807d38	0.0009802943
159	0xbea53ea9	-0.32274368
160	0xbe36cd7a	-0.1785182
161	0x3eb3c9c5	0.35114875
162	0xbd09b6bb	-0.03362153
163	0x3e662761	0.2247596
164	0x3ecbad2a	0.3978055
165	0x3ec66949	0.387522
166	0x3eb4674b	0.35235056
167	0xbd46abe9	-0.04850379
168	0xbee885ed	-0.45414677
169	0x3d802863	0.06257703
170	0x3e4c2ed7	0.19939743
171	0x3ebf586e	0.37372154
172	0xbe89a212	-0.26881462
173	0xbedebd49	-0.43503788
174	0x3ec10960	0.37702465
175	0x3df2a9e3	0.118488096
176	0xbd4c82aa	-0.0499293
177	0x3ec76c4f	0.3894982
178	0x3e8f881f	0.2803354
179	0x3e2e2654	0.17006809

fc1.bias f4 [20]
0	0xbd05f6d6	-0.032706104
1	0xbd060365	-0.03271808
2	0xbd0fed2b	-0.03513829
3	0x3c58252a	0.013192454
4	0x3cfc8e7e	0.030829664
5	0xbd398dea	-0.045301355
6	0x3cb80a3c	0.022465818
7	0xbc98852f	-0.018618194
8	0x3cd20e43	0.025641566
9	0x3c3da7c5	0.011575644
10	0x3d8d40be	0.06897114
11	0xbcc118a6	-0.023571324
12	0x3d2013c6	0.039081357
13	0xbb60a736	-0.0034279353
14	0x3c9625f5	0.018328646
15	0x3cae9c51	0.021314772
16	0xbc360738	-0.0111101195
17	0xbd0a9577	-0.033833947
18	0xbb4301b1	-0.0029755647
19	0x3d02569a	0.03182087

fc2.weight f4 [1, 20]
0	0x3f13365b	0.57504815
1	0x3de0e0bc	0.10980365
2	0x3e4fb72a	0.20284715
3	0xbe8014e5	-0.2501594
4	0x3ebfcd7e	0.37461466
5	0xbeb218d2	-0.3478456
6	0xbec418fc	-0.38300312
7	0xbef90b91	-0.48641637
8	0xbf0a17d8	-0.5394263
9	0xbef8bd8e	-0.4858212
10	0x3c9e376d	0.019313538
11	0xbd9e3669	-0.07725222
12	0x3dc421cd	0.095767595
13	0x3dec4704	0.11536983
14	0xbe2ff42d	-0.1718299
15	0x3e6324f1	0.22182061
16	0x3e66b4d2	0.22529915
17	0x3ec6ef57	0.38854477
18	0xbeb9c117	-0.36280128
19	0xbe8bfd8e	-0.27341884
