MentorMix/checkpoint/MentorNet/MentorNet_Fold_3_Epoch_6.pt (torch, 6655 bytes, 7 tensors)

embedding_layer1.weight f4 [2, 2]
0	0x3f87f017	1.0620145
1	0xbc07eb66	-0.008295869
2	0x3f4efd47	0.8085522
3	0xbea6b1f4	-0.32557642

embedding_layer2.weight f4 [101, 5]
0	0xbf0d9cd2	-0.55317414
1	0x3fabd981	1.3425752
2	0xbf08e3c3	-0.53472537
3	0x400679d7	2.1011865
4	0xbf765745	-0.9622691
5	0x3f01f501	0.5076447
6	0x3d95df50	0.07317984
7	0xbf2f92d9	-0.68583447
8	0xbf44753d	-0.7674139
9	0xbeeefea9	-0.46678665
10	0x3ee5e231	0.44899133
11	0x3f93dd0b	1.1551832
12	0x3efee616	0.49784917
13	0xbff90fc6	-1.9457939
14	0x3f1c8cc2	0.6115228
15	0xbef5f8ac	-0.48041284
16	0x3f606f31	0.87669665
17	0xbf410b16	-0.7540754
18	0x3f5c4ac0	0.8605156
19	0xbf2d3f90	-0.67675114
20	0xbf2ddb2b	-0.6791255
21	0x3d9489cd	0.07252846
22	0x3dabbd5b	0.08385726
23	0x3f1c5ad1	0.61076075
24	0x3f095cab	0.53657025
25	0xbe350194	-0.17676383
26	0xbf1856cb	-0.59507436
27	0x3f83b5c9	1.0289851
28	0xbf8a609b	-1.0810732
29	0xbe38bc30	-0.18040538
30	0x3f2132fc	0.6296842
31	0xbcac9874	-0.021068789
32	0xbdf0dd13	-0.117609166
33	0xbfacc69d	-1.3498112
34	0x3fb8ad41	1.4427873
35	0xbf8eeab9	-1.1165382
36	0x3e13257a	0.14369765
37	0xbf22b21d	-0.6355303
38	0x3e98e54e	0.29862446
39	0x3ed59fd7	0.4172351
40	0x3fa10d95	1.258227
41	0x3f83b28a	1.0288861
42	0x3ffc2716	1.9699428
43	0xc00e26f9	-2.2211287
44	0xbfc91454	-1.5709329
45	0x3f973b44	1.1814961
46	0x3d975610	0.07389462
47	0xbf22cefc	-0.63597083
48	0x3ececaf2	0.4038921
49	0xbf3cd8a8	-0.7376809
50	0xc018f751	-2.390095
51	0xbf0150ae	-0.5051373
52	0xbf6c753a	-0.92366374
53	0x3ec77059	0.38952902
54	0xbf136833	-0.5758087
55	0x3f5b1f67	0.8559479
56	0xbe094b9d	-0.1340775
57	0x3fd3f5e7	1.6559418
58	0xbff380d8	-1.9023695
59	0xbed5bdc1	-0.41746333
60	0x3fdd0b4a	1.726907
61	0x3fc0d18a	1.5063946
62	0x3f884dcc	1.0648742
63	0xbe5a1d52	-0.21300247
64	0x3e2e59d8	0.1702646
65	0x3e65dfb8	0.22448623
66	0xbf5af119	-0.85524136
67	0x3fd7b153	1.685099
68	0xbe9d62d5	-0.30739465
69	0xbe6de9c7	-0.2323371
70	0x3ff5b004	1.9194341
71	0x3fe3af9e	1.7787969
72	0x3f0bad44	0.5456126
73	0x3f9879a0	1.1912117
74	0xbff9b82d	-1.9509331
75	0xbf51f70a	-0.82017577
76	0x3e48dab8	0.19614685
77	0x3f833416	1.025027
78	0x3fed9e57	1.8563946
79	0x3f49c1b3	0.78811187
80	0xbf7f55b8	-0.9974017
81	0x3f5a8577	0.853599
82	0x400a994e	2.165607
83	0x3ce40c12	0.027837787
84	0xbd98e536	-0.074655935
85	0x3f0566a8	0.52109766
86	0xbfca48a4	-1.5803418
87	0xc0353452	-2.8313184
88	0xbfd9fc57	-1.7030133
89	0xbfb25a49	-1.3933803
90	0xbfcbc1d8	-1.5918531
91	0x3c9f334f	0.019433646
92	0xbf66f0da	-0.9021126
93	0xbe03c302	-0.12867358
94	0x3f134dd2	0.5754062
95	0x3db81385	0.08988098
96	0x3d985621	0.07438303
97	0x40082ea9	2.127848
98	0xbee621a8	-0.44947553
99	0x3f7b5651	0.98178583
100	0x3fde0441	1.7345048
101	0xbf176bf3	-0.5914909
102	0xbee30d23	-0.4434596
103	0x3e69ecf6	0.228443
104	0x3f963913	1.1736168
105	0x3faad269	1.3345462
106	0x3f95eee0	1.1713524
107	0xbe68a0d2	-0.22717598
108	0x3d192ce1	0.037396315
109	0xbfe48444	-1.7852864
110	0xbedfe034	-0.4372574
111	0x3f9baf90	1.2162952
112	0xbee9ba93	-0.45650157
113	0xbf88e4be	-1.0694807
114	0x3f41203b	0.75439805
115	0x3f7bdbd6	0.9838232
116	0x3f141e01	0.5785828
117	0xbf483519	-0.7820602
118	0xbdf554a5	-0.11979035
119	0x3f33370e	0.7000588
120	0xbec1229f	-0.37721726
121	0xbe1b3d86	-0.15160188
122	0x3f706ca2	0.9391576
123	0x3f0de532	0.5542785
124	0x3edc6a97	0.43050072
125	0x3ebda8e4	0.37042916
126	0xbfa46692	-1.2843802
127	0x3f2976f2	0.6619712
128	0x3f5aff6a	0.8554598
129	0xbf3968b1	-0.7242537
130	0xbe322468	-0.173967
131	0xbebeb72c	-0.37249124
132	0x3d847bc2	0.064689174
133	0x3da77eb1	0.08178461
134	0xbfe7426a	-1.8067143
135	0xbebae68e	-0.36504024
136	0x3eae8d55	0.34092203
137	0xbf844557	-1.0333661
138	0xbee18774	-0.44048655
139	0x3f2bcbe3	0.6710798
140	0x3fdd301f	1.728031
141	0x3f9a43de	1.2051961
142	0x401295d1	2.290394
143	0x3fbfb636	1.4977481
144	0x3f60b2ea	0.87773
145	0x3e7daa59	0.24772014
146	0x3f503755	0.8133443
147	0xbdf643fd	-0.120246865
148	0xbe33d7f1	-0.17562844
149	0x3e99d822	0.3004771
150	0xbf4fc777	-0.81163734
151	0xbe531780	-0.20614433
152	0x401398bf	2.306198
153	0xbeea4986	-0.4575922
154	0x3f7a8ca1	0.9787083
155	0x3ec0f76f	0.37688777
156	0xbedb1c51	-0.4279504
157	0xbf7ece40	-0.9953346
158	0xbf7bad06	-0.9831089
159	0xbe9fe595	-0.31229845
160	0xc011ce25	-2.278207
161	0xbd977bcf	-0.073966615
162	0x3e99553a	0.29947835
163	0xbe90ffb3	-0.28320083
164	0x3d7c4029	0.061584625
165	0xbfcdac68	-1.6068239
166	0xbf0bc2fa	-0.54594386
167	0xbeba67d8	-0.36407351
168	0x3e57be1d	0.21068616
169	0xbee76edd	-0.4520177
170	0xbf93475d	-1.1506153
171	0xbe5ec985	-0.21756561
172	0xbef8116f	-0.484508
173	0xbd32f120	-0.043686986
174	0xbf9c3798	-1.2204466
175	0x3f856535	1.0421511
176	0x400c2b1a	2.1901307
177	0x3d7ea606	0.06217005
178	0xbe0c98ac	-0.13730115
179	0x3af9ea6f	0.0019067059
180	0xbea18b60	-0.31551647
181	0x40203680	2.5033264
182	0xc00ede02	-2.2323003
183	0xbdd69e7e	-0.10479449
184	0xbf1c0e7a	-0.6095959
185	0x3f709e67	0.939917
186	0x3e9b919b	0.30384526
187	0xbf4fa2f1	-0.81108004
188	0xbf8d8109	-1.1055003
189	0xbf5b09a7	-0.85561603
190	0x3f788551	0.97078425
191	0x3de811d9	0.11331529
192	0x3eab8849	0.33502415
193	0xbf108d1f	-0.56465334
194	0xbefce39e	-0.49392408
195	0x3e35088b	0.1767904
196	0xbe800c5a	-0.25009423
197	0x3ecfe7ab	0.40606436
198	0xbfa3712e	-1.2768915
199	0x3f6a1b77	0.9144816
200	0x3f00267d	0.5005873
201	0x3fc96457	1.5733746
202	0xbe95697f	-0.2918205
203	0xbf490cee	-0.78535354
204	0xbf629d72	-0.8852149
205	0x3e0b3968	0.13596117
206	0xbf8fb286	-1.1226356
207	0x3eb8e3af	0.3611121
208	0x3f061720	0.52379036
209	0x3db8f761	0.09031559
210	0x3dc4c73d	0.09608314
211	0xbe3da088	-0.18518269
212	0x3dc66867	0.09687882
213	0xbf99d522	-1.2018168
214	0xbe90923a	-0.28236562
215	0x3ea1b4dd	0.315833
216	0xbf0b918f	-0.5451898
217	0x3e1e68d9	0.15469684
218	0x3f75ba01	0.95986944
219	0x3f058d86	0.5216907
220	0xbfc88c07	-1.5667733
221	0x3e5b9971	0.21445252
222	0x3f686056	0.90771997
223	0xbfc1f3d8	-1.515254
224	0xbf9d09c0	-1.22686
225	0x3e37f7a1	0.17965557
226	0x3fe94095	1.8222834
227	0xbdec8585	-0.11548904
228	0xbf1dbf9f	-0.61620516
229	0x3e37be48	0.1794368
230	0xbfe0451c	-1.752109
231	0xc0126e02	-2.2879643
232	0x3ff1d3b9	1.8892738
233	0x3f92118e	1.1411607
234	0xbfbba804	-1.4660649
235	0xbd8e97d1	-0.069625504
236	0xbff804b8	-1.937644
237	0x3e671499	0.22566451
238	0xbec3e3a6	-0.3825962
239	0x3ed59b24	0.41719925
240	0x3fac9499	1.3482848
241	0xbe0b5391	-0.13606097
242	0xbfb401ae	-1.4063013
243	0xbeafaff1	-0.3431392
244	0xbf5d2e8e	-0.8639916
245	0xbeb4865b	-0.35258755
246	0xbf09e9d2	-0.53872406
247	0xbf8cdb4e	-1.1004426
248	0xbf5a5764	-0.852896
249	0x3f996f4f	1.1987094
250	0xbe135f85	-0.14391907
251	0x3e8d02d1	0.2754121
252	0x3f616ee7	0.8805985
253	0xbd26c7d9	-0.040717933
254	0x3f3922cf	0.7231874
255	0xc017256e	-2.3616595

rnn.weight_ih_l0 f4 [1, 2]
0	0xbe532568	-0.20619738
1	0xbf60c01f	-0.87793154

rnn.weight_ih_l0_reverse f4 [1, 2]
0	0xbdb1651c	-0.08661863
1	0xbf14279c	-0.5787294

fc1.weight f4 [20, 9]
0	0x3e9ee820	0.31036472
1	0xbec0d32d	-0.37661114
2	0x3e824c76	0.2544896
3	0xbe967349	-0.2938483
4	0xbd80bcfc	-0.06286046
5	0x3ea9de3a	0.33177358
6	0xbe780b1d	-0.2422299
7	0x3efdc527	0.49564478
8	0x3eac2da2	0.33628565
9	0xbeed5adf	-0.46358392
10	0x3dcf7b95	0.10130993
11	0xbdf26bef	-0.11836993
12	0x3de9d304	0.11417201
13	0xbeb669b1	-0.3562751
14	0x3e57f9b0	0.21091342
15	0xbeab9963	-0.33515462
16	0x3e75a8e2	0.23990205
17	0x3d866862	0.06562878
18	0x3ecd3aeb	0.40084013
19	0xbe4f499a	-0.2024292
20	0xbeba1f6b	-0.36352095
21	0x3ed5f164	0.4178573
22	0xbe6b4386	-0.22974977
23	0xbdf61781	-0.12016202
24	0x3ef35a17	0.4752967
25	0x3e40c877	0.18826471
26	0x3eb8459e	0.35990614
27	0x3e6c17be	0.23055932
28	0x3e12c739	0.1433381
29	0x3b7fabd2	0.0039012325
30	0xbed3cea2	-0.41368586
31	0xbd90c46b	-0.07068714
32	0x3d4f94b3	0.05067892
33	0x3e8bc026	0.27295035
34	0xbec74b85	-0.38924804
35	0x3e54a6a8	0.207667
36	0x3e36bae5	0.17844732
37	0xbe9e9942	-0.309763
38	0xbea8510b	-0.3287433
39	0x3dbe8454	0.09302583
40	0xbece6146	-0.4030859
41	0xbe3d4e80	-0.18486977
42	0xbe6acb24	-0.22929054
43	0xbddd6039	-0.10809369
44	0xbd4a1ff6	-0.049346887
45	0x3e96b11b	0.29431996
46	0xbee29ad4	-0.4425875
47	0xbdb34fc2	-0.08755447
48	0xbc2bc7ad	-0.010484618
49	0x3edb2f37	0.4280946
50	0xbbc1424c	-0.005897796
51	0xbd460881	-0.048347954
52	0xbee5f6fe	-0.44915003
53	0xbebff06f	-0.37488124
54	0x3e5cc40d	0.21559162
55	0xbf06188d	-0.5238121
56	0x3d7caf47	0.061690595
57	0x3dd34c29	0.10317261
58	0xbeb4a4d5	-0.35282007
59	0x3e329fb6	0.17443737
60	0xbe31af22	-0.17351964
61	0xbd2bc44d	-0.041935254
62	0xbdd3cf5a	-0.103422835
63	0x3ebd37aa	0.3695653
64	0x3ec4c86c	0.3843416
65	0x3e9f31fe	0.3109283
66	0x3e4d4bb7	0.20048414
67	0xbe2cb671	-0.16866471
68	0xbc7dea04	-0.015497688
69	0x3d78ad5e	0.06071221
70	0xbcf56836	-0.029956918
71	0xbe93bda4	-0.28855622
72	0xbed62d84	-0.418316
73	0xbe0e4a5f	-0.13895558
74	0xbebdc58e	-0.37064785
75	0xbe0297f8	-0.12753284
76	0xbd812d9d	-0.06307528
77	0xbe0bdaf4	-0.13657743
78	0xbd141f65	-0.036162753
79	0xbebe66ff	-0.37187955
80	0xbeee1cf5	-0.46506467
81	0xbe9274da	-0.28604776
82	0x3cf18da0	0.029486477
83	0x3c53cce7	0.0129272705
84	0xbc262ecd	-0.010142994
85	0x3e827bbe	0.25485033
86	0x3e2b0b81	0.16703607
87	0x3ea61f00	0.32445526
88	0x3de17dc7	0.11010318
89	0xbec22f44	-0.37926686
90	0xbba8369d	-0.0051334635
91	0x3e306746	0.17226896
92	0x3e98c3cc	0.2983688
93	0x3e8cc577	0.27494404
94	0x3d2d110b	0.04225258
95	0x3d873f73	0.06603899
96	0xbd23a740	-0.039954424
97	0xbe942961	-0.2893782
98	0x3ef83dff	0.484848
99	0x3e045dd5	0.12926419
100	0xbe91b539	-0.28458574
101	0x3e0bbeab	0.13646953
102	0x3e151289	0.14557852
103	0x3e25fc8f	0.16209625
104	0x3ebb6d38	0.36606765
105	0x3dc240bd	0.09485004
106	0xbd73ee96	-0.059553705
107	0xbe65d4e3	-0.22444491
108	0xbe50dfe0	-0.20397902
109	0x3daaadd0	0.08333933
110	0xbe61bb23	-0.22044043
111	0x3ea837d4	0.32855093
112	0xbd9e9b13	-0.07744422
113	0xbe8a708e	-0.27038997
114	0x3d9acebe	0.07558964
115	0x3e3cedef	0.1845014
116	0x3ef7a8a2	0.48370844
117	0xbe047b81	-0.12937738
118	0xbe427214	-0.1898883
119	0x3e9cd52d	0.3063139
120	0xbeb4f49b	-0.3534287
121	0x3e241818	0.16024816
122	0xbf0787b6	-0.52941453
123	0x3ebe5294	0.37172377
124	0x3e154641	0.14577581
125	0xbd709e53	-0.05874474
126	0xbea0a204	-0.31373608
127	0xbc080902	-0.008302929
128	0xbe02c407	-0.12770091
129	0x3e8f26e1	0.2795935
130	0xbef00b84	-0.46883786
131	0xbe06256e	-0.13100216
132	0x3ddfdf74	0.10931292
133	0x3eb09c23	0.34494123
134	0xbef66f7f	-0.4813194
135	0x3e061dc4	0.13097292
136	0x3d1448e0	0.03620231
137	0x3dfcefba	0.12350412
138	0x3d83633f	0.06415414
139	0x3d61c496	0.05511912
140	0x3eb03ada	0.344199
141	0x3e2f89a5	0.17142351
142	0xbe5d1983	-0.21591763
143	0x3e9a2bc1	0.30111507
144	0x3d5d8924	0.054085866
145	0x3e994aa6	0.29939765
146	0xbe75626b	-0.23963325
147	0xbeea07ee	-0.45709175
148	0x3e4a7e71	0.19774796
149	0xbd1814c1	-0.037129167
150	0xbe8a7b18	-0.27047038
151	0xbd97ed40	-0.07418299
152	0xbe33e2b6	-0.17566952
153	0xbed8bd24	-0.42331803
154	0xbb71d2c0	-0.0036899298
155	0xbe8fdca1	-0.28098014
156	0xbeae7876	-0.3407628
157	0x3eda5a37	0.42646953
158	0xbcbddf75	-0.023177842
159	0xbea1b5c2	-0.31583983
160	0xbe295979	-0.16538037
161	0x3ebb4f72	0.3658405
162	0xbd469752	-0.048484154
163	0x3e62aa12	0.22135189
164	0x3ecdce6f	0.4019656
165	0x3ec5aba7	0.38607523
166	0x3eab0311	0.33400777
167	0xbd3f24b1	-0.04666585
168	0xbeeef52a	-0.4667142
169	0x3d50048c	0.050785586
170	0x3e3ef72b	0.18648975
171	0x3ec00e1e	0.3751077
172	0xbe89c96b	-0.26911482
173	0xbedf9fc4	-0.4367658
174	0x3ec0b360	0.37636852
175	0x3dfeaff7	0.124359064
176	0xbd4c6881	-0.04990435
177	0x3ec8a039	0.3918474
178	0x3e8995f3	0.26872215
179	0x3e2185d5	0.15773709

fc1.bias f4 [20]
0	0xbc1cef2a	-0.0095785055
1	0xbc14e733	-0.009088325
2	0xbd2f9f55	-0.04287656
3	0xbc7d8719	-0.015474104
4	0x3d8e380c	0.06944284
5	0xbdab7579	-0.083720155
6	0xbc6dd4f6	-0.014516106
7	0xbd58afa1	-0.052901868
8	0x3d00d55a	0.031453468
9	0xbc4a76e5	-0.012357448
10	0x3deee248	0.116642535
11	0xbd80db88	-0.06291872
12	0x3d742833	0.05960865
13	0x3d29367c	0.041311726
14	0xbc8e7810	-0.017391235
15	0x3d5e7a0d	0.054315615
16	0x3c0623eb	0.008187274
17	0xba9ba43f	-0.0011874511
18	0xbc9427c3	-0.018085366
19	0x3d082974	0.033242658

fc2.weight f4 [1, 20]
0	0x3f19e09e	0.60108364
1	0x3dd37d57	0.10326641
2	0x3e73546a	0.2376267
3	0xbe8d38b8	-0.27582335
4	0x3ebbe469	0.366977
5	0xbeb7b107	-0.3587725
6	0xbec70fce	-0.38879246
7	0xbef9cdaa	-0.48789722
8	0xbf114b64	-0.5675566
9	0xbf055a6f	-0.52091116
10	0x3d3c1fe6	0.04592886
11	0xbdd10c07	-0.10207372
12	0x3df654f3	0.120279215
13	0x3de7065d	0.112805106
14	0xbe3ff557	-0.18745933
15	0x3e679c61	0.22618248
16	0x3e554284	0.20826155
17	0x3ebf6219	0.3737953
18	0xbeaff13a	-0.3436373
19	0xbe813ed5	-0.2524325
