MentorMix/checkpoint/MentorNet/MentorNet_Fold_2_Epoch_6.pt (torch, 6655 bytes, 7 tensors)

embedding_layer1.weight f4 [2, 2]
00000000: 82de 96bf c599 9f3f 07fc a33e 091f 36bd
-1.1786654 1.2468802 0.3202822 -0.04446319

embedding_layer2.weight f4 [101, 5]
00000000: f00e 0540 bdc9 c03f 07f3 e6be 50eb 7dbd
00000010: f3ed af3e 7562 653f 87c2 69bf e06d 633e
00000020: 9a8d 1940 9a54 cc3c 4ee6 cd3f ed39 793f
00000030: 15fd a8bf 5796 693f 97c8 0140 55b0 e83e
00000040: ca0f c73f e651 6e3f 9e07 d9be 92fc f4bf
00000050: e93a 643f 5b5f b53f 30e3 a03f 303a a13f
00000060: 77cc c73e f037 d5be de5f 3c3e a0f7 123f
00000070: dc80 c13d dca3 11bd e094 a9bb 865a 6abf
00000080: 474e 103f 194b 72bf 51f3 0fbe bafa 843e
00000090: 0933 94bf ff5a afbf 1cbf 38be 5549 253f
000000a0: 5cab a33e a49f aabf 81f1 d83f cd9e 1c3f
000000b0: 7ae7 8b3f e2ca e7bf 82de 88be 2969 38be
000000c0: f147 87bf 67e0 703f 41b3 eabf 010b f13e
000000d0: f8e3 c23f eb0d d03e 4392 ec3e f385 083f
000000e0: 4a60 90be c0e2 123f b51d b4bf 1710 c03f
000000f0: 2d10 d03f a210 773f 5caa 4d3e c6fd fbbd
00000100: 894f 823e 6e46 77bf 96b7 04c0 c9f9 d03f
00000110: ab43 eabf f65d 96bf d7ce 34bd 5b5a d13e
00000120: 46d2 f63e 6c17 df3f efd3 46bf 185a f33f
00000130: f2d5 603f cc65 763f c4c7 42be b295 bdbf
00000140: 3184 6b3f cd71 c4bf 6614 fc3d 76a4 2abf
00000150: 7378 8fbf 2b20 a43f 3843 673f 8621 ba3e
00000160: 4ebd 83be 25a6 87bf a696 5abc 4d01 1abf
00000170: 6390 0abe 51d9 ec3e b55f 78bf e85a 32bf
00000180: 8ea4 af3e 828c d03f 0721 9abf 2859 833e
00000190: b788 3cbf 7dbb 4ebf eb6f 15bf 1bf6 07be
000001a0: 0349 21bf 0816 593f 3df7 903d 1cba 233f
000001b0: a055 70be bac0 213f b956 03c0 f1ee b7bf
000001c0: 5a19 873f 334e 51be 38df 783e 9166 f3bc
000001d0: 3ab3 ccbf f947 1440 bc9c eabe 813a 8fbf
000001e0: 30b3 853e 7127 4cbf 406f 5d3e 6743 7b3f
000001f0: 35dd ba3e 3ff1 703e 8cb1 a6be 5ca8 683e
00000200: f927 103c c757 4cbe ebb5 22bf 8f35 3dbd
00000210: bd1a 7bbf 9162 10be 3e06 413f ece7 053e
00000220: cdcd 983e c816 44bf cbb2 403f ee13 54bd
00000230: be51 913d 4190 72bf bf9c 46bf 1ab8 08c0
00000240: c885 e9bf 8bd1 a7be d0ad bc3d 1b8e b33f
00000250: 725a de3c faaa 8d3d 973b 0e3f 2f7d 833f
00000260: 47d6 2b3f 3f7a aa3f d77f 143f 9503 03c0
00000270: 14e4 133f 3e56 97bf e87c 5dbe 3588 9bbf
00000280: ce3d 053c 0bea cbbe 98d6 603e acbe 66bf
00000290: 18eb 27bf 8df0 cf3e 94c9 c1bc 8d30 d03e
000002a0: 1991 ab3d 5a8e a83f 94a6 ccbb ffd2 33bf
000002b0: a695 2c3f 8d6d bc3e 57f5 f93f 21e6 d2be
000002c0: a638 1b3e dae0 7b3e 5e4e fb3d 324b 843e
000002d0: 5c2f 16bf a045 063f 7f17 5f3e d116 91bf
000002e0: fa8d 1c3f 5af4 2abf 25d6 f73e 5df4 363f
000002f0: 1b5f d7bf 63da d9bc 4af5 1d3e e9b5 ac3f
00000300: 9238 27bf b06c 32c0 2f14 e13e 8dda 72bf
00000310: fdfa 8b3e 8230 22bf ae6c 9dbf 461d f13e
00000320: 9f14 15be 60b1 b33e 9a7a a9bf 86a5 62bd
00000330: 775f af3f 380c 92bf b548 86bf 2ecb 84bf
00000340: ac97 c8bf 5f26 fd3f 0730 25bf e23d dc3e
00000350: f03c 8540 beaa 933f b858 6a3f d27b 46bf
00000360: 99c7 60bf 582a 8e3e d9dd 0940 59e1 7c3f
00000370: 0163 b53d 378a ef3f c2a1 7e3f 1f94 583f
00000380: 4047 663e 9ded 903f 6c21 3f3f 1552 653f
00000390: 4e1e 7d3e 9129 0e3f f5f2 aa3e 487b d13f
000003a0: c360 8c3e f2a1 dcbd ef39 273e f015 4fbf
000003b0: d2ec 893f ba58 e93e f917 903c 30b7 51be
000003c0: 98e5 203f 4566 6abf fb43 a33e b2c5 98bf
000003d0: 96c7 f63e 62e2 0e3c 7b0f 423e d287 40bc
000003e0: 114c b0bf 52d4 7c3f b106 56bf 4deb 90bf
000003f0: 2f43 993e b6a6 aabd 086a 20bf 137f cdbf
2.0790367 1.5061566 -0.4510729 -0.06199199 0.34361228 0.8960336 -0.9131245 0.22209883
2.3992677 0.024942685 1.6085908 0.9735401 -1.3202235 0.91245025 2.027868 0.4544703
1.5551693 0.9309372 -0.42388624 -1.9139578 0.8915239 1.4169725 1.2569332 1.2595882
0.39023182 -0.4164424 0.18395945 0.57409096 0.09448406 -0.03555666 -0.005175218 -0.9154438
0.5636944 -0.9464584 -0.14057662 0.2597254 -1.1578075 -1.3699645 -0.18041652 0.6456502
0.31966674 -1.3329968 1.6948701 0.6117981 1.0930016 -1.810879 -0.2673226 -0.18008865
-1.056883 0.9409241 -1.8335954 0.47078708 1.522582 0.4063562 0.4620534 0.5332939
-0.28198463 0.57377243 -1.4071566 1.500491 1.6254936 0.96509755 0.20084518 -0.12304263
0.25451306 -0.9659184 -2.0737052 1.6326228 -1.8301901 -1.1747425 -0.04414257 0.40889248
0.482073 1.7429023 -0.77667135 1.901187 0.87826455 0.9624908 -0.19021517 -1.4811308
0.91998583 -1.5347229 0.12308578 -0.666572 -1.1208633 1.2822317 0.9033694 0.363537
-0.25730366 -1.0597578 -0.013341581 -0.60158235 -0.13531642 0.4625955 -0.9702104 -0.6966996
0.34305233 1.629288 -1.2041329 0.25653958 -0.7364611 -0.80754834 -0.583739 -0.13277476
-0.6300203 0.8479924 0.07078407 0.63955855 -0.23470163 0.631847 -2.0521681 -1.4369794
1.0554612 -0.20439987 0.24303901 -0.029711993 -1.5992196 2.3168929 -0.45822704 -1.1189729
0.26113272 -0.7974768 0.2162447 0.9814972 0.36496893 0.23529528 -0.32557333 0.22720474
0.008798593 -0.1995536 -0.63558835 -0.046193656 -0.98087674 -0.141001 0.7540015 0.13076752
0.29844514 -0.7659726 0.75272816 -0.05177682 0.07095669 -0.94751364 -0.77582926 -2.1362367
-1.8243952 -0.32777056 0.092128396 1.4027742 0.027142737 0.06917377 0.55559677 1.0272578
0.67123836 1.3318557 0.5800757 -2.0470936 0.57769895 -1.1823194 -0.21629679 -1.2150942
0.008132411 -0.39826998 0.21956861 -0.9013469 -0.655931 0.40613213 -0.02365569 0.4066204
0.083772846 1.3168442 -0.0062454436 -0.7024383 0.67415845 0.3680233 1.9527997 -0.411912
0.15158328 0.24597493 0.12270807 0.2583862 -0.58666015 0.5244999 0.21786307 -1.1335088
0.6115414 -0.667791 0.48405567 0.7146662 -1.6825899 -0.026593393 0.15425602 1.3493015
-0.65320694 -2.7878838 0.4396071 -0.9486473 0.27339926 -0.6335527 -1.2298791 0.47092646
-0.14558648 0.35096264 -1.324054 -0.055333637 1.3701009 -1.1409979 -1.0490938 -1.0374506
-1.5671287 1.9777335 -0.6452641 0.43015963 4.1636887 1.1536481 0.91541624 -0.77532685
-0.8780456 0.2776668 2.1541655 0.98781353 0.08856774 1.8714055 0.9946557 0.84601015
0.22488117 1.1322514 0.7466037 0.8957837 0.24718592 0.55532175 0.33388487 1.6365747
0.27417573 -0.10773076 0.16330694 -0.8089285 1.0775397 0.45575505 0.017589556 -0.20480037
0.6285033 -0.915623 0.31887802 -1.1935332 0.48199147 0.008720966 0.18951218 -0.011751132
-1.3773214 0.98761475 -0.8360396 -1.1321808 0.2993407 -0.08332579 -0.6266179 -1.6054405

rnn.weight_ih_l0 f4 [1, 2]
00000000: e82c 4ebf b700 2d3f
-0.8053727 0.67579216

rnn.weight_ih_l0_reverse f4 [1, 2]
00000000: 5cc4 243e 3c40 68bf
0.1609053 -0.90723014

fc1.weight f4 [20, 9]
00000000: 8588 813e 1669 98be 46b5 b93c dfb1 d3bd
00000010: 60f8 e13d 5ffa 88be 5bdf 8b3e 9ae0 52be
00000020: 734d c6be ca83 b03e c5ca 98be dc77 81bc
00000030: f57c 373e 2af7 a13e 81d0 a5be 05d4 f73d
00000040: 009d f93e d273 cd3e 1b02 b03e 4373 ae3e
00000050: 9a1f f13e d4e4 2c3e b8d2 373d 3a26 943d
00000060: 6617 93be 9f3e bfbe f2ba f1bd 6d25 94bd
00000070: 2f4e 97be 684e 113e b351 1cbe d49f 82bd
00000080: f286 a63d 161d 58be 023b 713d 501e c73e
00000090: 21c7 433e ca9d 96bd 7fcb adbe 5a02 3c3e
000000a0: 9eea b4be d7de 9dbd 1e12 bf3e 5a2f 303d
000000b0: 5c81 ec3e 1711 e63d 5659 96be f008 1fbe
000000c0: a256 143e 7cbe a63e 7257 69be ca39 803e
000000d0: e212 cc3e df99 91bb e857 0cbe 4bd0 b5be
000000e0: 4d76 ee3e 1070 cfbe 6e1f 773e 14d2 fb3c
000000f0: 0bcc cdbe 740b 8a3e 1446 8a3e 378a 9abe
00000100: 49c0 cfbe 0b68 8c3e 622d 40be f182 933e
00000110: 84ae 783e 5163 babb d648 c53e 796b 9b3c
00000120: 97bd 73be 9092 d9be a5f9 4abd adc6 f53d
00000130: c904 563e 37a0 583e 1f27 dbbe 2d77 6c3d
00000140: 28f5 a93b e63b 4dbe 7a49 7d3e 3697 4f3e
00000150: a433 a2be 9e58 b63d 5b7e f7bd d2c8 eabe
00000160: 36d7 b83e 0545 6a3e bac3 b83e 8356 a03d
00000170: 2129 d23e a045 ae3e 149f 9d3e aa03 943e
00000180: a777 9bbe 9eb3 60be b4d0 433d 2d93 923e
00000190: 0c8a ac3e 8d66 c0be c976 6c3d 7273 b6bd
000001a0: 331b 42bd 445d d53c 6e74 cfbe bd89 7cbe
000001b0: ee74 013f 650e a1be 6886 d53b 7ca6 9dbe
000001c0: 424c 3abd 2faa 403c 7287 c7be e2ef a6be
000001d0: bf9a cd3d 7d69 7abe 8d00 a7be 67a5 e1bd
000001e0: 82f6 ac3e 3d25 183e 9b10 923e 22a2 44be
000001f0: 1bd1 8d3e 557d 003e 1ff2 1e3d 73b6 d33e
00000200: 9c3d dc3d 6e28 c5be c951 1d3c bf11 cfbd
00000210: 0aee d2be be62 2bbd 0eb0 b53d 62a8 a93e
00000220: 4954 da3e 8ce5 c13e 5539 9c3d ddf4 ffbd
00000230: d43c a43c 8583 a73e b0d9 193e 50c3 6b3e
00000240: aed2 94bc 9235 a63e c265 103e 6dab bdbe
00000250: 8efe a9be d022 b7be 5a62 d03e ae8b 403e
00000260: ffda 803e db80 d73e cc9b eabd 21d9 a63d
00000270: 49ec 23be addb a4be 6d8b 273b 9b3c d2bd
00000280: d49f abbe cbb2 5b3d e884 c4bd 8062 723e
00000290: 4d37 aebe 5ebe 46be 65a3 36be f2d6 4dbe
000002a0: f89c 473e c283 8abe 8175 453e 2385 f6be
000002b0: 04a6 cdbe bc11 b63e 7e47 f53d 7708 c8be
000002c0: ec8e 773c eda0 86be 3540 bebe b40f f33e
0.2529947 -0.29767674 0.022669446 -0.103366606 0.11033702 -0.26753518 0.27318844 -0.20593491
-0.38730964 0.34475547 -0.298422 -0.015804224 0.17918761 0.31633884 -0.32385638 0.121009864
0.48752594 0.40127426 0.34376606 0.34072313 0.47094423 0.16884166 0.04487869 0.07233854
-0.2872879 -0.37352464 -0.11803235 -0.07233701 -0.29551837 0.14190066 -0.15265541 -0.06378141
0.081312075 -0.21104845 0.058894165 0.38890314 0.1911893 -0.073543146 -0.33944318 0.18360272
-0.3533525 -0.07708519 0.3731851 0.043013908 0.46192443 0.112337284 -0.29365033 -0.15530753
0.14486173 0.32567203 -0.22787264 0.2504409 0.39858156 -0.0044433917 -0.13705409 -0.35510477
0.4657463 -0.40515184 0.24133083 0.030739821 -0.40194735 0.26961863 0.2700659 -0.30183575
-0.4057639 0.27423128 -0.18767312 0.28810838 0.24285322 -0.005688109 0.38532132 0.018972145
-0.23802792 -0.4249463 -0.049554486 0.12000785 0.20900263 0.21154867 -0.42803285 0.057730842
0.0051866956 -0.2004238 0.2473506 0.20272526 -0.31680024 0.08903621 -0.12084647 -0.4585634
0.36101693 0.22877891 0.36086828 0.07829001 0.41047004 0.34037495 0.3078543 0.28909045
-0.30364725 -0.21943519 0.047806457 0.2862791 0.3369907 -0.3757824 0.05773047 -0.08908738
-0.04738922 0.02604545 -0.40518516 -0.24661918 0.50569046 -0.31456295 0.0065162666 -0.3079108
-0.04548288 0.011759325 -0.38970524 -0.3260489 0.10039281 -0.24454303 -0.32617608 -0.11017876
0.3378182 0.14857955 0.28528294 -0.19202474 0.27698597 0.1254781 0.038805123 0.41350135
0.107539386 -0.38507408 0.009602019 -0.10110807 -0.41197234 -0.041842215 0.088714704 0.33136278
0.4264243 0.37870443 0.07628123 -0.12497876 0.020048536 0.3271753 0.15024447 0.23023725
-0.018166866 0.32462746 0.14101318 -0.3704485 -0.33202022 -0.35768747 0.40700036 0.18803284
0.2516708 0.42090496 -0.11455497 0.08146883 -0.16008104 -0.3219885 0.0025565282 -0.10265466
-0.33520377 0.053637307 -0.09595662 0.23670387 -0.34026566 -0.19408557 -0.17835768 -0.20101526
0.19493473 -0.27053648 0.19283105 -0.4814845 -0.40165722 0.35560405 0.11976527 -0.39068958
0.015109759 -0.26294652 -0.3715836 0.47472918

fc1.bias f4 [20]
00000000: 223c 013e 1fda b73d 3ee8 02bd 1210 b13d
00000010: 891a 173d c925 1a3c 5b09 1f39 b9c0 06bd
00000020: dff7 44bd 576c 4fbd 72fe 46bd bcda fe3c
00000030: 2846 97bd 9c53 10bd 590d 1e3d 572d 073d
00000040: 0352 9abd c704 66bd c8b9 d3bd 677f 203d
0.12620595 0.0897715 -0.031959765 0.08645643 0.03689054 0.009408423 0.00015166907 -0.03289864
-0.04808795 -0.05064043 -0.0485825 0.03111016 -0.07386428 -0.035235986 0.038586948 0.033002224
-0.07535174 -0.0561569 -0.10338169 0.039184

fc2.weight f4 [1, 20]
00000000: dc48 ffbd a0b7 8d3e 312d 823e 674d 843e
00000010: d1be 1d3f 44ac 84be f6c3 1fbb 3e99 d33e
00000020: a344 303e 60f4 153f 977a 8e3e 3b5c 6ebe
00000030: a55a 2fbd 596f b93e aeca 5bbe 8a8b dbbe
00000040: 770a d03e 3e86 babe 828a 6a3e db60 1b3f
-0.12465069 0.27679157 0.25425103 0.25840303 0.6161929 -0.25912678 -0.0024378276 0.41327852
0.17213683 0.5857601 0.27827904 -0.2327737 -0.042811055 0.36217764 -0.21464035 -0.42879897
0.40632984 -0.36430544 0.22904399 0.60694665
