MentorMix/checkpoint/MentorNet/MentorNet_Fold_1_Epoch_5.pt (torch, 6655 bytes, 7 tensors)

embedding_layer1.weight f4 [2, 2]
0	0x3f1fc5e9	0.6241136
1	0x3e96d087	0.2945597
2	0x3d7ca14b	0.06167726
3	0x3f1f0ea7	0.6213173

embedding_layer2.weight f4 [101, 5]
0	0xbf925ded	-1.1434914
1	0xbf867243	-1.050362
2	0x3fabb2a6	1.3413894
3	0xbf352b71	-0.7076941
4	0xbf176bdf	-0.59148973
5	0x3e8c2a94	0.27376235
6	0xbf77008b	-0.96485204
7	0xbe7178b2	-0.23581198
8	0xbf122bc2	-0.5709802
9	0x3c5d0088	0.013488896
10	0xbf0cab85	-0.5494922
11	0xbf8171a6	-1.0112808
12	0x3fb28cca	1.3949215
13	0x3f4ee58c	0.8081901
14	0x3f0f971c	0.5608995
15	0x3f89c211	1.0762349
16	0x3ee0d72a	0.43914157
17	0x3f95e9e8	1.1712008
18	0x3fe23b0f	1.7674273
19	0xbdc34d17	-0.09536188
20	0x3e0eb767	0.1393715
21	0xbfca0c53	-1.5785011
22	0xbea4286a	-0.32062083
23	0xbe9943e3	-0.29934606
24	0xbf4c668d	-0.7984398
25	0x3eabe4df	0.33573052
26	0x3e8cf884	0.27533352
27	0x3fdbafce	1.7163026
28	0xbd65f2b5	-0.056139667
29	0x3f6923c4	0.910702
30	0xbfb239b3	-1.3923858
31	0x402c1a00	2.689087
32	0xbff0ea0c	-1.8821425
33	0xbf46cba8	-0.77654505
34	0x40018c87	2.024202
35	0xbdb13c83	-0.0865412
36	0x3dc8f4fe	0.098123536
37	0xbf9b8557	-1.2150067
38	0x3f3b2dbe	0.7311667
39	0x3f95fdb3	1.1718048
40	0x401a0bee	2.4069781
41	0x3e8ea03c	0.27856624
42	0x3e7caccc	0.24675292
43	0x3f979804	1.1843266
44	0xbf3a6c37	-0.7282137
45	0x3f94e62d	1.1632744
46	0xbc14ad92	-0.0090745855
47	0xbf57abae	-0.8424634
48	0x3e5c58ca	0.21518245
49	0xbf06318e	-0.52419364
50	0xbfeadf89	-1.8349468
51	0xbfabc747	-1.342019
52	0x3ed723b6	0.42019433
53	0x3f957857	1.167735
54	0x3e9035a3	0.28165922
55	0xbfe34055	-1.7754008
56	0x3f8f0550	1.1173496
57	0x3e98a531	0.2981353
58	0x3de10bac	0.10988554
59	0xbf257671	-0.6463385
60	0x3edb69e5	0.4285423
61	0x3fbcf01e	1.4760778
62	0xbfe4b816	-1.7868679
63	0x3fce1ee3	1.6103176
64	0x3f7bd461	0.9837094
65	0x3f6118e6	0.87928617
66	0xbfb9a644	-1.4503865
67	0xbf97114d	-1.1802155
68	0x3ed1e7e8	0.40997243
69	0x3ed12072	0.40845066
70	0x3e8406ef	0.2578654
71	0x3f8c29a9	1.0950214
72	0x3fa9c748	1.3263941
73	0x3f5acf0c	0.8547218
74	0xbe8fa0d7	-0.280524
75	0x3f333448	0.7000165
76	0xbfba763a	-1.456733
77	0x3fcdf198	1.6089354
78	0x3dc00a79	0.093769975
79	0xbfa13f75	-1.259749
80	0xbf013232	-0.50467217
81	0xbfbcbed5	-1.4745737
82	0xbeaee340	-0.34157753
83	0xbe99bb74	-0.30025828
84	0x3fa75d53	1.3075355
85	0xbf94d697	-1.1627988
86	0x3df503c7	0.11963611
87	0xbe270cf3	-0.16313533
88	0xbf6cb907	-0.9246983
89	0xbf6e1b1c	-0.93010116
90	0x3fb70eff	1.4301451
91	0x3ed76f9c	0.4207734
92	0xbeb52621	-0.35380653
93	0x3f4390b9	0.76392704
94	0xbf16c579	-0.5889507
95	0xbf437b1e	-0.76359737
96	0x3f1d945a	0.6155449
97	0x3e467948	0.19382203
98	0xc0255360	-2.5832138
99	0x3f5a9bf2	0.85394204
100	0x3fa47f69	1.2851382
101	0x3f0b45d5	0.5440343
102	0x3f7d9913	0.990617
103	0x3fa0d3ec	1.2564673
104	0xbe1099e0	-0.14121199
105	0x3eafcc10	0.34335375
106	0xbf88fedd	-1.0702778
107	0xbf5fcfb6	-0.87426317
108	0xbfbb7e8c	-1.4647994
109	0xbfa1a7a3	-1.2629284
110	0x3f8f9e50	1.1220188
111	0x3fc87da3	1.5663341
112	0x3e210e51	0.15728118
113	0x3fa081b6	1.2539585
114	0x3fa9ec15	1.3275172
115	0xbefda5d4	-0.4954058
116	0x3fc659f7	1.5496205
117	0x3eb1fc76	0.34762925
118	0x3dbe7afe	0.09300803
119	0x3f1d5f9f	0.6147403
120	0xbf2508d2	-0.64466584
121	0xbe92f49e	-0.28702253
122	0x40548ed4	3.3212175
123	0xbecddadb	-0.40206036
124	0xbf36569a	-0.71225893
125	0xbf1eba93	-0.6200344
126	0xbe699c35	-0.22813495
127	0xbf4a0de7	-0.78927463
128	0xbf84c03d	-1.0371166
129	0xbf889059	-1.0669051
130	0xbe55820e	-0.20850393
131	0xbe5cb1ed	-0.21552248
132	0x3e8a829c	0.27052772
133	0x3f0f47f9	0.55969197
134	0xbea304d7	-0.3183963
135	0x3fc18010	1.5117207
136	0xbfc2a99e	-1.5208013
137	0x3f6b694b	0.9195754
138	0xbf0c60d2	-0.54835236
139	0xbeb1c979	-0.34724024
140	0xbf3f589d	-0.7474459
141	0xbf6c6678	-0.92343855
142	0x3f12ca3d	0.5733984
143	0xbddfd86c	-0.10929951
144	0x3f41ea39	0.7574802
145	0xbed042f6	-0.40676087
146	0xbe02cc44	-0.12773234
147	0x3e8f8c1c	0.28036582
148	0x3d196c68	0.0374569
149	0xbf234970	-0.6378393
150	0xbf5765f3	-0.8413994
151	0xbf248cb5	-0.642772
152	0x3f3a8a26	0.7286705
153	0xbf8f74b8	-1.1207495
154	0xbe778563	-0.24171977
155	0xbf0f6d3a	-0.5602604
156	0x3f2e8484	0.6817095
157	0xbf045a69	-0.51700455
158	0x3fe5262d	1.7902275
159	0x3f1671f7	0.58767647
160	0x3e803d4a	0.2504676
161	0xbf4b042f	-0.7930326
162	0x3f05e9f3	0.52310103
163	0x3f9c9f1d	1.2236058
164	0xbf721f94	-0.94579434
165	0xbfad2c47	-1.3529137
166	0x40588f32	3.38374
167	0xc019e19d	-2.4043953
168	0xbec73aab	-0.38911948
169	0xbda30583	-0.07960036
170	0x3f42aeb1	0.7604781
171	0xbf80527e	-1.0025175
172	0x3f723843	0.946171
173	0x3eb3d0b5	0.35120168
174	0x3fc95310	1.5728474
175	0x3fdbf8e1	1.7185327
176	0xbd737b6b	-0.059443872
177	0xc01f7bee	-2.491939
178	0x3e78137a	0.2422618
179	0x3e939d38	0.28830886
180	0xbde04a3f	-0.10951661
181	0x3ea0090d	0.31256905
182	0x3fc07c5a	1.5037949
183	0x3f00f71f	0.50377077
184	0x3f1f5108	0.6223302
185	0xbee57226	-0.4481365
186	0xbe92408c	-0.2856487
187	0x3ec6a50d	0.387978
188	0xbf925d1c	-1.1434665
189	0xbf26b70a	-0.65123045
190	0xbdd347a1	-0.103163965
191	0x3f31962c	0.6936977
192	0xbf997ea5	-1.1991774
193	0xbd423875	-0.047417123
194	0xc0003059	-2.002951
195	0xbefb98ce	-0.49140018
196	0x3fdab391	1.7086049
197	0x3f4a9110	0.791276
198	0x3f82f1fb	1.0230097
199	0x3f7be209	0.9839178
200	0xbf3ec2bd	-0.745159
201	0xbf10777b	-0.5643231
202	0xbf90c5e6	-1.1310394
203	0xbf296678	-0.6617198
204	0x3f17ff6b	0.5937411
205	0xbf67e7f2	-0.90588295
206	0xbedf071b	-0.4356011
207	0xbf189c8d	-0.5961388
208	0xbd9069f3	-0.07051458
209	0x3eb1a749	0.3469794
210	0xbf27578c	-0.6536796
211	0x3fc780de	1.5586202
212	0x3eccd662	0.4000731
213	0x401c4e57	2.4422815
214	0xbec380a2	-0.38184077
215	0x3edd84b3	0.43265304
216	0xc0011b71	-2.0173
217	0x3ed8d569	0.4235032
218	0x3f12b191	0.57302195
219	0xbfe5eb4a	-1.796243
220	0xbe9cbef9	-0.3061445
221	0xbed72e18	-0.42027354
222	0x3e90cc0a	0.2828067
223	0x3eba7d6c	0.36423814
224	0x40290e4f	2.6414983
225	0xbf765fe8	-0.9624009
226	0xbe548d2e	-0.20756981
227	0xbfb1c7bd	-1.388908
228	0x3c4fedf5	0.012691011
229	0xbfefcd2a	-1.8734486
230	0x3fe65df9	1.7997428
231	0x3e9094d9	0.28238562
232	0x3fd48871	1.6604139
233	0x3e8b2179	0.27173975
234	0xbf4f06f1	-0.80869967
235	0x3e01c393	0.12672262
236	0x3f1217db	0.5706765
237	0xbe0a06d2	-0.13479164
238	0x3eaffb9b	0.34371647
239	0x3ebe5ca3	0.3718005
240	0x3e13dea1	0.14440395
241	0x3f46f483	0.77716845
242	0xc015a3a3	-2.3381126
243	0xbf54413c	-0.8291204
244	0x3f95440c	1.1661391
245	0x3fbd44a6	1.4786575
246	0x3e890403	0.26760873
247	0x3f419112	0.75611985
248	0xbf165ba9	-0.5873361
249	0xc003f682	-2.0619206
250	0x3edc6705	0.43047348
251	0x3eace154	0.33765662
252	0xbeb004a2	-0.34378535
253	0xbf1e0287	-0.61722606
254	0x3fa0614c	1.2529693
255	0xbd529b13	-0.05141742

rnn.weight_ih_l0 f4 [1, 2]
0	0xbf0d033f	-0.5508308
1	0x3e8c9551	0.2745767

rnn.weight_ih_l0_reverse f4 [1, 2]
0	0xbe689b16	-0.2271541
1	0xbf4da8e4	-0.8033583

fc1.weight f4 [20, 9]
0	0x3eab42ab	0.334493
1	0xbee772df	-0.45204827
2	0x3ed7d65c	0.4215573
3	0x3da825ec	0.08210358
4	0x3e5e77bf	0.21725367
5	0x3ec87381	0.39150622
6	0xbe28647b	-0.1644458
7	0xbec17449	-0.3778403
8	0x3e31e4ea	0.1737248
9	0xbeebccae	-0.46054596
10	0x3ebbfac5	0.3671476
11	0x3db0404f	0.08606016
12	0xbe8beea4	-0.27330506
13	0x3d9c23a7	0.07623988
14	0x3e4476e5	0.1918598
15	0xbe246963	-0.16055827
16	0x3e3b5bfb	0.18296807
17	0xbcde5800	-0.027141571
18	0xbeaee043	-0.34155473
19	0x3e3fe331	0.1873901
20	0x3e223e87	0.15844165
21	0x3e520e88	0.20513356
22	0xbd653169	-0.055955324
23	0xbee5d649	-0.4489005
24	0xbd94d3bc	-0.072669476
25	0xbd048721	-0.03235543
26	0xbec2ceda	-0.3804844
27	0xbe7520a7	-0.23938237
28	0x3e40d6cf	0.18831943
29	0x3ed3ec6a	0.41391307
30	0xbe95f9a8	-0.29292035
31	0xbe0d5007	-0.1380006
32	0xbdfa7622	-0.12229563
33	0xbdf589ff	-0.11989211
34	0xbe803329	-0.25039032
35	0xbf07b564	-0.53011155
36	0xbca2ad48	-0.019858018
37	0x3ed35d22	0.41281992
38	0xbe920258	-0.28517413
39	0xbec033d0	-0.3753953
40	0xbeab412c	-0.3344816
41	0xbeac00d1	-0.33594373
42	0x3ec0c7e5	0.37652507
43	0xbe8689f2	-0.2627712
44	0xbeaaccdd	-0.33359423
45	0x3e10f39d	0.14155431
46	0xbe52e21c	-0.20594066
47	0xbdcfd458	-0.10147923
48	0xbecec64a	-0.40385658
49	0xbe392a66	-0.1808258
50	0x3ea815a8	0.32829022
51	0xbeeace14	-0.4586035
52	0xbe9590ca	-0.29212028
53	0x3e89b201	0.2689362
54	0x3d73dd0a	0.05953697
55	0xbce8c9ee	-0.0284166
56	0x3ec43713	0.38323268
57	0x3d9acb7a	0.07558341
58	0xbd4706b2	-0.04859037
59	0xbe967d58	-0.29392505
60	0x3ea556dd	0.32292834
61	0xbdbe0c3e	-0.09279679
62	0xbe9be58e	-0.30448574
63	0xbdbba3ab	-0.091620766
64	0xbdeeccc9	-0.116601534
65	0xbe5108f7	-0.20413576
66	0x3ecdaa8c	0.4016918
67	0x3ecbb2a7	0.39784738
68	0xbeb8ecad	-0.3611807
69	0xbe8e5bc0	-0.27804375
70	0x3df9bf03	0.12194636
71	0xbe500129	-0.20312943
72	0xbdcb273a	-0.09919591
73	0xbe638402	-0.22218326
74	0xbe32d5f3	-0.17464428
75	0x3d128e43	0.035780203
76	0x3ebb5b6a	0.3659318
77	0x3e6719d2	0.22568443
78	0x3e3dc683	0.18532757
79	0xbe9d87f8	-0.30767798
80	0x3e2fdb25	0.17173441
81	0xbdbdaaf9	-0.09261126
82	0x3e910455	0.28323618
83	0x3e9f630a	0.31130248
84	0x3d8277de	0.06370519
85	0x3e9ce823	0.30645856
86	0xbeec6d14	-0.4617697
87	0xbea52128	-0.3225186
88	0xbec02af1	-0.37532762
89	0xbe9a2a17	-0.30110237
90	0xbe57d930	-0.21078944
91	0x3ceb427c	0.028718226
92	0xbe8da892	-0.2766767
93	0x3e094d9d	0.13408513
94	0xbd22ccf5	-0.039746244
95	0x3df0883c	0.11744735
96	0x3ead5927	0.3385708
97	0x3e99224c	0.2990898
98	0x3e8c7d63	0.27439412
99	0xbe69e970	-0.22842956
100	0xbedf78f6	-0.43646973
101	0xbed09aa4	-0.4074298
102	0xbecd42a1	-0.40089896
103	0xbe302c02	-0.17204288
104	0x3eb6cd40	0.35703468
105	0x3eed8ea2	0.46397883
106	0x3eaa1f25	0.33226886
107	0x3e9f6eb4	0.31139147
108	0xbe065dfc	-0.1312179
109	0xbe098703	-0.13430409
110	0xbd3f4064	-0.046692267
111	0x3d0bcdd5	0.034131844
112	0xbee26566	-0.44217986
113	0xbe646113	-0.22302656
114	0xbe5c60fb	-0.2152137
115	0xbe08151c	-0.13289303
116	0x3cdf7350	0.027276665
117	0xbeb3a4cd	-0.3508667
118	0xbe7c5d36	-0.24644932
119	0x3dd138af	0.1021589
120	0xbec95c51	-0.39328244
121	0x3e89d50b	0.2692035
122	0xbe873684	-0.2640878
123	0xbe4615c0	-0.19344234
124	0xbd2a1a6e	-0.04152911
125	0x3edd52c7	0.43227217
126	0x3e1c3289	0.15253653
127	0xbd9ea5f8	-0.077465
128	0x3e12bfe8	0.14331019
129	0x3b48332c	0.003054808
130	0xbbf5104a	-0.0074787484
131	0x3dce2aae	0.10066734
132	0x3eba285f	0.36358926
133	0x3ec21417	0.37905952
134	0x3e5846eb	0.21120803
135	0xbe8a8f1a	-0.27062303
136	0xbd094399	-0.03351173
137	0x3e014be0	0.126266
138	0xbe51729a	-0.20453873
139	0x3b16636e	0.0022947448
140	0xbe007c5d	-0.12547441
141	0xbdf92c7f	-0.1216669
142	0x3da75269	0.08170015
143	0xbea12d57	-0.31479904
144	0xbe29278d	-0.16518994
145	0xbe0294df	-0.12752102
146	0x3dd56c30	0.10421026
147	0xbcf9e668	-0.030505374
148	0x3e7ff048	0.24994004
149	0x3e36b79b	0.17843477
150	0x3ece7c2d	0.40329114
151	0xbea1b8e2	-0.31586367
152	0x3e439743	0.1910067
153	0xbeca098c	-0.3946041
154	0x3ec2ed2e	0.3807158
155	0x3e9c2062	0.30493456
156	0xbc890fe5	-0.016731212
157	0x3e62be35	0.2214287
158	0xbda2eb7b	-0.079550706
159	0xbebf5ffc	-0.37377918
160	0x3e3dc1fc	0.1853103
161	0x3e4c2485	0.19935806
162	0xbe0ac2b9	-0.13550843
163	0x3e49f561	0.19722511
164	0x3ed523b4	0.41628802
165	0x3ef5fd6a	0.48044902
166	0xbd410868	-0.047127157
167	0x3dee40f4	0.116334826
168	0x3ecca199	0.3996704
169	0x3d5c86cc	0.05383949
170	0xbdee3aee	-0.11632334
171	0xbe921577	-0.28532
172	0xbe9b3bdc	-0.30319107
173	0xbe1a5aeb	-0.15073745
174	0x3e2b8cf6	0.16752991
175	0x3e025a5f	0.12729786
176	0xbe55c58d	-0.20876141
177	0xbe962fb3	-0.29333267
178	0x3edd87f1	0.43267778
179	0x3ebc0a10	0.36726427

fc1.bias f4 [20]
0	0xbcad36a9	-0.021144228
1	0xbcc74b2e	-0.02432784
2	0x3c4a75b3	0.012357163
3	0xbd0fefc8	-0.035140783
4	0x3d18f70e	0.037344985
5	0x3ced2b89	0.028951423
6	0xbcb6e885	-0.02232767
7	0x3cd5cd49	0.026098864
8	0x3cf5029f	0.029908476
9	0x3ce4f411	0.027948411
10	0x3d0ccc17	0.034374323
11	0xbd0dc5f7	-0.034612622
12	0xbcc278d0	-0.023739249
13	0x3d85d42c	0.06534609
14	0xbcd293ee	-0.025705304
15	0xbd109cd2	-0.035305806
16	0x3beec8ef	0.0072871367
17	0xbd58966f	-0.05287784
18	0xbcdc5f17	-0.026900811
19	0x3d93e1b7	0.07220786

fc2.weight f4 [1, 20]
0	0x3e11178a	0.14169136
1	0xbe71c9f4	-0.23612195
2	0x3e3224f4	0.17396909
3	0xbe729ce7	-0.23692666
4	0x3ec4c9c1	0.38435176
5	0x3dfa3521	0.12217165
6	0xbf03329f	-0.51249117
7	0xbc99d84c	-0.018779896
8	0x3cd62990	0.026142865
9	0x3eb745f8	0.3579557
10	0x3ed80f95	0.42199388
11	0xbea25c08	-0.3171084
12	0xbed3f9d2	-0.41401535
13	0x3ecb7dcf	0.39744422
14	0xbce35297	-0.027749343
15	0xbee711fb	-0.45130906
16	0x3e8b0e7f	0.27159497
17	0xbe861a76	-0.26192063
18	0xbe0900fb	-0.1337928
19	0x3de2c634	0.110729605
