MentorMix/checkpoint/MentorNet/MentorNet_Fold_1_Epoch_2.pt (torch, 6655 bytes, 7 tensors)

embedding_layer1.weight f4 [2, 2]
00000000: 8b4a 253f 117b 933e 4ba1 7c3d a70e 1f3f
0.6456687 0.2880483 0.06167726 0.6213173

embedding_layer2.weight f4 [101, 5]
00000000: a578 92bf 578f 86bf 9694 ab3f b4ea 34bf
00000010: cb5e 17bf 942a 8c3e 8b00 77bf b278 71be
00000020: c22b 12bf 8800 5d3c 85ab 0cbf a671 81bf
00000030: ca8c b23f 8ce5 4e3f 1c97 0f3f 11c2 893f
00000040: 2ad7 e03e e8e9 953f 0f3b e23f 174d c3bd
00000050: 67b7 0e3e 530c cabf 6a28 a4be e343 99be
00000060: 8d66 4cbf dfe4 ab3e 84f8 8c3e ceaf db3f
00000070: b5f2 65bd c423 693f b339 b2bf 001a 2c40
00000080: 0cea f0bf a8cb 46bf 878c 0140 833c b1bd
00000090: fef4 c83d 5785 9bbf be2d 3b3f b3fd 953f
000000a0: ee0b 1a40 3ca0 8e3e ccac 7c3e 0498 973f
000000b0: 376c 3abf 2de6 943f 92ad 14bc aeab 57bf
000000c0: ca58 5c3e 8e31 06bf 8194 e9bf da5e aabf
000000d0: 9d9f dc3e 8c79 943f f1b6 8a3e 5540 e3bf
000000e0: 5005 8f3f 31a5 983e ac0b e13d 7176 25bf
000000f0: e569 db3e 1ef0 bc3f 16b8 e4bf e31e ce3f
00000100: 61d4 7b3f e618 613f 44a6 b9bf 4d11 97bf
00000110: e8e7 d13e 7220 d13e ef06 843e a929 8c3f
00000120: 48c7 a93f 0ccf 5a3f d7a0 8fbe 4834 333f
00000130: 3a76 babf 98f1 cd3f 790a c03d 753f a1bf
00000140: 3232 01bf d5be bcbf 40e3 aebe 74bb 99be
00000150: 535d a73f 97d6 94bf c703 f53d f30c 27be
00000160: 07b9 6cbf 1c1b 6ebf ff0e b73f 9c6f d73e
00000170: 2126 b5be b990 433f 79c5 16bf 1e7b 43bf
00000180: 5a94 1d3f 4879 463e 6053 25c0 f29b 5a3f
00000190: 8d8f 9f3f f576 013f b454 733f 92f8 a53f
000001a0: 51eb cebd 10cc af3e ddfe 88bf b6cf 5fbf
000001b0: 8c7e bbbf a3a7 a1bf 509e 8f3f a37d c83f
000001c0: 510e 213e b681 a03f 15ec a93f d4a5 fdbe
000001d0: f759 c63f 76fc b13e fe7a be3d 9f5f 1d3f
000001e0: d208 25bf 9ef4 92be d48e 5440 dbda cdbe
000001f0: 9a56 36bf 93ba 1ebf 359c 69be e70d 4abf
00000200: 3dc0 84bf 5990 88bf 0e82 55be edb1 5cbe
00000210: 9c82 8a3e f947 0f3f d704 a3be 1080 c13f
00000220: 9ea9 c2bf 4b69 6b3f d260 0cbf 79c9 b1be
00000230: 9d58 3fbf 7866 6cbf 3dca 123f 6cd8 dfbd
00000240: 39ea 413f f642 d0be 44cc 02be 1c8c 8f3e
00000250: 686c 193d 7049 23bf d093 50bf 8083 30bf
00000260: 9441 453f df75 89bf f658 4ebe 3a6d 0fbf
00000270: 8484 2e3f 695a 04bf 2d26 e53f f771 163f
00000280: 4a3d 803e 2f04 4bbf f3e9 053f 1d9f 9c3f
00000290: 941f 72bf 472c adbf 328f 5840 9de1 19c0
000002a0: ab3a c7be 8305 a3bd b1ae 423f 7e52 80bf
000002b0: 4338 723f b5d0 b33e 1053 c93f e1f8 db3f
000002c0: 6b7b 73bd ee7b 1fc0 7a13 783e 389d 933e
000002d0: 3f4a e0bd 0d09 a03e 5a7c c03f 1ff7 003f
000002e0: 0851 1f3f 2672 e5be 8c40 92be 0da5 c63e
000002f0: 1c5d 92bf 0ab7 26bf a147 d3bd 2c96 313f
00000300: a57e 99bf 7538 42bd 5930 00c0 ce98 fbbe
00000310: 91b3 da3f 1091 4a3f fbf1 823f 09e2 7b3f
00000320: bc8b 35bf 0bb8 06bf f557 8dbf 060f 33bf
00000330: e0d7 0e3f f2e7 67bf 1b07 dfbe 8d9c 18bf
00000340: f369 90bd 49a7 b13e 8c57 27bf de80 c73f
00000350: 62d6 cc3e 574e 1c40 a280 c3be b384 dd3e
00000360: 711b 01c0 69d5 d83e 91b1 123f 4aeb e5bf
00000370: f9be 9cbe 182e d7be 0acc 903e 6c7d ba3e
00000380: 4f0e 2940 e85f 76bf 2e8d 54be bdc7 b1bf
00000390: f5ed 4f3c 2acd efbf f95d e63f d994 903e
000003a0: 7188 d43f 7921 8b3e f106 4fbf 93c3 013e
000003b0: db17 123f d206 0abe 9bfb af3e a35c be3e
000003c0: a1de 133e 83f4 463f a3a3 15c0 3c41 54bf
000003d0: 0c44 953f a644 bd3f 0304 893e 1291 413f
000003e0: a95b 16bf 82f6 03c0 0567 dc3e 54e1 ac3e
000003f0: a204 b0be 8702 1ebf 4c61 a03f 139b 52bd
-1.1443068 -1.0512494 1.340472 -0.7067063 -0.5912902 0.27376235 -0.96485204 -0.23581198
-0.5709802 0.013488896 -0.5494922 -1.0112808 1.3949215 0.8081901 0.5608995 1.0762349
0.43914157 1.1712008 1.7674273 -0.09536188 0.1393715 -1.5785011 -0.32062083 -0.29934606
-0.7984398 0.33573052 0.27533352 1.7163026 -0.056139667 0.910702 -1.3923858 2.689087
-1.8821425 -0.77654505 2.024202 -0.0865412 0.098123536 -1.2150067 0.7311667 1.1718048
2.4069781 0.27856624 0.24675292 1.1843266 -0.7282137 1.1632744 -0.0090745855 -0.8424634
0.21518245 -0.52419364 -1.8248445 -1.3310196 0.43090525 1.1599593 0.27092698 -1.7754008
1.1173496 0.2981353 0.10988554 -0.6463385 0.4285423 1.4760778 -1.7868679 1.6103176
0.9837094 0.87928617 -1.4503865 -1.1802155 0.40997243 0.40845066 0.2578654 1.0950214
1.3263941 0.8547218 -0.280524 0.7000165 -1.456733 1.6089354 0.093769975 -1.259749
-0.50467217 -1.4745737 -0.34157753 -0.30025828 1.3075355 -1.1627988 0.11963611 -0.16313533
-0.9246983 -0.93010116 1.4301451 0.4207734 -0.35380653 0.76392704 -0.5889507 -0.76359737
0.6155449 0.19382203 -2.5832138 0.85394204 1.2465683 0.5057214 0.9505112 1.2966483
-0.10103477 0.34335375 -1.0702778 -0.87426317 -1.4647994 -1.2629284 1.1220188 1.5663341
0.15728118 1.2539585 1.3275172 -0.4954058 1.5496205 0.34762925 0.09300803 0.6147403
-0.64466584 -0.28702253 3.3212175 -0.40206036 -0.71225893 -0.6200344 -0.22813495 -0.78927463
-1.0371166 -1.0669051 -0.20850393 -0.21552248 0.27052772 0.55969197 -0.3183963 1.5117207
-1.5208013 0.9195754 -0.54835236 -0.34724024 -0.7474459 -0.92343855 0.5733984 -0.10929951
0.7574802 -0.40676087 -0.12773234 0.28036582 0.0374569 -0.6378393 -0.81475544 -0.68950653
0.7705319 -1.0739096 -0.20151123 -0.5602604 0.6817095 -0.51700455 1.7902275 0.58767647
0.2504676 -0.7930326 0.52310103 1.2236058 -0.94579434 -1.3529137 3.38374 -2.4043953
-0.38911948 -0.07960036 0.7604781 -1.0025175 0.946171 0.35120168 1.5728474 1.7185327
-0.059443872 -2.491939 0.2422618 0.28830886 -0.10951661 0.31256905 1.5037949 0.50377077
0.6223302 -0.4481365 -0.2856487 0.387978 -1.1434665 -0.65123045 -0.103163965 0.6936977
-1.1991774 -0.047417123 -2.002951 -0.49140018 1.7086049 0.791276 1.0230097 0.9839178
-0.7091634 -0.5262458 -1.1042467 -0.699448 0.5579815 -0.90588295 -0.4356011 -0.5961388
-0.07051458 0.3469794 -0.6536796 1.5586202 0.4000731 2.4422815 -0.38184077 0.43265304
-2.0173 0.4235032 0.57302195 -1.796243 -0.3061445 -0.42027354 0.2828067 0.36423814
2.6414983 -0.9624009 -0.20756981 -1.388908 0.012691011 -1.8734486 1.7997428 0.28238562
1.6604139 0.27173975 -0.80869967 0.12672262 0.5706765 -0.13479164 0.34371647 0.3718005
0.14440395 0.77716845 -2.3381126 -0.8291204 1.1661391 1.4786575 0.26760873 0.75611985
-0.5873361 -2.0619206 0.43047348 0.33765662 -0.34378535 -0.61722606 1.2529693 -0.05141742

rnn.weight_ih_l0 f4 [1, 2]
00000000: 7a37 15bf f872 7a3e
-0.58287776 0.2445792

rnn.weight_ih_l0_reverse f4 [1, 2]
00000000: 891e 2abe 853f 43bf
-0.1661321 -0.762688

fc1.weight f4 [20, 9]
00000000: a193 b03e 67b4 e1be d3ce c23e 01c5 403d
00000010: f8a6 533e a11b b43e ce77 1ebe 76ea c9be
00000020: d6d2 1b3e 76e4 e9be 153c be3e 4b8a 973d
00000030: 240e 90be c16c 8b3d 3ff5 273e 9434 1fbe
00000040: 36c6 573e d75d 153c ee26 b0be 48a1 3c3e
00000050: 02d6 2d3e 04a6 5a3e 3345 37bd fac8 cfbe
00000060: 1ddc 93bd 4fab 71bd e8f9 d3be 070a 5dbe
00000070: eb90 5a3e 211d da3e fd4e 93be 2a6d 07be
00000080: f57d 00be b3dc f3bd bcae 5abe 420b fabe
00000090: 0807 dcbc 0f64 cf3e 6f4e 87be 6743 b8be
000000a0: 01d7 aabe eedc a0be fe09 c03e 474c 90be
000000b0: 1b09 bbbe 3391 0e3e 8378 55be 596f c1bd
000000c0: 6421 ccbe b17a 38be 3177 a93e 7f8d ebbe
000000d0: 8dd0 a2be 277c 6d3e 55f0 c93d 08d1 433c
000000e0: 5c89 c93e 145b 9f3d 2232 32bd a0a0 9bbe
000000f0: f0ef a73e e4ce 6abd 2ba2 87be e07c b9bd
00000100: ce4f ecbd 1cac 4fbe 7e15 ce3e d301 cc3e
00000110: 9d02 b8be 0f2f 8ebe 44fc e83d 9255 57be
00000120: b519 d1bd a195 66be 8942 30be 0f14 1d3d
00000130: 58ca b93e 4bb1 5f3e 8e59 3e3e ee85 a6be
00000140: 58fb 153e 3cfb cebd 5859 8c3e 2683 9c3e
00000150: c991 7d3d 92cf 963e 2009 eabe 2920 a0be
00000160: 8c1b d0be 9097 b3be 5a79 65be 56f4 6a3c
00000170: f67b 91be 0d39 073e 0560 58bd 9aa4 ee3d
00000180: 3ac2 b13e 68e8 853e 317a 643e dda0 5abe
00000190: a94e d7be 7fe3 cabe 9d20 cbbe 98d0 1cbe
000001a0: 1aa8 b83e 66b1 e63e f80c b73e 5498 b03e
000001b0: f078 06be 3785 09be 0a36 5cbd 2f70 f43c
000001c0: d8c0 e5be 1699 6ebe 4377 57be 76bd d6bd
000001d0: 81b4 893d a466 c4be 987c 8fbe 066f cc3d
000001e0: 5b79 c7be fdd9 8a3e fd78 96be da7e 62be
000001f0: 10c1 92bd 56e3 cb3e ef0c 1d3e 46c0 9cbd
00000200: 7b26 0a3e fe0b 2bbb 2c63 e8bb c69a b63d
00000210: 4e8c b93e fc53 cc3e ca99 7f3e 4120 86be
00000220: 0874 c3bc 2cff e73d 6d96 5bbe 6d26 213b
00000230: 739d 14be 20c2 f7bd e599 ed3d 249f 89be
00000240: 8f62 22be 1919 f6bd ea4a b03d a379 34bd
00000250: 2272 793e eb1f 0b3e 113e cf3e 69c6 afbe
00000260: f8c5 1f3e 0d66 c2be 650e cb3e c796 8e3e
00000270: 38fe 21bd b72f 543e 5f8b c6bd 9569 b5be
00000280: 0e82 583e 7ce0 6c3e 427e 0cbe 4f13 483e
00000290: 20e2 ce3e 22e4 f13e a2c2 51bd 1bf8 dc3d
000002a0: 241d ce3e af8c dc3d 5e33 36bd 41c4 a4be
000002b0: b3b0 aebe bf6f 1cbe 259d 303e a5d5 fe3d
000002c0: 6a1b 71be c53b a1be 457d c73e f7fe a33e
0.34487632 -0.4408295 0.3804842 0.047062878 0.20669162 0.3517733 -0.1547539 -0.39436692
0.15217146 -0.45682114 0.37155214 0.07399424 -0.28135788 0.068078525 0.16402148 -0.155474
0.21071705 0.009116611 -0.344047 0.18420899 0.16976169 0.21352392 -0.044743728 -0.4058302
-0.07219718 -0.059001263 -0.414016 -0.21585856 0.21344344 0.4260035 -0.287712 -0.13225237
-0.12548049 -0.119073294 -0.21355718 -0.48836714 -0.026858822 0.40506026 -0.26427028 -0.35988924
-0.3336716 -0.31418556 0.37507623 -0.28183195 -0.36530384 0.13922577 -0.20846753 -0.09445066
-0.39869225 -0.18015553 0.33098748 -0.4600639 -0.31799737 0.23191892 0.09860293 0.011951692
0.3936261 0.07781044 -0.04350484 -0.30395985 0.32800245 -0.057326213 -0.26490912 -0.09057021
-0.11538659 -0.20280498 0.40250772 0.39845142 -0.35939494 -0.27770278 0.11376241 -0.21028736
-0.10209981 -0.22518016 -0.17212881 0.038349207 0.3628719 0.21844976 0.1858885 -0.32524055
0.14646661 -0.10106513 0.27411914 0.30568808 0.06190661 0.2945524 -0.45710087 -0.31274536
-0.40646017 -0.3507657 -0.22409573 0.014340481 -0.28414887 0.13205357 -0.052825946 0.11652489
0.34718496 0.26153874 0.22312237 -0.21350427 -0.420522 -0.3962669 -0.3967332 -0.15313947
0.3606575 0.4505722 0.35752082 0.34491217 -0.13132071 -0.13429724 -0.053762473 0.02983865
-0.4487369 -0.23300585 -0.21041588 -0.104853556 0.067238815 -0.3835956 -0.28024745 0.099821135
-0.38959774 0.27119437 -0.29389182 -0.22118703 -0.0716573 0.3982188 0.15336965 -0.07653861
0.13491242 -0.0026099677 -0.0070919003 0.089162394 0.36239856 0.39907825 0.2496101 -0.26196483
-0.023859039 0.11327967 -0.21444102 0.0024589554 -0.14513187 -0.12097573 0.11601619 -0.26879227
-0.1585791 -0.12016506 0.08608039 -0.044061314 0.24359944 0.13586394 0.4047704 -0.34331062
0.15602863 -0.37968484 0.3965942 0.2784941 -0.039549083 0.20721327 -0.09694552 -0.35432115
0.21143362 0.23132509 -0.13720039 0.19538616 0.40406895 0.47244364 -0.051211007 0.1078951
0.40256608 0.10769021 -0.04448258 -0.3218098 -0.34119186 -0.15277003 0.17247446 0.12443093
-0.23545614 -0.31490913 0.3896276 0.3203046

fc1.bias f4 [20]
00000000: 1155 29bc 4f36 a6bc 5c59 1a3c 73cc 31bc
00000010: 26da f53c 229b d93c 3bc0 8f3c d7f5 de3c
00000020: 1d33 dd3c 4ef3 9c3c 00b2 a83c c252 9dbc
00000030: 210b c3bc 5d02 043d 9c45 cbbc 11db d6bc
00000040: 6dd7 6a3c 6eb6 19bd 1aba eabc 1be8 0f3d
-0.010335223 -0.020289568 0.009420719 -0.010851967 0.030011248 0.02656323 0.017547717 0.027216835
0.027001912 0.019158985 0.02059269 -0.019204501 -0.023809018 0.032228816 -0.024813466 -0.026227506
0.014333588 -0.037527494 -0.028653193 0.035133462

fc2.weight f4 [1, 20]
00000000: 5040 1f3e 49f8 83be e37f 513e f656 4bbe
00000010: c069 cf3e c590 093e e153 f3be 621b 483c
00000020: 3cca 3e3d 675e cb3e 1271 be3e e771 b0be
00000030: 4bfb cabe 9a63 b93e 5f14 82bd 3c13 c6be
00000040: 61f5 933e b330 93be 6422 05be 9bd1 9d3d
0.15551877 -0.25775364 0.20458941 -0.19857392 0.40510368 0.13434131 -0.47524932 0.01221356
0.046579584 0.3972046 0.3719564 -0.344619 -0.39644846 0.36208802 -0.06351542 -0.3868655
0.28898147 -0.28748092 -0.130014 0.07705995
