MentorMix/checkpoint/MentorNet/MentorNet_Fold_3_Epoch_2.pt (torch, 6655 bytes, 7 tensors)

embedding_layer1.weight f4 [2, 2]
00000000: ded2 8a3f 5009 fa3b 47fd 4e3f f4b1 a6be
1.0845602 0.0076305047 0.8085522 -0.32557642

embedding_layer2.weight f4 [101, 5]
00000000: 3459 0dbf 82b4 ab3f 9d26 09bf 8a8a 0640
00000010: 159c 76bf 01f5 013f 50df 953d d992 2fbf
00000020: 3d75 44bf a9fe eebe 31e2 e53e 0bdd 933f
00000030: 16e6 fe3e c60f f9bf c28c 1c3f acf8 f5be
00000040: 316f 603f 160b 41bf c04a 5c3f 903f 2dbf
00000050: 2bdb 2dbf cd89 943d 5bbd ab3d d15a 1c3f
00000060: ab5c 093f 9401 35be cb56 18bf c9b5 833f
00000070: 9b60 8abf 30bc 38be fc32 213f 7498 acbc
00000080: 13dd f0bd 9dc6 acbf 41ad b83f b9ea 8ebf
00000090: 7a25 133e 1db2 22bf 4ee5 983e d79f d53e
000000a0: 950d a13f 8ab2 833f 1627 fc3f f926 0ec0
000000b0: 5414 c9bf 443b 973f 1056 973d fcce 22bf
000000c0: f2ca ce3e a8d8 3cbf 43a6 19c0 0106 04bf
000000d0: 04af 6ebf c668 cc3e 331c 16bf 671f 5b3f
000000e0: 9d4b 09be e7f5 d33f d880 f3bf c1bd d5be
000000f0: 4a0b dd3f 8ad1 c03f cc4d 883f 521d 5abe
00000100: d859 2e3e b8df 653e 19f1 5abf 53b1 d73f
00000110: d562 9dbe c7e9 6dbe 04b0 f53f 9eaf e33f
00000120: 44ad 0b3f a079 983f 2db8 f9bf 0af7 51bf
00000130: b8da 483e 1634 833f 579e ed3f b3c1 493f
00000140: b855 7fbf 7785 5a3f 4e99 0a40 120c e43c
00000150: 36e5 98bd a866 053f a448 cabf 5234 35c0
00000160: 57fc d9bf 495a b2bf d8c1 cbbf 4f33 9f3c
00000170: daf0 66bf 02c3 03be d24d 133f 8513 b83d
00000180: 2156 983d a92e 0840 a821 e6be 5156 7b3f
00000190: eb63 e23f 4412 0fbf 2784 d2be ac94 863e
000001a0: 824a 983f 69d2 aa3f e0ee 953f d2a0 68be
000001b0: e12c 193d 4484 e4bf 34e0 dfbe 90af 9b3f
000001c0: 93ba e9be bee4 88bf 3b20 413f d6db 7b3f
000001d0: 011e 143f 1935 48bf a554 f5bd 0e37 333f
000001e0: 9f22 c1be 863d 1bbe a26c 703f 32e5 0d3f
000001f0: 976a dc3e e4a8 bd3e 9266 a4bf f276 293f
00000200: 6aff 5a3f b168 39bf 6824 32be 2cb7 bebe
00000210: c27b 843d b17e a73d 6a42 e7bf 8ee6 babe
00000220: 558d ae3e 5745 84bf 7487 e1be e3cb 2b3f
00000230: 1f30 dd3f de43 9a3f d195 1240 36b6 bf3f
00000240: eab2 603f 59aa 7d3e 5537 503f fd43 f6bd
00000250: f1d7 33be 22d8 993e 31a0 5bbf 82da 26be
00000260: 9e66 1640 d52d 00bf 2dc0 823f 6ff7 c03e
00000270: 511c dbbe 40ce 7ebf 06ad 7bbf 95e5 9fbe
00000280: 25ce 11c0 cf7b 97bd 3a55 993e b3ff 90be
00000290: 2940 7c3d 68ac cdbf fac2 0bbf d867 babe
000002a0: 1dbe 573e dd6e e7be 5d47 93bf 85c9 5ebe
000002b0: 6f11 f8be 20f1 32bd 9837 9cbf 3565 853f
000002c0: 1a2b 0c40 06a6 7e3d ac98 0cbe 6fea f93a
000002d0: 608b a1be 8036 2040 02de 0ec0 7e9e d6bd
000002e0: 7a0e 1cbf 679e 703f 9b91 9b3e f1a2 4fbf
000002f0: 0981 8dbf a709 5bbf 5185 783f d911 e83d
00000300: 4988 ab3e 1f8d 10bf 9ee3 fcbe 8b08 353e
00000310: 5a0c 80be abe7 cf3e 2e71 a3bf 771b 6a3f
00000320: a04d 0e3f e0b4 cf3f 175e 7bbe d3a5 54bf
00000330: 3c2e 56bf 6839 0b3e 86b2 8fbf afe3 b83e
00000340: 2017 063f 61f7 b83d 3dc7 c43d 88a0 3dbe
00000350: 6768 c63d 22d5 99bf 3a92 90be ddb4 a13e
00000360: 8f91 0bbf d968 1e3e 01ba 753f 868d 053f
00000370: 078c c8bf 7199 5b3e 5660 683f d8f3 c1bf
00000380: c009 9dbf a1f7 373e 9540 e93f 8585 ecbd
00000390: 9fbf 1dbf 48be 373e 1c45 e0bf 026e 12c0
000003a0: b9d3 f13f 8e11 923f 04a8 bbbf d197 8ebd
000003b0: b804 f8bf 9914 673e a6e3 c3be 249b d53e
000003c0: 9994 ac3f 9153 0bbe ae01 b4bf f1af afbe
000003d0: 8e2e 5dbf 5b86 b4be d2e9 09bf 4edb 8cbf
000003e0: 6457 5abf 4f6f 993f d44f d5bd 3a31 a03e
000003f0: 0270 6b3f 63e0 7abd fed5 423f 6e25 17c0
-0.5521424 1.3414462 -0.53574544 2.1022058 -0.9633191 0.5076447 0.07317984 -0.68583447
-0.7674139 -0.46678665 0.44899133 1.1551832 0.49784917 -1.9457939 0.6115228 -0.48041284
0.87669665 -0.7540754 0.8605156 -0.67675114 -0.6791255 0.07252846 0.08385726 0.61076075
0.53657025 -0.17676383 -0.59507436 1.0289851 -1.0810732 -0.18040538 0.6296842 -0.021068789
-0.117609166 -1.3498112 1.4427873 -1.1165382 0.14369765 -0.6355303 0.29862446 0.4172351
1.258227 1.0288861 1.9699428 -2.2211287 -1.5709329 1.1814961 0.07389462 -0.63597083
0.4038921 -0.7376809 -2.4007728 -0.5157166 -0.932358 0.39923686 -0.5863678 0.8559479
-0.1340775 1.6559418 -1.9023695 -0.41746333 1.726907 1.5063946 1.0648742 -0.21300247
0.1702646 0.22448623 -0.85524136 1.685099 -0.30739465 -0.2323371 1.9194341 1.7787969
0.5456126 1.1912117 -1.9509331 -0.82017577 0.19614685 1.025027 1.8563946 0.78811187
-0.9974017 0.853599 2.165607 0.027837787 -0.074655935 0.52109766 -1.5803418 -2.8313184
-1.7030133 -1.3933803 -1.5918531 0.019433646 -0.9021126 -0.12867358 0.5754062 0.08988098
0.07438303 2.127848 -0.44947553 0.98178583 1.7686743 -0.55887246 -0.4111645 0.26285303
1.1897738 1.3345462 1.1713524 -0.22717598 0.037396315 -1.7852864 -0.4372574 1.2162952
-0.45650157 -1.0694807 0.75439805 0.9838232 0.5785828 -0.7820602 -0.11979035 0.7000588
-0.37721726 -0.15160188 0.9391576 0.5542785 0.43050072 0.37042916 -1.2843802 0.6619712
0.8554598 -0.7242537 -0.173967 -0.37249124 0.064689174 0.08178461 -1.8067143 -0.36504024
0.34092203 -1.0333661 -0.44048655 0.6710798 1.728031 1.2051961 2.290394 1.4977481
0.87773 0.24772014 0.8133443 -0.120246865 -0.17562844 0.3004771 -0.8579131 -0.16294292
2.3500133 -0.50069934 1.0214897 0.37688777 -0.4279504 -0.9953346 -0.9831089 -0.31229845
-2.278207 -0.073966615 0.29947835 -0.28320083 0.061584625 -1.6068239 -0.54594386 -0.36407351
0.21068616 -0.4520177 -1.1506153 -0.21756561 -0.484508 -0.043686986 -1.2204466 1.0421511
2.1901307 0.06217005 -0.13730115 0.0019067059 -0.31551647 2.5033264 -2.2323003 -0.10479449
-0.6095959 0.939917 0.30384526 -0.81108004 -1.1055003 -0.85561603 0.97078425 0.11331529
0.33502415 -0.56465334 -0.49392408 0.1767904 -0.25009423 0.40606436 -1.2768915 0.9144816
0.55587196 1.6227074 -0.24547611 -0.8306553 -0.836643 0.13596117 -1.1226356 0.3611121
0.52379036 0.09031559 0.09608314 -0.18518269 0.09687882 -1.2018168 -0.28236562 0.315833
-0.5451898 0.15469684 0.95986944 0.5216907 -1.5667733 0.21445252 0.90771997 -1.515254
-1.22686 0.17965557 1.8222834 -0.11548904 -0.61620516 0.1794368 -1.752109 -2.2879643
1.8892738 1.1411607 -1.4660649 -0.069625504 -1.937644 0.22566451 -0.3825962 0.41719925
1.3482848 -0.13606097 -1.4063013 -0.3431392 -0.8639916 -0.35258755 -0.53872406 -1.1004426
-0.852896 1.1987094 -0.10415617 0.31287557 0.91967785 -0.061249148 0.76107776 -2.3616595

rnn.weight_ih_l0 f4 [1, 2]
00000000: e08d 03be b8b0 4ebf
-0.1284709 -0.807384

rnn.weight_ih_l0_reverse f4 [1, 2]
00000000: a43f 21bd 6131 07bf
-0.039367333 -0.5280972

fc1.weight f4 [20, 9]
00000000: 8de3 933e 962e c7be 92e3 8a3e c1c1 a0be
00000010: 2bd9 eabd cff5 b03e e353 7dbe a38f e63e
00000020: 4788 923e 6798 fcbe 6cc4 a53d 0723 13be
00000030: ffe5 bd3d 0361 bfbe 63f4 643e 27c7 b4be
00000040: b2ff 573e 184c 083d 66c6 d13e 2a08 52be
00000050: b556 c5be 567a d93e 7629 5ebe 1fd8 f8bd
00000060: fd49 ee3e d448 0c3e 2443 9d3e ebaa 903e
00000070: b973 373e a65a 893c e976 d0be 4df5 bebc
00000080: 332d 163d 8dda a63e e0a5 b3be e809 803e
00000090: 415f 093e 87d3 a3be 3d78 adbe 515a 783d
000000a0: 99c5 dcbe f7ad 2fbe 0a38 62be d2f3 0fbe
000000b0: 528f abbd 5d8e b53e ccde d6be eeac 74bd
000000c0: eb5a 473c 6ac4 ec3e 0b9c 91bc 21ae cabc
000000d0: 4f20 d4be e91e acbe c9c8 8a3e 4ebf f3be
000000e0: 5a28 b53d ba86 053e 987f a3be 5e81 113e
000000f0: 4da3 0cbe 9f7c 223c a424 47bd 3593 d73e
00000100: 5080 da3e a989 a83e 3002 6a3e 0fd5 00be
00000110: c7e0 34bd e384 d83d b6d0 8a3b d7b6 80be
00000120: 4ff7 dabe b592 0ebe ddba cfbe cbe0 08be
00000130: 305b 18bd bfde 0cbe c88a 1cbd f892 a8be
00000140: 7d8d d7be 3f0e 74be 7940 8b3d 192c fb3c
00000150: ef74 26bc 1abb 993e 1674 1e3e 15dd c23e
00000160: 8556 1b3e 59ab abbe d587 cabd 0582 ff3d
00000170: 0e8a 923e 47d1 813e 7704 a33b 0221 c93d
00000180: 7cc0 cfbd 0cb0 adbe ad45 dd3e dcdd 463e
00000190: d7c1 65be 3f1a 213e fa7e 2e3e 74bb 533e
000001a0: fc61 a23e 0c20 173e f5d4 1dbb e654 27be
000001b0: c838 83be 33b6 193d 35a6 74be ad2a ae3e
000001c0: 0479 f4bd faf9 84be 683a 4d3c eee1 083e
000001d0: 2ba8 db3e 8336 59be 2905 83be e600 913e
000001e0: 08ff bdbe f253 f63d ca4e f2be 8f1e a33e
000001f0: 6b9b 4b3d e4c8 1fbe 717d 88be 0c19 233d
00000200: 45d9 d0bd 6c2a a03e a3d9 e2be 62d4 2bbe
00000210: 7260 083e 213a c03e dcd5 e5be e0a3 9e3d
00000220: 402b 23bc 06d7 d83d 89b7 193d 2983 5e3c
00000230: c732 c03e a368 043e e897 86be 72fe 803e
00000240: f391 ad3c a7cd 8e3e 36da 50be 1ec4 ebbe
00000250: bab2 1a3e 199b ddbc a63d 98be a2c6 d5bd
00000260: e434 55be 1c18 eebe 4bb1 41bd d4ca 95be
00000270: a6a0 bfbe c65b c23e 6ce4 893c b12a b9be
00000280: be56 46be 3a9d ab3e 4988 cebb 390b 7e3e
00000290: 0474 d53e 0e8b c03e d9ed bb3e 1494 4ebd
000002a0: 91dc d8be 8e0c a63d fe7d 603e 848e c03e
000002b0: df82 86be 8ca3 d2be a83d bf3e 5605 e93d
000002c0: ff51 4dbd 8972 cf3e a5e2 973e 52dd 3f3e
0.28884545 -0.3890273 0.27126747 -0.31397822 -0.11467203 0.34562537 -0.24739031 0.4503146
0.28619596 -0.49335024 0.08094105 -0.1436883 0.09272384 -0.37378702 0.22358851 -0.3530819
0.21093634 0.033275694 0.40971678 -0.20510927 -0.38542715 0.42476147 -0.21695504 -0.12150597
0.46540824 0.13699657 0.30715287 0.282554 0.17915238 0.016766857 -0.4071572 -0.023310328
0.0366642 0.32588616 -0.3508749 0.25007558 0.13415243 -0.3199732 -0.33880797 0.060633007
-0.43119505 -0.17156206 -0.2209169 -0.14057854 -0.083769456 0.35460177 -0.41966856 -0.05973523
0.012167673 0.46243602 -0.017774602 -0.024741234 -0.414309 -0.33617333 0.27106312 -0.4760689
0.08845587 0.13039675 -0.31933284 0.14209506 -0.1373417 0.009917407 -0.048618928 0.42104498
0.4267602 0.32917526 0.22852397 -0.12581275 -0.044159677 0.10572221 0.004236306 -0.25139496
-0.42766806 -0.13923152 -0.40572253 -0.13367002 -0.03719634 -0.13756846 -0.03821829 -0.32924628
-0.42100134 -0.2383356 0.067994066 0.030660676 -0.010159715 0.3002556 0.15473971 0.38059297
0.15169723 -0.33529165 -0.09889189 0.12475971 0.28620952 0.25354978 0.0049748975 0.09820749
-0.10144135 -0.33923376 0.4321722 0.1942057 -0.22437225 0.15732668 0.17040625 0.20676976
0.3171538 0.14758319 -0.002408323 -0.1634098 -0.25629258 0.037527274 -0.23891528 0.34016934
-0.119371444 -0.25971967 0.012526132 0.13367435 0.4290174 -0.21212201 -0.25589874 0.28320998
-0.37108636 0.1202773 -0.47325736 0.31859252 0.049708765 -0.15603977 -0.26658204 0.03981881
-0.10197691 0.31282365 -0.4430667 -0.16780236 0.13318041 0.3754435 -0.44889724 0.077461004
-0.009959042 0.105878875 0.03752855 0.013581076 0.3753874 0.1293054 -0.2628777 0.25194126
0.021187758 0.27891275 -0.20395741 -0.46048063 0.15107241 -0.027051495 -0.29734534 -0.10438277
-0.20820957 -0.4650277 -0.04728822 -0.29256308 -0.37427253 0.37960643 0.016832553 -0.36165383
-0.19369027 0.33518392 -0.0063028676 0.24808969 0.41690075 0.3760609 0.367049 -0.050434187
-0.4235578 0.08107863 0.21923062 0.3760873 -0.26271722 -0.411404 0.37351727 0.11377971
-0.050127026 0.4051707 0.29665104 0.18736771

fc1.bias f4 [20]
00000000: be1b 01bd edae 20bd 2b86 0abd abb0 173d
00000010: a429 c83c c57a b9bc 905d 293d 1048 85ba
00000020: 82ff b33c 9093 123d 4a6c b73c c0fc 1b3b
00000030: a7cf e33b 8000 2bbd b28e f63c a454 dc39
00000040: 8c7b cebc 9a27 31bd 5bea c93c da15 0c3d
-0.031520598 -0.039229322 -0.03381936 0.037033718 0.024433918 -0.022641549 0.041348994 -0.0010168571
0.021972422 0.035785258 0.022390503 0.0023801774 0.0069522443 -0.041748524 0.03009734 0.00042024732
-0.025205396 -0.043250658 0.024647882 0.034200527

fc2.weight f4 [1, 20]
00000000: 1cdd 0b3f 8beb 0d3e b774 2c3e f792 84be
00000010: e805 cd3e 2269 aabe deb5 b7be 48d7 f5be
00000020: f9aa 02bf 4684 fabe 0f1a 193c cf62 9fbd
00000030: 8841 a63d 7d22 b23d f374 13be d6c9 5e3e
00000040: 7cd0 793e e8cb cb3e bef3 c3be a32c 96be
0.5463426 0.13859384 0.16841398 -0.25893375 0.4004357 -0.33283335 -0.3588094 -0.4801581
-0.51042134 -0.48929042 0.009344592 -0.07782518 0.08117968 0.08697984 -0.14400081 0.21756682
0.24395937 0.39804006 -0.38271898 -0.2933093
