MentorMix/checkpoint/MentorNet/MentorNet_Fold_1_Epoch_8.pt (torch, 6655 bytes, 7 tensors)

embedding_layer1.weight f4 [2, 2]
0.5682294 0.28371438 0.06167726 0.6213173
00000000: 7b77 113f 0343 913e 4ba1 7c3d a70e 1f3f

embedding_layer2.weight f4 [101, 5]
-1.1434902 -1.0503607 1.3413907 -0.7076959 -0.5914899 0.27376235 -0.96485204 -0.23581198
-0.5709802 0.013488896 -0.5494922 -1.0112808 1.3949215 0.8081901 0.5608995 1.0762349
0.43914157 1.1712008 1.7674273 -0.09536188 0.1393715 -1.5785011 -0.32062083 -0.29934606
-0.7984398 0.33573052 0.27533352 1.7163026 -0.056139667 0.910702 -1.3923858 2.689087
-1.8821425 -0.77654505 2.024202 -0.0865412 0.098123536 -1.2150067 0.7311667 1.1718048
2.4069781 0.27856624 0.24675292 1.1843266 -0.7282137 1.1632744 -0.0090745855 -0.8424634
0.21518245 -0.52419364 -1.8349664 -1.3420404 0.4201733 1.1677498 0.28168032 -1.7754008
1.1173496 0.2981353 0.10988554 -0.6463385 0.4285423 1.4760778 -1.7868679 1.6103176
0.9837094 0.87928617 -1.4503865 -1.1802155 0.40997243 0.40845066 0.2578654 1.0950214
1.3263941 0.8547218 -0.280524 0.7000165 -1.456733 1.6089354 0.093769975 -1.259749
-0.50467217 -1.4745737 -0.34157753 -0.30025828 1.3075355 -1.1627988 0.11963611 -0.16313533
-0.9246983 -0.93010116 1.4301451 0.4207734 -0.35380653 0.76392704 -0.5889507 -0.76359737
0.6155449 0.19382203 -2.5832138 0.85394204 1.2853268 0.54422146 0.99081403 1.2562684
-0.14140862 0.34335375 -1.0702778 -0.87426317 -1.4647994 -1.2629284 1.1220188 1.5663341
0.15728118 1.2539585 1.3275172 -0.4954058 1.5496205 0.34762925 0.09300803 0.6147403
-0.64466584 -0.28702253 3.3212175 -0.40206036 -0.71225893 -0.6200344 -0.22813495 -0.78927463
-1.0371166 -1.0669051 -0.20850393 -0.21552248 0.27052772 0.55969197 -0.3183963 1.5117207
-1.5208013 0.9195754 -0.54835236 -0.34724024 -0.7474459 -0.92343855 0.5733984 -0.10929951
0.7574802 -0.40676087 -0.12773234 0.28036582 0.0374569 -0.6378393 -0.84193516 -0.6408609
0.72668886 -1.1226709 -0.24320953 -0.5602604 0.6817095 -0.51700455 1.7902275 0.58767647
0.2504676 -0.7930326 0.52310103 1.2236058 -0.94579434 -1.3529137 3.38374 -2.4043953
-0.38911948 -0.07960036 0.7604781 -1.0025175 0.946171 0.35120168 1.5728474 1.7185327
-0.059443872 -2.491939 0.2422618 0.28830886 -0.10951661 0.31256905 1.5037949 0.50377077
0.6223302 -0.4481365 -0.2856487 0.387978 -1.1434665 -0.65123045 -0.103163965 0.6936977
-1.1991774 -0.047417123 -2.002951 -0.49140018 1.7086049 0.791276 1.0230097 0.9839178
-0.76125234 -0.58203924 -1.1388103 -0.64447916 0.6100014 -0.90588295 -0.4356011 -0.5961388
-0.07051458 0.3469794 -0.6536796 1.5586202 0.4000731 2.4422815 -0.38184077 0.43265304
-2.0173 0.4235032 0.57302195 -1.796243 -0.3061445 -0.42027354 0.2828067 0.36423814
2.6414983 -0.9624009 -0.20756981 -1.388908 0.012691011 -1.8734486 1.7997428 0.28238562
1.6604139 0.27173975 -0.80869967 0.12672262 0.5706765 -0.13479164 0.34371647 0.3718005
0.14440395 0.77716845 -2.3381126 -0.8291204 1.1661391 1.4786575 0.26760873 0.75611985
-0.5873361 -2.0619206 0.3735259 0.27984762 -0.29217544 -0.67353034 1.196608 -0.05141742
00000000: e35d 92bf 3872 86bf b1b2 ab3f 8f2b 35bf
00000010: e26b 17bf 942a 8c3e 8b00 77bf b278 71be
00000020: c22b 12bf 8800 5d3c 85ab 0cbf a671 81bf
00000030: ca8c b23f 8ce5 4e3f 1c97 0f3f 11c2 893f
00000040: 2ad7 e03e e8e9 953f 0f3b e23f 174d c3bd
00000050: 67b7 0e3e 530c cabf 6a28 a4be e343 99be
00000060: 8d66 4cbf dfe4 ab3e 84f8 8c3e ceaf db3f
00000070: b5f2 65bd c423 693f b339 b2bf 001a 2c40
00000080: 0cea f0bf a8cb 46bf 878c 0140 833c b1bd
00000090: fef4 c83d 5785 9bbf be2d 3b3f b3fd 953f
000000a0: ee0b 1a40 3ca0 8e3e ccac 7c3e 0498 973f
000000b0: 376c 3abf 2de6 943f 92ad 14bc aeab 57bf
000000c0: ca58 5c3e 8e31 06bf 2ee0 eabf fbc7 abbf
000000d0: f420 d73e d378 953f 6738 903e 5540 e3bf
000000e0: 5005 8f3f 31a5 983e ac0b e13d 7176 25bf
000000f0: e569 db3e 1ef0 bc3f 16b8 e4bf e31e ce3f
00000100: 61d4 7b3f e618 613f 44a6 b9bf 4d11 97bf
00000110: e8e7 d13e 7220 d13e ef06 843e a929 8c3f
00000120: 48c7 a93f 0ccf 5a3f d7a0 8fbe 4834 333f
00000130: 3a76 babf 98f1 cd3f 790a c03d 753f a1bf
00000140: 3232 01bf d5be bcbf 40e3 aebe 74bb 99be
00000150: 535d a73f 97d6 94bf c703 f53d f30c 27be
00000160: 07b9 6cbf 1c1b 6ebf ff0e b73f 9c6f d73e
00000170: 2126 b5be b990 433f 79c5 16bf 1e7b 43bf
00000180: 5a94 1d3f 4879 463e 6053 25c0 f29b 5a3f
00000190: 9785 a43f 1952 0b3f fda5 7d3f 67cd a03f
000001a0: 6ccd 10be 10cc af3e ddfe 88bf b6cf 5fbf
000001b0: 8c7e bbbf a3a7 a1bf 509e 8f3f a37d c83f
000001c0: 510e 213e b681 a03f 15ec a93f d4a5 fdbe
000001d0: f759 c63f 76fc b13e fe7a be3d 9f5f 1d3f
000001e0: d208 25bf 9ef4 92be d48e 5440 dbda cdbe
000001f0: 9a56 36bf 93ba 1ebf 359c 69be e70d 4abf
00000200: 3dc0 84bf 5990 88bf 0e82 55be edb1 5cbe
00000210: 9c82 8a3e f947 0f3f d704 a3be 1080 c13f
00000220: 9ea9 c2bf 4b69 6b3f d260 0cbf 79c9 b1be
00000230: 9d58 3fbf 7866 6cbf 3dca 123f 6cd8 dfbd
00000240: 39ea 413f f642 d0be 44cc 02be 1c8c 8f3e
00000250: 686c 193d 7049 23bf 1089 57bf 760f 24bf
00000260: 4808 3a3f aeb3 8fbf eb0b 79be 3a6d 0fbf
00000270: 8484 2e3f 695a 04bf 2d26 e53f f771 163f
00000280: 4a3d 803e 2f04 4bbf f3e9 053f 1d9f 9c3f
00000290: 941f 72bf 472c adbf 328f 5840 9de1 19c0
000002a0: ab3a c7be 8305 a3bd b1ae 423f 7e52 80bf
000002b0: 4338 723f b5d0 b33e 1053 c93f e1f8 db3f
000002c0: 6b7b 73bd ee7b 1fc0 7a13 783e 389d 933e
000002d0: 3f4a e0bd 0d09 a03e 5a7c c03f 1ff7 003f
000002e0: 0851 1f3f 2672 e5be 8c40 92be 0da5 c63e
000002f0: 1c5d 92bf 0ab7 26bf a147 d3bd 2c96 313f
00000300: a57e 99bf 7538 42bd 5930 00c0 ce98 fbbe
00000310: 91b3 da3f 1091 4a3f fbf1 823f 09e2 7b3f
00000320: 6fe1 42bf 8600 15bf 89c4 91bf 96fc 24bf
00000330: 0d29 1c3f f2e7 67bf 1b07 dfbe 8d9c 18bf
00000340: f369 90bd 49a7 b13e 8c57 27bf de80 c73f
00000350: 62d6 cc3e 574e 1c40 a280 c3be b384 dd3e
00000360: 711b 01c0 69d5 d83e 91b1 123f 4aeb e5bf
00000370: f9be 9cbe 182e d7be 0acc 903e 6c7d ba3e
00000380: 4f0e 2940 e85f 76bf 2e8d 54be bdc7 b1bf
00000390: f5ed 4f3c 2acd efbf f95d e63f d994 903e
000003a0: 7188 d43f 7921 8b3e f106 4fbf 93c3 013e
000003b0: db17 123f d206 0abe 9bfb af3e a35c be3e
000003c0: a1de 133e 83f4 463f a3a3 15c0 3c41 54bf
000003d0: 0c44 953f a644 bd3f 0304 893e 1291 413f
000003e0: a95b 16bf 82f6 03c0 c93e bf3e 3048 8f3e
000003f0: 0598 95be 7c6c 2cbf 732a 993f 139b 52bd

rnn.weight_ih_l0 f4 [1, 2]
-0.53420174 0.29027635
00000000: 72c1 08bf 1a9f 943e

rnn.weight_ih_l0_reverse f4 [1, 2]
-0.31487772 -0.87540454
00000000: a737 a1be 831a 60bf

fc1.weight f4 [20, 9]
0.3273693 -0.45969996 0.4262864 0.08392297 0.21817647 0.39288047 -0.17493285 -0.364052
0.20525043 -0.46250537 0.36515883 0.07621181 -0.27322906 0.08277879 0.2060267 -0.16763091
0.16740322 -0.06368027 -0.3414768 0.18722959 0.18070954 0.21181674 -0.078537814 -0.47731218
-0.04177658 -0.017385691 -0.3450064 -0.2172294 0.21215811 0.37699348 -0.29086214 -0.12812982
-0.101226196 -0.116753496 -0.2713007 -0.5917345 -0.009399992 0.4245537 -0.2858353 -0.3731149
-0.33888245 -0.3451606 0.40172645 -0.24568777 -0.28961635 0.1453512 -0.20158039 -0.103479594
-0.40208504 -0.18531737 0.32092652 -0.44221184 -0.27855447 0.30132154 0.0537694 -0.03410219
0.34776405 0.06044493 -0.004637715 -0.24429964 0.27602893 -0.1144161 -0.35253808 -0.0825073
-0.107379176 -0.22864328 0.41954374 0.37510943 -0.3861074 -0.23358671 0.04478398 -0.31904593
-0.10139951 -0.22477661 -0.17083272 0.035514276 0.36620963 0.22506577 0.17983486 -0.29974148
0.19501273 -0.09991239 0.27484947 0.31906685 0.06468536 0.3074691 -0.46377492 -0.3327216
-0.358956 -0.24003561 -0.22700249 0.01020827 -0.2603629 0.1291785 -0.033117305 0.12327132
0.29808465 0.3215231 0.3400666 -0.22541527 -0.4329041 -0.41996953 -0.40326577 -0.17336766
0.36187354 0.46700025 0.31536707 0.25939852 -0.11419403 -0.11469171 -0.06675723 0.036784463
-0.43910366 -0.21423152 -0.19127779 -0.15571101 -0.028994177 -0.28462744 -0.17746119 0.0748321
-0.39102018 0.255112 -0.27605778 -0.11522472 -0.015291295 0.46642762 0.15516564 -0.07444493
0.14331873 0.003866641 -0.008286905 0.0989587 0.36982366 0.37470135 0.19298564 -0.24829505
-0.008331827 0.09766238 -0.19641115 -0.0015329937 -0.12307696 -0.08423134 0.05774091 -0.37683335
-0.17159367 -0.13466492 0.1291579 -0.03484205 0.25396666 0.17689423 0.38647014 -0.29618025
0.23566054 -0.42318404 0.3501946 0.30893672 -0.016989991 0.23145822 -0.06890874 -0.421974
0.17014241 0.17288575 -0.12526818 0.20873637 0.39256978 0.47310302 -0.03488382 0.14259407
0.3855187 0.008767019 -0.19923551 -0.24022442 -0.2556619 -0.16296302 0.17078446 0.11252329
-0.22415087 -0.22755754 0.47770342 0.43950948
00000000: f39c a73e cb5d ebbe 3642 da3e cedf ab3d
00000010: a769 5f3e a127 c93e 9921 33be 0665 babe
00000020: 2b2d 523e 81cd ecbe 19f6 ba3e f014 9c3d
00000030: aee4 8bbe ed87 a93d aaf8 523e 70a7 2bbe
00000040: c06b 2b3e cd6a 82bd 0cd6 aebe 1db9 3f3e
00000050: ec0b 393e 7de6 583e 6fd8 a0bd 4362 f4be
00000060: eb1d 2bbd 706c 8ebc aea4 b0be 6271 5ebe
00000070: fa3f 593e 4a05 c13e e2eb 94be 7734 03be
00000080: ae4f cfbd 751c efbd ede7 8abe ea7b 17bf
00000090: 6d02 1abc 1a5f d93e 0159 92be eb08 bfbe
000000a0: 0082 adbe e4b8 b0be 17af cd3e 9395 7bbe
000000b0: 9848 94be f2d6 143e 176b 4ebe 1ced d3bd
000000c0: 17de cdbe d6c3 3dbe 7b50 a43e 9769 e2be
000000d0: b19e 8ebe d146 9a3e 4d3d 5c3d bdae 0bbd
000000e0: 210e b23e 1a95 773d f9f7 97bb af29 7abe
000000f0: aa53 8d3e fd52 eabd df7f b4be 96f9 a8bd
00000100: 9de9 dbbd 7721 6abe 70ce d63e 580e c03e
00000110: deaf c5be 5b31 6fbe 686f 373d fd59 a3be
00000120: 8caa cfbd d72b 66be c6ee 2ebe 6b77 113d
00000130: d47f bb3e a477 663e a126 383e b777 99be
00000140: 6bb1 473e de9e ccbd 12b9 8c3e bb5c a33e
00000150: c279 843d 976c 9d3e e873 edbe 7c5a aabe
00000160: 15c9 b7be e5cb 75be 5773 68be 9640 273c
00000170: 494e 85be 5e47 043e 03a6 07bd ac75 fc3d
00000180: 8d9e 983e ad9e a43e 361d ae3e 43d3 66be
00000190: 9ba5 ddbe 3f06 d7be da78 cebe 4b87 31be
000001a0: 7d47 b93e a81a ef3e cb77 a13e e2cf 843e
000001b0: 8fde e9bd 7de3 eabd 04b8 88bd 4eab 163d
000001c0: 32d2 e0be 825f 5bbe 53de 43be b572 1fbe
000001d0: 3285 edbc b0ba 91be 63b8 35be 9241 993d
000001e0: cc33 c8be 0a9e 823e 7257 8dbe f0fa ebbd
000001f0: 5788 7abc 9acf ee3e bee3 1e3e 9576 98bd
00000200: 25c2 123e 7967 7d3b ccc5 07bc dcaa ca3d
00000210: 8759 bd3e dbd8 bf3e 079e 453e 0f41 7ebe
00000220: 3782 08bc 3703 c83d 0120 49be bcee c8ba
00000230: c60f fcbd 7b81 acbd bc81 6c3d 4df0 c0be
00000240: 40b6 2fbe 9ae5 09be f841 043e 8ab6 0ebd
00000250: eb07 823e c323 353e 6adf c53e f0a4 97be
00000260: ff50 713e 94ab d8be b54c b33e f42c 9e3e
00000270: 982e 8bbc 6203 6d3e 0720 8dbd fa0c d8be
00000280: d039 2e3e f608 313e 4d46 00be fdbe 553e
00000290: e8fe c83e 8f3a f23e 56e2 0ebd 2e04 123e
000002a0: b562 c53e 8ba3 0f3c 6504 4cbe 64fd 75be
000002b0: 1ee6 82be c7df 26be 1fe2 2e3e 9c72 e63d
000002c0: ce87 65be d804 69be 8b95 f43e 6307 e13e

fc1.bias f4 [20]
-0.02860175 -0.026016118 0.011830838 -0.011297332 0.048431765 0.03304492 -0.027579516 0.03564675
0.027439868 0.020003589 0.016699731 -0.031137548 -0.005034144 0.13380654 -0.02288881 -0.01098102
4.8340306e-05 -0.08268934 -0.015638627 0.11900042
00000000: 384e eabc c11f d5bc 22d6 413c 7218 39bc
00000010: 6360 463d 1c5a 073d 70ee e1bc 5402 123d
00000020: 93c9 e03c 91de a33c e0cd 883c 2c14 ffbc
00000030: 76f5 a4bb 9504 093e 5081 bbbc bce9 33bc
00000040: 02c1 4a38 0759 a9bd 941c 80bc 7eb6 f33d

fc2.weight f4 [1, 20]
0.14242084 -0.22746353 0.14261478 -0.27524307 0.35596296 0.14674987 -0.5533788 -0.103445865
0.027530786 0.32721126 0.46678928 -0.29092565 -0.43942955 0.44510323 -0.0011752739 -0.53223115
0.27744454 -0.241665 -0.17149913 0.14978126
00000000: c5d6 113e 33ec 68be 9c09 123e a9ec 8cbe
00000010: c740 b63e 9945 163e 3caa 0dbf 6ddb d3bd
00000020: 3e88 e13c 3c88 a73e 01ff ee3e 35f4 94be
00000030: e9fc e0be 92e4 e33e a60b 9aba 4d40 08bf
00000040: 360d 8e3e 0877 77be 789d 2fbe 4260 193e
