MentorMix/checkpoint/MentorNet/MentorNet_Fold_3_Epoch_3.pt (torch, 6655 bytes, 7 tensors)

embedding_layer1.weight f4 [2, 2]
000000 84 cb 89 3f ab 2e a3 3c 47 fd 4e 3f f4 b1 a6 be
       1.0765233 0.019919714 0.8085522 -0.32557642

embedding_layer2.weight f4 [101, 5]
000000 0d 94 0d bf b5 d4 ab 3f 70 ec 08 bf 00 7c 06 40
       -0.5530403 1.3424288 -0.53485775 2.1013184
000010 32 60 76 bf 01 f5 01 3f 50 df 95 3d d9 92 2f bf
       -0.9624053 0.5076447 0.07317984 -0.68583447
000020 3d 75 44 bf a9 fe ee be 31 e2 e5 3e 0b dd 93 3f
       -0.7674139 -0.46678665 0.44899133 1.1551832
000030 16 e6 fe 3e c6 0f f9 bf c2 8c 1c 3f ac f8 f5 be
       0.49784917 -1.9457939 0.6115228 -0.48041284
000040 31 6f 60 3f 16 0b 41 bf c0 4a 5c 3f 90 3f 2d bf
       0.87669665 -0.7540754 0.8605156 -0.67675114
000050 2b db 2d bf cd 89 94 3d 5b bd ab 3d d1 5a 1c 3f
       -0.6791255 0.07252846 0.08385726 0.61076075
000060 ab 5c 09 3f 94 01 35 be cb 56 18 bf c9 b5 83 3f
       0.53657025 -0.17676383 -0.59507436 1.0289851
000070 9b 60 8a bf 30 bc 38 be fc 32 21 3f 74 98 ac bc
       -1.0810732 -0.18040538 0.6296842 -0.021068789
000080 13 dd f0 bd 9d c6 ac bf 41 ad b8 3f b9 ea 8e bf
       -0.117609166 -1.3498112 1.4427873 -1.1165382
000090 7a 25 13 3e 1d b2 22 bf 4e e5 98 3e d7 9f d5 3e
       0.14369765 -0.6355303 0.29862446 0.4172351
0000a0 95 0d a1 3f 8a b2 83 3f 16 27 fc 3f f9 26 0e c0
       1.258227 1.0288861 1.9699428 -2.2211287
0000b0 54 14 c9 bf 44 3b 97 3f 10 56 97 3d fc ce 22 bf
       -1.5709329 1.1814961 0.07389462 -0.63597083
0000c0 f2 ca ce 3e a8 d8 3c bf 00 0e 19 c0 9b aa 01 bf
       0.4038921 -0.7376809 -2.3914795 -0.5065095
0000d0 24 bf 6c bf 66 15 c8 3e f6 c1 13 bf 67 1f 5b 3f
       -0.9247916 0.39078826 -0.57717836 0.8559479
0000e0 9d 4b 09 be e7 f5 d3 3f d8 80 f3 bf c1 bd d5 be
       -0.1340775 1.6559418 -1.9023695 -0.41746333
0000f0 4a 0b dd 3f 8a d1 c0 3f cc 4d 88 3f 52 1d 5a be
       1.726907 1.5063946 1.0648742 -0.21300247
000100 d8 59 2e 3e b8 df 65 3e 19 f1 5a bf 53 b1 d7 3f
       0.1702646 0.22448623 -0.85524136 1.685099
000110 d5 62 9d be c7 e9 6d be 04 b0 f5 3f 9e af e3 3f
       -0.30739465 -0.2323371 1.9194341 1.7787969
000120 44 ad 0b 3f a0 79 98 3f 2d b8 f9 bf 0a f7 51 bf
       0.5456126 1.1912117 -1.9509331 -0.82017577
000130 b8 da 48 3e 16 34 83 3f 57 9e ed 3f b3 c1 49 3f
       0.19614685 1.025027 1.8563946 0.78811187
000140 b8 55 7f bf 77 85 5a 3f 4e 99 0a 40 12 0c e4 3c
       -0.9974017 0.853599 2.165607 0.027837787
000150 36 e5 98 bd a8 66 05 3f a4 48 ca bf 52 34 35 c0
       -0.074655935 0.52109766 -1.5803418 -2.8313184
000160 57 fc d9 bf 49 5a b2 bf d8 c1 cb bf 4f 33 9f 3c
       -1.7030133 -1.3933803 -1.5918531 0.019433646
000170 da f0 66 bf 02 c3 03 be d2 4d 13 3f 85 13 b8 3d
       -0.9021126 -0.12867358 0.5754062 0.08988098
000180 21 56 98 3d a9 2e 08 40 a8 21 e6 be 51 56 7b 3f
       0.07438303 2.127848 -0.44947553 0.98178583
000190 d5 4e df 3f 84 9b 14 bf 06 d5 dd be fd 3f 74 3e
       1.7445933 -0.580498 -0.43326586 0.23852535
0001a0 04 21 97 3f 69 d2 aa 3f e0 ee 95 3f d2 a0 68 be
       1.180695 1.3345462 1.1713524 -0.22717598
0001b0 e1 2c 19 3d 44 84 e4 bf 34 e0 df be 90 af 9b 3f
       0.037396315 -1.7852864 -0.4372574 1.2162952
0001c0 93 ba e9 be be e4 88 bf 3b 20 41 3f d6 db 7b 3f
       -0.45650157 -1.0694807 0.75439805 0.9838232
0001d0 01 1e 14 3f 19 35 48 bf a5 54 f5 bd 0e 37 33 3f
       0.5785828 -0.7820602 -0.11979035 0.7000588
0001e0 9f 22 c1 be 86 3d 1b be a2 6c 70 3f 32 e5 0d 3f
       -0.37721726 -0.15160188 0.9391576 0.5542785
0001f0 97 6a dc 3e e4 a8 bd 3e 92 66 a4 bf f2 76 29 3f
       0.43050072 0.37042916 -1.2843802 0.6619712
000200 6a ff 5a 3f b1 68 39 bf 68 24 32 be 2c b7 be be
       0.8554598 -0.7242537 -0.173967 -0.37249124
000210 c2 7b 84 3d b1 7e a7 3d 6a 42 e7 bf 8e e6 ba be
       0.064689174 0.08178461 -1.8067143 -0.36504024
000220 55 8d ae 3e 57 45 84 bf 74 87 e1 be e3 cb 2b 3f
       0.34092203 -1.0333661 -0.44048655 0.6710798
000230 1f 30 dd 3f de 43 9a 3f d1 95 12 40 36 b6 bf 3f
       1.728031 1.2051961 2.290394 1.4977481
000240 ea b2 60 3f 59 aa 7d 3e 55 37 50 3f fd 43 f6 bd
       0.87773 0.24772014 0.8133443 -0.120246865
000250 f1 d7 33 be 22 d8 99 3e 31 a0 5b bf 82 da 26 be
       -0.17562844 0.3004771 -0.8579131 -0.16294292
000260 9e 66 16 40 d5 2d 00 bf 2d c0 82 3f 6f f7 c0 3e
       2.3500133 -0.50069934 1.0214897 0.37688777
000270 51 1c db be 40 ce 7e bf 06 ad 7b bf 95 e5 9f be
       -0.4279504 -0.9953346 -0.9831089 -0.31229845
000280 25 ce 11 c0 cf 7b 97 bd 3a 55 99 3e b3 ff 90 be
       -2.278207 -0.073966615 0.29947835 -0.28320083
000290 29 40 7c 3d 68 ac cd bf fa c2 0b bf d8 67 ba be
       0.061584625 -1.6068239 -0.54594386 -0.36407351
0002a0 1d be 57 3e dd 6e e7 be 5d 47 93 bf 85 c9 5e be
       0.21068616 -0.4520177 -1.1506153 -0.21756561
0002b0 6f 11 f8 be 20 f1 32 bd 98 37 9c bf 35 65 85 3f
       -0.484508 -0.043686986 -1.2204466 1.0421511
0002c0 1a 2b 0c 40 06 a6 7e 3d ac 98 0c be 6f ea f9 3a
       2.1901307 0.06217005 -0.13730115 0.0019067059
0002d0 60 8b a1 be 80 36 20 40 02 de 0e c0 7e 9e d6 bd
       -0.31551647 2.5033264 -2.2323003 -0.10479449
0002e0 7a 0e 1c bf 67 9e 70 3f 9b 91 9b 3e f1 a2 4f bf
       -0.6095959 0.939917 0.30384526 -0.81108004
0002f0 09 81 8d bf a7 09 5b bf 51 85 78 3f d9 11 e8 3d
       -1.1055003 -0.85561603 0.97078425 0.11331529
000300 49 88 ab 3e 1f 8d 10 bf 9e e3 fc be 8b 08 35 3e
       0.33502415 -0.56465334 -0.49392408 0.1767904
000310 5a 0c 80 be ab e7 cf 3e 2e 71 a3 bf 77 1b 6a 3f
       -0.25009423 0.40606436 -1.2768915 0.9144816
000320 a0 4d 0e 3f e0 b4 cf 3f 17 5e 7b be d3 a5 54 bf
       0.55587196 1.6227074 -0.24547611 -0.8306553
000330 3c 2e 56 bf 68 39 0b 3e 86 b2 8f bf af e3 b8 3e
       -0.836643 0.13596117 -1.1226356 0.3611121
000340 20 17 06 3f 61 f7 b8 3d 3d c7 c4 3d 88 a0 3d be
       0.52379036 0.09031559 0.09608314 -0.18518269
000350 67 68 c6 3d 22 d5 99 bf 3a 92 90 be dd b4 a1 3e
       0.09687882 -1.2018168 -0.28236562 0.315833
000360 8f 91 0b bf d9 68 1e 3e 01 ba 75 3f 86 8d 05 3f
       -0.5451898 0.15469684 0.95986944 0.5216907
000370 07 8c c8 bf 71 99 5b 3e 56 60 68 3f d8 f3 c1 bf
       -1.5667733 0.21445252 0.90771997 -1.515254
000380 c0 09 9d bf a1 f7 37 3e 95 40 e9 3f 85 85 ec bd
       -1.22686 0.17965557 1.8222834 -0.11548904
000390 9f bf 1d bf 48 be 37 3e 1c 45 e0 bf 02 6e 12 c0
       -0.61620516 0.1794368 -1.752109 -2.2879643
0003a0 b9 d3 f1 3f 8e 11 92 3f 04 a8 bb bf d1 97 8e bd
       1.8892738 1.1411607 -1.4660649 -0.069625504
0003b0 b8 04 f8 bf 99 14 67 3e a6 e3 c3 be 24 9b d5 3e
       -1.937644 0.22566451 -0.3825962 0.41719925
0003c0 99 94 ac 3f 91 53 0b be ae 01 b4 bf f1 af af be
       1.3482848 -0.13606097 -1.4063013 -0.3431392
0003d0 8e 2e 5d bf 5b 86 b4 be d2 e9 09 bf 4e db 8c bf
       -0.8639916 -0.35258755 -0.53872406 -1.1004426
0003e0 64 57 5a bf 4f 6f 99 3f d4 4f d5 bd 3a 31 a0 3e
       -0.852896 1.1987094 -0.10415617 0.31287557
0003f0 02 70 6b 3f 63 e0 7a bd fe d5 42 3f 6e 25 17 c0
       0.91967785 -0.061249148 0.76107776 -2.3616595

rnn.weight_ih_l0 f4 [1, 2]
000000 e9 05 15 be 19 55 52 bf
       -0.14553036 -0.821611

rnn.weight_ih_l0_reverse f4 [1, 2]
000000 08 fd 58 bd 6a f0 0a bf
       -0.052975684 -0.5427309

fc1.weight f4 [20, 9]
000000 9e 9d 8e 3e 75 f3 c8 be 47 f4 88 3e e1 00 9f be
       0.27854627 -0.39248243 0.2674887 -0.31055358
000010 00 5b d6 bd c7 b8 af 3e 1c 72 81 be 5a d0 ed 3e
       -0.104665756 0.3432066 -0.2528237 0.46448022
000020 56 a4 99 3e e9 12 fc be 26 40 b4 3d 44 76 01 be
       0.3000819 -0.49233177 0.08801298 -0.12642771
000030 6a 66 b9 3d 18 4a bd be 35 94 63 3e da 18 ac be
       0.09052737 -0.36970592 0.22224505 -0.3361271
000040 e2 06 63 3e e5 9d 36 3d a0 70 d1 3e 47 92 4e be
       0.22170594 0.044584174 0.4090624 -0.20172988
000050 c6 70 bd be ec e6 d8 3e db d9 59 be 9b 71 fb bd
       -0.37000102 0.4236368 -0.21274512 -0.12277528
000060 1c 5a f3 3e 39 b0 1b 3e 7c 1f a5 3e 74 4d 8e 3e
       0.47529685 0.15203942 0.32250583 0.27793467
000070 fe fe 2e 3e f8 fd 2a bb 20 58 ce be 3e 7f c6 bc
       0.1708946 -0.0026091319 -0.4030161 -0.024230596
000080 40 67 18 3d 4d 24 9e 3e 1d 5f b8 be f3 08 76 3e
       0.037207842 0.3088707 -0.36010066 0.24026851
000090 ad f1 09 3e 25 2f a4 be 59 16 af be 88 30 7c 3d
       0.13471098 -0.32067218 -0.34196737 0.06156972
0000a0 43 30 dd be 83 dc 2e be 43 bd 63 be be 21 07 be
       -0.43200883 -0.17076306 -0.22240166 -0.13196465
0000b0 3d d7 99 bd 0d 77 b0 3e 9f b7 d9 be 41 b8 a3 bd
       -0.075117566 0.3446583 -0.42522904 -0.07994128
0000c0 0a 1e 82 3c 09 52 f0 3e 0a 5b a2 bc 20 2d 16 bd
       0.015883464 0.46937588 -0.019818801 -0.03666413
0000d0 5f fc da be c7 1d b3 be 00 ec 87 3e 1d db fb be
       -0.4277067 -0.34983656 0.2654724 -0.49190608
0000e0 5d bf 8d 3d e9 cd 0b 3e 4c 53 a4 be 85 87 11 3e
       0.06921265 0.13652767 -0.320948 0.14211853
0000f0 f2 09 25 be 46 4d e1 bb ff 9b 86 bd b6 99 d6 3e
       -0.16117075 -0.006875667 -0.06572723 0.41914147
000100 36 6d d5 3e 3d e1 9f 3e a0 6e 6b 3e ce de 04 be
       0.41684884 0.3122653 0.22991419 -0.12975618
000110 21 cc 33 bd 32 da ad 3d 04 12 80 bb f5 01 85 be
       -0.043895844 0.08488883 -0.0039083976 -0.25978056
000120 8a 34 d8 be d5 92 0b be 0b 1a c6 be 7f 23 0a be
       -0.42227584 -0.1363023 -0.38691744 -0.13490103
000130 f4 56 22 bd 24 7e 0b be 3a 39 f6 bc 91 86 ad be
       -0.039633706 -0.13622338 -0.030056585 -0.3389173
000140 33 89 dc be e9 29 7a be 4b db 69 3d b0 46 22 3c
       -0.43073425 -0.2443005 0.0570939 0.0099045485
000150 e3 67 9d bb af 52 99 3e 09 a5 1e 3e 02 58 b8 3e
       -0.004803644 0.29945895 0.15492643 0.36004645
000160 7c 3f 0d 3e 70 d5 b2 be b6 bc a7 bd be 0a 0b 3e
       0.13793749 -0.34928465 -0.08190291 0.13578317
000170 fa e3 9d 3e 50 75 7a 3e 7a 3b 06 bc 9a 47 d0 3d
       0.30837995 0.24458814 -0.008192891 0.10169907
000180 e3 3d a9 bd e6 e3 a9 be 95 3b e1 3e 35 f6 40 3e
       -0.08263757 -0.33181685 0.4399077 0.1884392
000190 1d ff 78 be 9f fe 0c 3e 85 91 34 3e 12 d5 51 3e
       -0.24316068 0.13769005 0.17633636 0.20491436
0001a0 0d bd a1 3e 82 fa fa 3d 5a 67 94 bc c1 e2 37 be
       0.31589547 0.12254812 -0.018115688 -0.17957594
0001b0 65 5d 7b be f7 65 54 3d 2a 39 5d be 55 40 aa 3e
       -0.24547346 0.051855054 -0.21603838 0.33252206
0001c0 86 f2 f9 bd 0c 97 83 be 5d 71 12 3d 2a f3 13 3e
       -0.12204461 -0.25701177 0.035752643 0.14448228
0001d0 e7 96 e1 3e 3e 85 4c be 2b 10 6f be ff f5 9c 3e
       0.44060442 -0.19972703 -0.23346011 0.3065643
0001e0 da ab c4 be ea 65 ee 3d 03 87 ef be 59 34 b0 3e
       -0.38412362 0.11640532 -0.46782693 0.34414938
0001f0 f1 12 9c 3d c1 da 04 be 9e bf 89 be ab 87 cf 3c
       0.076208 -0.12974073 -0.26904005 0.025333246
000200 f1 ff f3 bd 14 df a1 3e 00 b5 e4 be 43 7e 2a be
       -0.11914051 0.31615508 -0.44669342 -0.16649728
000210 17 f9 e1 3d 79 19 bb 3e fa 09 eb be 14 ca a4 3d
       0.11033838 0.36542872 -0.4590605 0.08046356
000220 22 ad 3c b9 df 33 fc 3d 11 f7 10 3d b9 48 89 3c
       -0.00017993574 0.12314581 0.03539187 0.01675831
000230 f3 4c c0 3e 5f 92 19 3e f4 f8 7f be 82 a6 87 3e
       0.37558708 0.14997242 -0.24997312 0.26494223
000240 dc 7e 9a 3c 91 c0 8e 3e 52 8a 56 be 0a f0 eb be
       0.01885932 0.27881292 -0.20951203 -0.46081573
000250 e9 77 1c 3e 0e 92 e6 bc ad e3 98 be f2 bf c3 bd
       0.15280117 -0.028145816 -0.29861203 -0.09558095
000260 a7 06 4c be 57 59 f0 be d3 b9 21 bd a9 2f 8f be
       -0.19924413 -0.4694316 -0.039483856 -0.2796605
000270 5f 1d be be a0 04 c6 3e 5a c6 43 3c 65 55 b0 be
       -0.37131783 0.38675404 0.011949146 -0.3444015
000280 e2 7d 3f be 33 14 af 3e 06 ff 8f bc 21 b6 75 3e
       -0.18700364 0.34195098 -0.01757766 0.23995258
000290 1b 46 cb 3e 9f 04 c4 3e 59 b7 c0 3e a3 f4 51 bd
       0.39701924 0.38284776 0.37639883 -0.051258694
0002a0 b1 03 e0 be 72 be 93 3d 64 de 56 3e 30 b9 bf 3e
       -0.43752816 0.07214059 0.20983273 0.37445974
0002b0 d0 1b 89 be d4 90 db be 5b 67 c0 3e ef 49 e3 3d
       -0.26779032 -0.42883933 0.37578854 0.11098086
0002c0 18 70 49 bd 3a c6 c8 3e b8 4b 92 3e 06 22 34 3e
       -0.049179167 0.39213735 0.28573394 0.17591104

fc1.bias f4 [20]
000000 4a af 2b bd 62 7e 1c bd 63 36 0d bd b7 a8 04 3d
       -0.041915216 -0.038206466 -0.034475695 0.03238746
000010 4f c1 cc 3c 22 d2 05 bd ec 73 12 3d 4e 15 3f bb
       0.02499452 -0.0326711 0.035755083 -0.0029156986
000020 ff 93 e0 3c de 1b f4 3c bd c3 21 3d 8f 9a 5d bb
       0.02741432 0.029798444 0.03949331 -0.0033814048
000030 3d bd 91 3c 77 71 f0 bc f5 72 e2 3c e1 1d 60 3b
       0.017790431 -0.02935098 0.027642706 0.0034197497
000040 56 b5 e1 bc f5 33 43 bd 81 55 59 3c ae 5b 05 3d
       -0.027552288 -0.047656972 0.013265015 0.032558136

fc2.weight f4 [1, 20]
000000 2d 6c 10 3f e4 44 09 3e 2a 7f 3b 3e ff c4 84 be
       0.56415063 0.13405186 0.18310228 -0.25931546
000010 ac 56 c6 3e 31 12 b1 be a2 2f b9 be 7b f3 f3 be
       0.38738 -0.3458419 -0.36169153 -0.47646698
000020 a6 30 06 bf c7 02 fc be 8c 91 ba 3c b4 fa 9e bd
       -0.5241798 -0.4922087 0.02277448 -0.077626616
000030 20 b4 b2 3d cf 6e d0 3d d4 93 18 be 52 f3 60 3e
       0.08725762 0.10177385 -0.14900142 0.2196782
000040 61 09 6d 3e 74 69 c2 3e 2b 6a be be bf 58 91 be
       0.23148109 0.3797108 -0.37190375 -0.2838802
