MentorMix/checkpoint/MentorNet/MentorNet_Fold_2_Epoch_3.pt (torch, 6655 bytes, 7 tensors)

embedding_layer1.weight f4 [2, 2]
000000 58 19 96 bf e3 1b a5 3f 07 fc a3 3e 09 1f 36 bd
       -1.1726484 1.2899135 0.3202822 -0.04446319

embedding_layer2.weight f4 [101, 5]
000000 83 11 05 40 b8 c6 c0 3f 56 fa e6 be d2 46 7d bd
       2.0791938 1.5060644 -0.45112866 -0.061835118
000010 13 db af 3e 75 62 65 3f 87 c2 69 bf e0 6d 63 3e
       0.34346828 0.8960336 -0.9131245 0.22209883
000020 9a 8d 19 40 9a 54 cc 3c 4e e6 cd 3f ed 39 79 3f
       2.3992677 0.024942685 1.6085908 0.9735401
000030 15 fd a8 bf 57 96 69 3f 97 c8 01 40 55 b0 e8 3e
       -1.3202235 0.91245025 2.027868 0.4544703
000040 ca 0f c7 3f e6 51 6e 3f 9e 07 d9 be 92 fc f4 bf
       1.5551693 0.9309372 -0.42388624 -1.9139578
000050 e9 3a 64 3f 5b 5f b5 3f 30 e3 a0 3f 30 3a a1 3f
       0.8915239 1.4169725 1.2569332 1.2595882
000060 77 cc c7 3e f0 37 d5 be de 5f 3c 3e a0 f7 12 3f
       0.39023182 -0.4164424 0.18395945 0.57409096
000070 dc 80 c1 3d dc a3 11 bd e0 94 a9 bb 86 5a 6a bf
       0.09448406 -0.03555666 -0.005175218 -0.9154438
000080 47 4e 10 3f 19 4b 72 bf 51 f3 0f be ba fa 84 3e
       0.5636944 -0.9464584 -0.14057662 0.2597254
000090 09 33 94 bf ff 5a af bf 1c bf 38 be 55 49 25 3f
       -1.1578075 -1.3699645 -0.18041652 0.6456502
0000a0 5c ab a3 3e a4 9f aa bf 81 f1 d8 3f cd 9e 1c 3f
       0.31966674 -1.3329968 1.6948701 0.6117981
0000b0 7a e7 8b 3f e2 ca e7 bf 82 de 88 be 29 69 38 be
       1.0930016 -1.810879 -0.2673226 -0.18008865
0000c0 f1 47 87 bf 67 e0 70 3f 28 8c ea bf 18 e1 f0 3e
       -1.056883 0.9409241 -1.8324022 0.47046733
0000d0 94 08 c3 3f 41 97 d0 3e 7b 10 ec 3e f3 85 08 3f
       1.5236993 0.40740398 0.46106324 0.5332939
0000e0 4a 60 90 be c0 e2 12 3f b5 1d b4 bf 17 10 c0 3f
       -0.28198463 0.57377243 -1.4071566 1.500491
0000f0 2d 10 d0 3f a2 10 77 3f 5c aa 4d 3e c6 fd fb bd
       1.6254936 0.96509755 0.20084518 -0.12304263
000100 89 4f 82 3e 6e 46 77 bf 96 b7 04 c0 c9 f9 d0 3f
       0.25451306 -0.9659184 -2.0737052 1.6326228
000110 ab 43 ea bf f6 5d 96 bf d7 ce 34 bd 5b 5a d1 3e
       -1.8301901 -1.1747425 -0.04414257 0.40889248
000120 46 d2 f6 3e 6c 17 df 3f ef d3 46 bf 18 5a f3 3f
       0.482073 1.7429023 -0.77667135 1.901187
000130 f2 d5 60 3f cc 65 76 3f c4 c7 42 be b2 95 bd bf
       0.87826455 0.9624908 -0.19021517 -1.4811308
000140 31 84 6b 3f cd 71 c4 bf 66 14 fc 3d 76 a4 2a bf
       0.91998583 -1.5347229 0.12308578 -0.666572
000150 73 78 8f bf 2b 20 a4 3f 38 43 67 3f 86 21 ba 3e
       -1.1208633 1.2822317 0.9033694 0.363537
000160 4e bd 83 be 25 a6 87 bf a6 96 5a bc 4d 01 1a bf
       -0.25730366 -1.0597578 -0.013341581 -0.60158235
000170 63 90 0a be 51 d9 ec 3e b5 5f 78 bf e8 5a 32 bf
       -0.13531642 0.4625955 -0.9702104 -0.6966996
000180 8e a4 af 3e 82 8c d0 3f 07 21 9a bf 28 59 83 3e
       0.34305233 1.629288 -1.2041329 0.25653958
000190 d3 fd 39 bf 93 b9 51 bf a0 ee 12 bf 25 f6 f2 bd
       -0.7265293 -0.8192379 -0.5739536 -0.118633546
0001a0 a1 52 23 bf 08 16 59 3f 3d f7 90 3d 1c ba 23 3f
       -0.63797957 0.8479924 0.07078407 0.63955855
0001b0 a0 55 70 be ba c0 21 3f b9 56 03 c0 f1 ee b7 bf
       -0.23470163 0.631847 -2.0521681 -1.4369794
0001c0 5a 19 87 3f 33 4e 51 be 38 df 78 3e 91 66 f3 bc
       1.0554612 -0.20439987 0.24303901 -0.029711993
0001d0 3a b3 cc bf f9 47 14 40 bc 9c ea be 81 3a 8f bf
       -1.5992196 2.3168929 -0.45822704 -1.1189729
0001e0 30 b3 85 3e 71 27 4c bf 40 6f 5d 3e 67 43 7b 3f
       0.26113272 -0.7974768 0.2162447 0.9814972
0001f0 35 dd ba 3e 3f f1 70 3e 8c b1 a6 be 5c a8 68 3e
       0.36496893 0.23529528 -0.32557333 0.22720474
000200 f9 27 10 3c c7 57 4c be eb b5 22 bf 8f 35 3d bd
       0.008798593 -0.1995536 -0.63558835 -0.046193656
000210 bd 1a 7b bf 91 62 10 be 3e 06 41 3f ec e7 05 3e
       -0.98087674 -0.141001 0.7540015 0.13076752
000220 cd cd 98 3e c8 16 44 bf cb b2 40 3f ee 13 54 bd
       0.29844514 -0.7659726 0.75272816 -0.05177682
000230 be 51 91 3d 41 90 72 bf bf 9c 46 bf 1a b8 08 c0
       0.07095669 -0.94751364 -0.77582926 -2.1362367
000240 c8 85 e9 bf 8b d1 a7 be d0 ad bc 3d 1b 8e b3 3f
       -1.8243952 -0.32777056 0.092128396 1.4027742
000250 72 5a de 3c fa aa 8d 3d bf 6e 19 3f f0 1f 7b 3f
       0.027142737 0.06917377 0.5993461 0.9809561
000260 a3 d0 37 3f 07 52 b0 3f 3f 84 08 3f 95 03 03 c0
       0.7180273 1.3775033 0.5332679 -2.0470936
000270 14 e4 13 3f 3e 56 97 bf e8 7c 5d be 35 88 9b bf
       0.57769895 -1.1823194 -0.21629679 -1.2150942
000280 ce 3d 05 3c 0b ea cb be 98 d6 60 3e ac be 66 bf
       0.008132411 -0.39826998 0.21956861 -0.9013469
000290 18 eb 27 bf 8d f0 cf 3e 94 c9 c1 bc 8d 30 d0 3e
       -0.655931 0.40613213 -0.02365569 0.4066204
0002a0 19 91 ab 3d 5a 8e a8 3f 94 a6 cc bb ff d2 33 bf
       0.083772846 1.3168442 -0.0062454436 -0.7024383
0002b0 a6 95 2c 3f 8d 6d bc 3e 57 f5 f9 3f 21 e6 d2 be
       0.67415845 0.3680233 1.9527997 -0.411912
0002c0 a6 38 1b 3e da e0 7b 3e 5e 4e fb 3d 32 4b 84 3e
       0.15158328 0.24597493 0.12270807 0.2583862
0002d0 5c 2f 16 bf a0 45 06 3f 7f 17 5f 3e d1 16 91 bf
       -0.58666015 0.5244999 0.21786307 -1.1335088
0002e0 fa 8d 1c 3f 5a f4 2a bf 25 d6 f7 3e 5d f4 36 3f
       0.6115414 -0.667791 0.48405567 0.7146662
0002f0 1b 5f d7 bf 63 da d9 bc 4a f5 1d 3e e9 b5 ac 3f
       -1.6825899 -0.026593393 0.15425602 1.3493015
000300 92 38 27 bf b0 6c 32 c0 2f 14 e1 3e 8d da 72 bf
       -0.65320694 -2.7878838 0.4396071 -0.9486473
000310 fd fa 8b 3e 82 30 22 bf ae 6c 9d bf 46 1d f1 3e
       0.27339926 -0.6335527 -1.2298791 0.47092646
000320 24 8d 40 be c4 4b c8 3e 7b 35 af bf 58 ce c6 bd
       -0.18803841 0.39120305 -1.3688196 -0.09707326
000330 0b a5 b4 3f 38 0c 92 bf b5 48 86 bf 2e cb 84 bf
       1.4112867 -1.1409979 -1.0490938 -1.0374506
000340 ac 97 c8 bf 5f 26 fd 3f 07 30 25 bf e2 3d dc 3e
       -1.5671287 1.9777335 -0.6452641 0.43015963
000350 f0 3c 85 40 be aa 93 3f b8 58 6a 3f d2 7b 46 bf
       4.1636887 1.1536481 0.91541624 -0.77532685
000360 99 c7 60 bf 58 2a 8e 3e d9 dd 09 40 59 e1 7c 3f
       -0.8780456 0.2776668 2.1541655 0.98781353
000370 01 63 b5 3d 37 8a ef 3f c2 a1 7e 3f 1f 94 58 3f
       0.08856774 1.8714055 0.9946557 0.84601015
000380 40 47 66 3e 9d ed 90 3f 6c 21 3f 3f 15 52 65 3f
       0.22488117 1.1322514 0.7466037 0.8957837
000390 4e 1e 7d 3e 91 29 0e 3f f5 f2 aa 3e 48 7b d1 3f
       0.24718592 0.55532175 0.33388487 1.6365747
0003a0 c3 60 8c 3e f2 a1 dc bd ef 39 27 3e f0 15 4f bf
       0.27417573 -0.10773076 0.16330694 -0.8089285
0003b0 d2 ec 89 3f ba 58 e9 3e f9 17 90 3c 30 b7 51 be
       1.0775397 0.45575505 0.017589556 -0.20480037
0003c0 98 e5 20 3f 45 66 6a bf fb 43 a3 3e b2 c5 98 bf
       0.6285033 -0.915623 0.31887802 -1.1935332
0003d0 96 c7 f6 3e 62 e2 0e 3c 7b 0f 42 3e d2 87 40 bc
       0.48199147 0.008720966 0.18951218 -0.011751132
0003e0 11 4c b0 bf 52 d4 7c 3f 23 96 4b bf dd 10 96 bf
       -1.3773214 0.98761475 -0.79525965 -1.1723896
0003f0 e5 af ad 3e b8 c2 2d bd 5e e3 2a bf 13 7f cd bf
       0.3392326 -0.042422026 -0.66753185 -1.6054405

rnn.weight_ih_l0 f4 [1, 2]
000000 28 0a 4c bf 44 33 2f 3f
       -0.79703 0.684376

rnn.weight_ih_l0_reverse f4 [1, 2]
000000 e6 fd 6b 3e fb 10 56 bf
       0.23046073 -0.8361966

fc1.weight f4 [20, 9]
000000 7d be a7 3e 50 40 be be f1 d2 22 3d 19 8e ce bd
       0.3276252 -0.37158442 0.03975195 -0.10085697
000010 96 73 fb 3d c5 96 9b be 2e 68 73 3e 86 6a 90 be
       0.12277906 -0.30388466 0.2377021 -0.2820627
000020 f4 11 a0 be 53 b0 ce 3e b2 c4 b6 be 83 21 4f bb
       -0.31263697 0.403689 -0.35696942 -0.0031605668
000030 0a 70 2f 3e 8a ad b4 3e 9e 7e b2 be 68 ff ad 3d
       0.17132583 0.3528865 -0.34862226 0.084959805
000040 77 5f da 3e f4 5a b2 3e c3 27 a2 3e cf 11 bc 3e
       0.4265096 0.34835017 0.3167096 0.36732337
000050 21 36 ee 3e 48 75 26 3e 19 72 3a 3d bc 62 c5 3d
       0.46525672 0.16255677 0.04551897 0.09637973
000060 fe 19 92 be b3 d6 b7 be b3 8f 29 be 19 39 0c bd
       -0.28535455 -0.3590599 -0.16558723 -0.03423414
000070 6f bc aa be 4c 20 0d 3e 5a bc 4f be 17 b8 04 bd
       -0.33346888 0.13781852 -0.20286694 -0.032402124
000080 c6 4e 64 3d 59 b4 8a be 38 37 97 3c fb d1 a7 3e
       0.055739187 -0.2709072 0.018458948 0.3277739
000090 56 73 49 3e c0 a1 a1 bd 07 2a ac be 39 b1 4e 3e
       0.19672903 -0.078921795 -0.33625814 0.20184793
0000a0 7f 52 d0 be 94 fc f7 bd 2c ae d5 3e 9c 18 f7 3c
       -0.4068794 -0.12108722 0.41734445 0.030163102
0000b0 5c 82 d8 3e 90 8d e7 3d d1 aa 96 be b6 20 25 be
       0.42286956 0.11306298 -0.29427198 -0.1612576
0000c0 82 8d 13 3e c4 00 8f 3e e0 3d 8c be 2c 11 89 3e
       0.1440945 0.27930272 -0.27390957 0.26770914
0000d0 f8 99 d4 3e b0 09 32 3d 6d d3 0c be 71 8d b5 be
       0.4152372 0.04346627 -0.13752528 -0.35459474
0000e0 d6 1f ee 3e 1f dc cc be cd 02 70 3e c1 5f b2 3c
       0.46508664 -0.4001169 0.23438568 0.021774175
0000f0 21 d3 c1 be 97 b3 8b 3e ad 27 91 3e 49 f7 9c be
       -0.3785639 0.27285454 0.28350583 -0.30657414
000100 d4 64 cd be 12 7d 8d 3e 78 d4 48 be 82 de b2 3e
       -0.40115988 0.27634484 -0.196123 0.34935385
000110 34 bc 94 3e 4e 3e 03 bd 6f 85 bf 3e d0 56 9b bc
       0.29049838 -0.03204184 0.3740649 -0.018962294
000120 33 ac 83 be fa dc cf be c7 79 42 bd 5d 8f fb 3d
       -0.25717315 -0.4059828 -0.047479417 0.12283204
000130 c4 33 81 3e 16 5b 83 3e df be e0 be f5 c9 6d 3d
       0.25234807 0.2565543 -0.43895623 0.05805393
000140 18 30 cf bc 91 b2 54 be 99 57 82 3e 58 3a 53 3e
       -0.025291488 -0.20771243 0.25457457 0.20627725
000150 6f 96 a2 be 2f 5d 08 3e d3 49 9a bd d0 ad f6 be
       -0.31755397 0.13316797 -0.07533612 -0.48179483
000160 a7 af b7 3e 72 6e 39 3e 78 df ab 3e a1 9c d3 3d
       0.358762 0.18108538 0.3356893 0.10332609
000170 1a 8a d8 3e 0b c8 b8 3e da c2 b6 3e 21 42 ac 3e
       0.42292863 0.3609012 0.35695535 0.33644202
000180 bd d9 99 be 48 f2 61 be d2 00 9d 3c 17 f4 99 3e
       -0.30048934 -0.22065079 0.01916543 0.30069038
000190 65 3e a5 3e 6b 51 c3 be b9 d4 6e 3d 56 be 18 be
       0.32274166 -0.38148054 0.058308337 -0.14916357
0001a0 5e 86 c3 bd e8 70 2d 3d 99 7c ce be 96 a3 3e be
       -0.09547113 0.042344004 -0.40329435 -0.1861709
0001b0 60 cf f9 3e d3 12 98 be 75 a0 0e 3a c2 4f a0 be
       0.48791027 -0.29701862 0.000544078 -0.3131085
0001c0 9e ab 65 bd 6d 83 47 3c 31 34 c4 be 8a 4a 9f be
       -0.05607187 0.01217733 -0.3832107 -0.31111556
0001d0 cc 78 03 3e 45 e8 79 be 0a 4b a7 be 48 8a d5 bd
       0.12839049 -0.2440501 -0.32674438 -0.10426766
0001e0 cd 49 ab 3e 0d 8b 52 3e b0 22 ab 3e 0c f9 58 be
       0.33454743 0.20560856 0.33424902 -0.21188754
0001f0 b2 fa 85 3e 5d ba 9b 3d 56 f9 24 3d 05 ff d2 3e
       0.26167828 0.07603905 0.040276848 0.4121019
000200 95 4c d7 3d f0 2a bf be 7e 31 29 bd 27 c8 17 be
       0.10512654 -0.37337446 -0.041306965 -0.14822446
000210 3a 1f c1 be 16 8c f2 bc 96 f6 fc 3d 7e 44 b6 3e
       -0.37719136 -0.029607814 0.1235172 0.3559913
000220 38 c7 cd 3e 20 54 be 3e e1 e1 65 3d 52 b7 fe bd
       0.40191054 0.37173557 0.056123618 -0.12437309
000230 1c 4f b1 bc ff b6 8b 3e a5 ee 09 3e 1b 62 8b 3e
       -0.021644168 0.27288052 0.13469942 0.27223286
000240 ce 34 80 bd 8f b6 bc 3e 1d a0 07 3e b0 76 c2 be
       -0.06260072 0.3685803 0.13244672 -0.37981176
000250 54 bd a8 be 6d f7 a4 be 95 62 d3 3e 93 36 64 3e
       -0.32956946 -0.3222002 0.4128615 0.22286443
000260 6c f7 58 3e dc 31 c5 3e 3e 81 a1 bd b9 c8 94 3d
       0.21188134 0.38514602 -0.07885979 0.07264847
000270 73 4b 12 be 71 90 ba be bd 0e 02 bd d3 f9 93 bd
       -0.14286594 -0.36438325 -0.031752337 -0.072253846
000280 c6 47 9f be 4e c0 bd 3d 03 c2 15 be 96 92 92 3e
       -0.31109446 0.09265195 -0.14624791 0.2862746
000290 3a 0e ba be 75 96 65 be 4e 1d 33 be 16 db 43 be
       -0.3633898 -0.22420676 -0.17491648 -0.19126543
0002a0 a4 a3 37 3e 17 b6 83 be 1e 38 0a 3e 0b 58 dc be
       0.17933518 -0.2572486 0.1349797 -0.4303592
0002b0 38 91 e7 be 79 cb ba 3e 21 f9 f2 3d 6c 71 bb be
       -0.4522798 0.36483362 0.11863924 -0.36609972
0002c0 ef 90 8d bc 19 16 97 be 74 9d dc be 3b 04 d1 3e
       -0.017281024 -0.29509047 -0.43088877 0.4082354

fc1.bias f4 [20]
000000 17 a2 52 3d 9c 7e fb 3c 17 10 9d bb b7 8f 45 3d
       0.051424112 0.03070002 -0.004793178 0.04823276
000010 20 93 00 3d 8f b2 0e 3c 05 3e 2b 3a 7e ad e6 bc
       0.03139031 0.008709564 0.0006532374 -0.0281589
000020 e9 10 ec bc ec 7d 31 bd c5 47 bf bc 4d 6c 88 3c
       -0.028816657 -0.04333298 -0.023349652 0.016653204
000030 52 90 65 bd 8a 5b 12 bd b5 0c 18 3d 23 ab 05 3c
       -0.056045838 -0.03573183 0.037121493 0.008158478
000040 79 2d fb bc 55 4e a6 bc 55 65 59 bd a8 cc 46 bc
       -0.030661331 -0.020301023 -0.053075153 -0.012133755

fc2.weight f4 [1, 20]
000000 60 c4 a3 bd c3 e3 6d 3e d1 ba 96 3e fc 76 53 3e
       -0.0799644 0.23231415 0.29439405 0.20650858
000010 93 3e 12 3f dc bf 8f be fb 95 e1 bc 5b 89 e7 3e
       0.5712673 -0.28076065 -0.027537337 0.4522198
000020 e3 3d 60 3e 9f 80 0b 3f ac 52 9c 3e 03 c6 37 be
       0.21898608 0.54493135 0.30531824 -0.17946629
000030 fa 1a 68 bd fc d7 a9 3e 49 cb 73 be f2 81 f2 be
       -0.05666635 0.33172596 -0.23808016 -0.47364765
000040 02 02 b5 3e 14 59 c9 be 62 49 29 3e 89 1f 08 3f
       0.35353094 -0.39325774 0.165319 0.5317312
