MentorMix/checkpoint/MentorNet/MentorNet_Fold_3_Epoch_5.pt (torch, 6655 bytes, 7 tensors)

embedding_layer1.weight f4 [2, 2]
0	0x3f88d830	1.0690975
1	0xba0a0659	-0.0005265228
2	0x3f4efd47	0.8085522
3	0xbea6b1f4	-0.32557642

embedding_layer2.weight f4 [101, 5]
0	0xbf0d9cb4	-0.55317235
1	0x3fabd972	1.3425734
2	0xbf08e3e1	-0.53472716
3	0x400679dc	2.1011877
4	0xbf765763	-0.9622709
5	0x3f01f501	0.5076447
6	0x3d95df50	0.07317984
7	0xbf2f92d9	-0.68583447
8	0xbf44753d	-0.7674139
9	0xbeeefea9	-0.46678665
10	0x3ee5e231	0.44899133
11	0x3f93dd0b	1.1551832
12	0x3efee616	0.49784917
13	0xbff90fc6	-1.9457939
14	0x3f1c8cc2	0.6115228
15	0xbef5f8ac	-0.48041284
16	0x3f606f31	0.87669665
17	0xbf410b16	-0.7540754
18	0x3f5c4ac0	0.8605156
19	0xbf2d3f90	-0.67675114
20	0xbf2ddb2b	-0.6791255
21	0x3d9489cd	0.07252846
22	0x3dabbd5b	0.08385726
23	0x3f1c5ad1	0.61076075
24	0x3f095cab	0.53657025
25	0xbe350194	-0.17676383
26	0xbf1856cb	-0.59507436
27	0x3f83b5c9	1.0289851
28	0xbf8a609b	-1.0810732
29	0xbe38bc30	-0.18040538
30	0x3f2132fc	0.6296842
31	0xbcac9874	-0.021068789
32	0xbdf0dd13	-0.117609166
33	0xbfacc69d	-1.3498112
34	0x3fb8ad41	1.4427873
35	0xbf8eeab9	-1.1165382
36	0x3e13257a	0.14369765
37	0xbf22b21d	-0.6355303
38	0x3e98e54e	0.29862446
39	0x3ed59fd7	0.4172351
40	0x3fa10d95	1.258227
41	0x3f83b28a	1.0288861
42	0x3ffc2716	1.9699428
43	0xc00e26f9	-2.2211287
44	0xbfc91454	-1.5709329
45	0x3f973b44	1.1814961
46	0x3d975610	0.07389462
47	0xbf22cefc	-0.63597083
48	0x3ececaf2	0.4038921
49	0xbf3cd8a8	-0.7376809
50	0xc018f79f	-2.3901136
51	0xbf0151e0	-0.50515556
52	0xbf6c7638	-0.9236789
53	0x3ec77290	0.38954592
54	0xbf136965	-0.57582694
55	0x3f5b1f67	0.8559479
56	0xbe094b9d	-0.1340775
57	0x3fd3f5e7	1.6559418
58	0xbff380d8	-1.9023695
59	0xbed5bdc1	-0.41746333
60	0x3fdd0b4a	1.726907
61	0x3fc0d18a	1.5063946
62	0x3f884dcc	1.0648742
63	0xbe5a1d52	-0.21300247
64	0x3e2e59d8	0.1702646
65	0x3e65dfb8	0.22448623
66	0xbf5af119	-0.85524136
67	0x3fd7b153	1.685099
68	0xbe9d62d5	-0.30739465
69	0xbe6de9c7	-0.2323371
70	0x3ff5b004	1.9194341
71	0x3fe3af9e	1.7787969
72	0x3f0bad44	0.5456126
73	0x3f9879a0	1.1912117
74	0xbff9b82d	-1.9509331
75	0xbf51f70a	-0.82017577
76	0x3e48dab8	0.19614685
77	0x3f833416	1.025027
78	0x3fed9e57	1.8563946
79	0x3f49c1b3	0.78811187
80	0xbf7f55b8	-0.9974017
81	0x3f5a8577	0.853599
82	0x400a994e	2.165607
83	0x3ce40c12	0.027837787
84	0xbd98e536	-0.074655935
85	0x3f0566a8	0.52109766
86	0xbfca48a4	-1.5803418
87	0xc0353452	-2.8313184
88	0xbfd9fc57	-1.7030133
89	0xbfb25a49	-1.3933803
90	0xbfcbc1d8	-1.5918531
91	0x3c9f334f	0.019433646
92	0xbf66f0da	-0.9021126
93	0xbe03c302	-0.12867358
94	0x3f134dd2	0.5754062
95	0x3db81385	0.08988098
96	0x3d985621	0.07438303
97	0x40082ea9	2.127848
98	0xbee621a8	-0.44947553
99	0x3f7b5651	0.98178583
100	0x3fde08ae	1.7346399
101	0xbf17624c	-0.59134364
102	0xbee2fb3c	-0.44332302
103	0x3e6a1061	0.2285781
104	0x3f963c2f	1.1737117
105	0x3faad269	1.3345462
106	0x3f95eee0	1.1713524
107	0xbe68a0d2	-0.22717598
108	0x3d192ce1	0.037396315
109	0xbfe48444	-1.7852864
110	0xbedfe034	-0.4372574
111	0x3f9baf90	1.2162952
112	0xbee9ba93	-0.45650157
113	0xbf88e4be	-1.0694807
114	0x3f41203b	0.75439805
115	0x3f7bdbd6	0.9838232
116	0x3f141e01	0.5785828
117	0xbf483519	-0.7820602
118	0xbdf554a5	-0.11979035
119	0x3f33370e	0.7000588
120	0xbec1229f	-0.37721726
121	0xbe1b3d86	-0.15160188
122	0x3f706ca2	0.9391576
123	0x3f0de532	0.5542785
124	0x3edc6a97	0.43050072
125	0x3ebda8e4	0.37042916
126	0xbfa46692	-1.2843802
127	0x3f2976f2	0.6619712
128	0x3f5aff6a	0.8554598
129	0xbf3968b1	-0.7242537
130	0xbe322468	-0.173967
131	0xbebeb72c	-0.37249124
132	0x3d847bc2	0.064689174
133	0x3da77eb1	0.08178461
134	0xbfe7426a	-1.8067143
135	0xbebae68e	-0.36504024
136	0x3eae8d55	0.34092203
137	0xbf844557	-1.0333661
138	0xbee18774	-0.44048655
139	0x3f2bcbe3	0.6710798
140	0x3fdd301f	1.728031
141	0x3f9a43de	1.2051961
142	0x401295d1	2.290394
143	0x3fbfb636	1.4977481
144	0x3f60b2ea	0.87773
145	0x3e7daa59	0.24772014
146	0x3f503755	0.8133443
147	0xbdf643fd	-0.120246865
148	0xbe33d7f1	-0.17562844
149	0x3e99d822	0.3004771
150	0xbf5028fe	-0.8131255
151	0xbe51ba45	-0.20481212
152	0x4013af26	2.3075652
153	0xbeeaf7b1	-0.458921
154	0x3f7ae2b1	0.98002154
155	0x3ec0f76f	0.37688777
156	0xbedb1c51	-0.4279504
157	0xbf7ece40	-0.9953346
158	0xbf7bad06	-0.9831089
159	0xbe9fe595	-0.31229845
160	0xc011ce25	-2.278207
161	0xbd977bcf	-0.073966615
162	0x3e99553a	0.29947835
163	0xbe90ffb3	-0.28320083
164	0x3d7c4029	0.061584625
165	0xbfcdac68	-1.6068239
166	0xbf0bc2fa	-0.54594386
167	0xbeba67d8	-0.36407351
168	0x3e57be1d	0.21068616
169	0xbee76edd	-0.4520177
170	0xbf93475d	-1.1506153
171	0xbe5ec985	-0.21756561
172	0xbef8116f	-0.484508
173	0xbd32f120	-0.043686986
174	0xbf9c3798	-1.2204466
175	0x3f856535	1.0421511
176	0x400c2b1a	2.1901307
177	0x3d7ea606	0.06217005
178	0xbe0c98ac	-0.13730115
179	0x3af9ea6f	0.0019067059
180	0xbea18b60	-0.31551647
181	0x40203680	2.5033264
182	0xc00ede02	-2.2323003
183	0xbdd69e7e	-0.10479449
184	0xbf1c0e7a	-0.6095959
185	0x3f709e67	0.939917
186	0x3e9b919b	0.30384526
187	0xbf4fa2f1	-0.81108004
188	0xbf8d8109	-1.1055003
189	0xbf5b09a7	-0.85561603
190	0x3f788551	0.97078425
191	0x3de811d9	0.11331529
192	0x3eab8849	0.33502415
193	0xbf108d1f	-0.56465334
194	0xbefce39e	-0.49392408
195	0x3e35088b	0.1767904
196	0xbe800c5a	-0.25009423
197	0x3ecfe7ab	0.40606436
198	0xbfa3712e	-1.2768915
199	0x3f6a1b77	0.9144816
200	0x3f0448a9	0.5167337
201	0x3fcb2b39	1.5872566
202	0xbe8f0523	-0.27933607
203	0xbf4c2799	-0.7974792
204	0xbf5f2141	-0.87160116
205	0x3e0b3968	0.13596117
206	0xbf8fb286	-1.1226356
207	0x3eb8e3af	0.3611121
208	0x3f061720	0.52379036
209	0x3db8f761	0.09031559
210	0x3dc4c73d	0.09608314
211	0xbe3da088	-0.18518269
212	0x3dc66867	0.09687882
213	0xbf99d522	-1.2018168
214	0xbe90923a	-0.28236562
215	0x3ea1b4dd	0.315833
216	0xbf0b918f	-0.5451898
217	0x3e1e68d9	0.15469684
218	0x3f75ba01	0.95986944
219	0x3f058d86	0.5216907
220	0xbfc88c07	-1.5667733
221	0x3e5b9971	0.21445252
222	0x3f686056	0.90771997
223	0xbfc1f3d8	-1.515254
224	0xbf9d09c0	-1.22686
225	0x3e37f7a1	0.17965557
226	0x3fe94095	1.8222834
227	0xbdec8585	-0.11548904
228	0xbf1dbf9f	-0.61620516
229	0x3e37be48	0.1794368
230	0xbfe0451c	-1.752109
231	0xc0126e02	-2.2879643
232	0x3ff1d3b9	1.8892738
233	0x3f92118e	1.1411607
234	0xbfbba804	-1.4660649
235	0xbd8e97d1	-0.069625504
236	0xbff804b8	-1.937644
237	0x3e671499	0.22566451
238	0xbec3e3a6	-0.3825962
239	0x3ed59b24	0.41719925
240	0x3fac9499	1.3482848
241	0xbe0b5391	-0.13606097
242	0xbfb401ae	-1.4063013
243	0xbeafaff1	-0.3431392
244	0xbf5d2e8e	-0.8639916
245	0xbeb4865b	-0.35258755
246	0xbf09e9d2	-0.53872406
247	0xbf8cdb4e	-1.1004426
248	0xbf5a5764	-0.852896
249	0x3f996f4f	1.1987094
250	0xbdd54fd4	-0.10415617
251	0x3ea0313a	0.31287557
252	0x3f6b7002	0.91967785
253	0xbd7ae063	-0.061249148
254	0x3f42d5fe	0.76107776
255	0xc017256e	-2.3616595

rnn.weight_ih_l0 f4 [1, 2]
0	0xbe3c754a	-0.18404117
1	0xbf5b76d0	-0.8572817

rnn.weight_ih_l0_reverse f4 [1, 2]
0	0xbd9988e2	-0.074968114
1	0xbf10ff92	-0.5663997

fc1.weight f4 [20, 9]
0	0x3e996e5c	0.2996701
1	0xbec0c840	-0.3765278
2	0x3e81ecda	0.25376016
3	0xbe9a1dd9	-0.30100897
4	0xbd8c0082	-0.06836034
5	0x3eab0a7c	0.33406436
6	0xbe7a62fd	-0.24451824
7	0x3ef815d6	0.4845416
8	0x3ea5c6a6	0.3237812
9	0xbef34ae4	-0.47518075
10	0x3dcffdef	0.10155856
11	0xbdf517a2	-0.11967398
12	0x3dd56376	0.10419361
13	0xbeb98f00	-0.36241913
14	0x3e5bcbcd	0.21464463
15	0xbeabbd07	-0.33542654
16	0x3e6e8c86	0.23295793
17	0x3d6c3191	0.057664458
18	0x3ecfc63e	0.40580934
19	0xbe4fd897	-0.20297466
20	0xbeba0d5f	-0.36338326
21	0x3ed77ad3	0.42085895
22	0xbe66bc1a	-0.22532693
23	0xbdf7cb47	-0.12099319
24	0x3ef4171e	0.47673887
25	0x3e349d7d	0.17638202
26	0x3eb20967	0.34772798
27	0x3e7d4564	0.24733502
28	0x3e1093da	0.14118901
29	0x3b3a57df	0.0028433723
30	0xbecf53f3	-0.40493736
31	0xbd775d55	-0.060391743
32	0x3d46935b	0.048480373
33	0x3e914dbc	0.2837962
34	0xbec18889	-0.3779948
35	0x3e61749b	0.22017138
36	0x3e237214	0.15961486
37	0xbe9e5edf	-0.30931756
38	0xbeab32fd	-0.33437338
39	0x3da5c94e	0.080950364
40	0xbed4a73d	-0.41533843
41	0xbe38a34e	-0.18031046
42	0xbe6bd0e9	-0.23028912
43	0xbdeeecaf	-0.116662376
44	0xbd708a09	-0.05872539
45	0x3ea147a6	0.31499976
46	0xbee36fa5	-0.44421116
47	0xbdaff912	-0.08592428
48	0x3aff0450	0.0019456241
49	0x3ee2a18a	0.4426387
50	0xbc269b35	-0.01016884
51	0xbd2e9888	-0.042625934
52	0xbee19e9d	-0.44066325
53	0xbebad659	-0.3649166
54	0x3e70708d	0.23480435
55	0xbf0671d6	-0.5251745
56	0x3d81107b	0.063019715
57	0x3df351c0	0.11880827
58	0xbeaf188b	-0.34198412
59	0x3e28ebff	0.16496275
60	0xbe2db6e1	-0.16964294
61	0xbceaae4e	-0.028647568
62	0xbdb68007	-0.08911138
63	0x3ec6deb8	0.38841796
64	0x3ec3d0bf	0.38245198
65	0x3e9f7dfb	0.31150803
66	0x3e5d4d3e	0.21611497
67	0xbe22bbb8	-0.15891922
68	0xbcbafd86	-0.022825968
69	0x3d8a474b	0.06751879
70	0xbcaf45e3	-0.02139563
71	0xbe8eca43	-0.27888688
72	0xbed818e4	-0.4220649
73	0xbe0e1078	-0.1387347
74	0xbebe864b	-0.37211832
75	0xbe061a6f	-0.13096021
76	0xbd826362	-0.06366612
77	0xbe0adeb8	-0.13561523
78	0xbd10619d	-0.03524934
79	0xbeb8fb1d	-0.36129084
80	0xbee89416	-0.4542548
81	0xbe8af06d	-0.27136555
82	0x3ce072ab	0.027398428
83	0x3c449f6a	0.012000898
84	0xbb15bb16	-0.0022847108
85	0x3e87a6f5	0.26494566
86	0x3e290f37	0.1650971
87	0x3eab4874	0.33453715
88	0x3df6548f	0.12027847
89	0xbebc904a	-0.36828834
90	0xbd052f4f	-0.03251582
91	0x3e340a3b	0.17582028
92	0x3e990b6c	0.29891527
93	0x3e821e62	0.25413805
94	0x3cf0e993	0.029408252
95	0x3d985133	0.074373625
96	0xbd5a4342	-0.0532868
97	0xbe9d5c95	-0.30734697
98	0x3eee7f90	0.46581697
99	0x3e194787	0.14968692
100	0xbe92adc8	-0.2864821
101	0x3e0c6b48	0.137128
102	0x3e266669	0.16250004
103	0x3e300a71	0.17191483
104	0x3eb5bc69	0.35495308
105	0x3dd06b57	0.101767235
106	0xbd37bbaf	-0.044856723
107	0xbe55a271	-0.20862748
108	0xbe5db3b4	-0.21650583
109	0x3daec98b	0.08534535
110	0xbe60525a	-0.21906415
111	0x3ea59396	0.32339162
112	0xbdb13393	-0.08652415
113	0xbe89ee4d	-0.26939622
114	0x3d859459	0.06522436
115	0x3e2de58d	0.16982098
116	0x3eefb287	0.46815893
117	0xbe1af960	-0.15134192
118	0xbe415730	-0.18880916
119	0x3e9c158e	0.30485195
120	0xbebe0805	-0.37115493
121	0x3e1b2996	0.15152583
122	0xbf04458b	-0.51668614
123	0x3ebb91e5	0.36634746
124	0x3dfc5d66	0.12322502
125	0xbda7508a	-0.081696585
126	0xbe982578	-0.29716086
127	0xbc0862f8	-0.008324377
128	0xbe00e80e	-0.12588522
129	0x3e9685c4	0.2939893
130	0xbeec11f5	-0.4610745
131	0xbe109eaf	-0.14123033
132	0x3ddfd777	0.109297685
133	0x3eb4c767	0.35308382
134	0xbef1ed54	-0.4725138
135	0x3ded3d8e	0.11584006
136	0x3d14bf4c	0.036315247
137	0x3dfae3d8	0.12250489
138	0x3d4eeb65	0.05051746
139	0x3d48befa	0.049010254
140	0x3eb3e347	0.35134336
141	0x3e2cba91	0.16868044
142	0xbe67ff58	-0.22656
143	0x3e946123	0.2898036
144	0x3d347478	0.044056386
145	0x3e99a188	0.3000605
146	0xbe739800	-0.23788452
147	0xbeec01bb	-0.4609507
148	0x3e441cda	0.19151631
149	0xbd140f9c	-0.0361477
150	0xbe8dcd57	-0.27695724
151	0xbda6974f	-0.081343286
152	0xbe3beff9	-0.18353261
153	0xbee26f28	-0.4422543
154	0xba521403	-0.0008013846
155	0xbe8fee3c	-0.28111446
156	0xbeb6d649	-0.35710362
157	0x3ed5172c	0.4161924
158	0xbc770991	-0.015077964
159	0xbea6a5be	-0.32548326
160	0xbe30edcc	-0.17278212
161	0x3eb70aeb	0.35750517
162	0xbd1fa6eb	-0.038977545
163	0x3e616f04	0.22015005
164	0x3ecd10a5	0.4005176
165	0x3ec6ee0a	0.38853484
166	0x3eaf7a9f	0.3427324
167	0xbd40dc2b	-0.04708497
168	0xbeeb2904	-0.4592973
169	0x3d6af0c6	0.057358526
170	0x3e466ab8	0.19376647
171	0x3ebf40ed	0.37354222
172	0xbe899927	-0.26874658
173	0xbedf78d7	-0.4364688
174	0x3ec08445	0.37600914
175	0x3df98bee	0.121848926
176	0xbd4c2faf	-0.049850162
177	0x3ec7ee7a	0.3904913
178	0x3e8c7caf	0.27438876
179	0x3e279a03	0.16367345

fc1.bias f4 [20]
0	0xbca79e8a	-0.02046134
1	0xbcaaddb6	-0.020857673
2	0xbd1aced9	-0.03779492
3	0x3ac62e9f	0.0015120095
4	0x3d4e1d2c	0.05032079
5	0xbd807df3	-0.06274023
6	0x3b9fca48	0.0048764087
7	0xbd0aaf30	-0.033858478
8	0x3ce23eae	0.027617779
9	0x3b24b06e	0.0025129574
10	0x3db679aa	0.08909924
11	0xbd2d633a	-0.042330958
12	0x3d403e45	0.046934385
13	0x3c9d6010	0.019210845
14	0xba2f3ca1	-0.00066847546
15	0x3d1fe372	0.039035268
16	0xbb042054	-0.002016087
17	0xbca65369	-0.020303445
18	0xbc09a431	-0.008400963
19	0x3d019900	0.031640053

fc2.weight f4 [1, 20]
0	0x3f16350b	0.5867469
1	0x3dddeca9	0.10836155
2	0x3e61b8f8	0.22043216
3	0xbe876810	-0.2644658
4	0x3ebe65bd	0.37186995
5	0xbeb4a8ee	-0.35285133
6	0xbec39e5f	-0.38206765
7	0xbef8506a	-0.4849885
8	0xbf0da73a	-0.5533329
9	0xbf0109f1	-0.50405794
10	0x3d005724	0.031333104
11	0xbdb6be20	-0.08922982
12	0x3ddce270	0.10785377
13	0x3de1ca32	0.11024894
14	0xbe34c166	-0.176519
15	0x3e6052a8	0.21906531
16	0x3e5e2674	0.21694356
17	0x3ec2d118	0.3805015
18	0xbeb44e22	-0.3521586
19	0xbe86aaa8	-0.26302075
