MentorMix/checkpoint/MentorNet/MentorNet_Fold_1_Epoch_1.pt (torch, 6655 bytes, 7 tensors)

embedding_layer1.weight f4 [2, 2]
00000000: 8b38 263f a543 923e 4ba1 7c3d a70e 1f3f
0.6493003 0.28567234 0.06167726 0.6213173

embedding_layer2.weight f4 [101, 5]
00000000: 3d21 93bf c346 87bf e9d6 aa3f 3e52 33bf
00000010: 540c 17bf 942a 8c3e 8b00 77bf b278 71be
00000020: c22b 12bf 8800 5d3c 85ab 0cbf a671 81bf
00000030: ca8c b23f 8ce5 4e3f 1c97 0f3f 11c2 893f
00000040: 2ad7 e03e e8e9 953f 0f3b e23f 174d c3bd
00000050: 67b7 0e3e 530c cabf 6a28 a4be e343 99be
00000060: 8d66 4cbf dfe4 ab3e 84f8 8c3e ceaf db3f
00000070: b5f2 65bd c423 693f b339 b2bf 001a 2c40
00000080: 0cea f0bf a8cb 46bf 878c 0140 833c b1bd
00000090: fef4 c83d 5785 9bbf be2d 3b3f b3fd 953f
000000a0: ee0b 1a40 3ca0 8e3e ccac 7c3e 0498 973f
000000b0: 376c 3abf 2de6 943f 92ad 14bc aeab 57bf
000000c0: ca58 5c3e 8e31 06bf a1d4 e6bf 0f77 a7bf
000000d0: fc10 e83e 5632 923f ce93 7e3e 5540 e3bf
000000e0: 5005 8f3f 31a5 983e ac0b e13d 7176 25bf
000000f0: e569 db3e 1ef0 bc3f 16b8 e4bf e31e ce3f
00000100: 61d4 7b3f e618 613f 44a6 b9bf 4d11 97bf
00000110: e8e7 d13e 7220 d13e ef06 843e a929 8c3f
00000120: 48c7 a93f 0ccf 5a3f d7a0 8fbe 4834 333f
00000130: 3a76 babf 98f1 cd3f 790a c03d 753f a1bf
00000140: 3232 01bf d5be bcbf 40e3 aebe 74bb 99be
00000150: 535d a73f 97d6 94bf c703 f53d f30c 27be
00000160: 07b9 6cbf 1c1b 6ebf ff0e b73f 9c6f d73e
00000170: 2126 b5be b990 433f 79c5 16bf 1e7b 43bf
00000180: 5a94 1d3f 4879 463e 6053 25c0 f29b 5a3f
00000190: 8d8f 9f3f f576 013f b454 733f 92f8 a53f
000001a0: 51eb cebd 10cc af3e ddfe 88bf b6cf 5fbf
000001b0: 8c7e bbbf a3a7 a1bf 509e 8f3f a37d c83f
000001c0: 510e 213e b681 a03f 15ec a93f d4a5 fdbe
000001d0: f759 c63f 76fc b13e fe7a be3d 9f5f 1d3f
000001e0: d208 25bf 9ef4 92be d48e 5440 dbda cdbe
000001f0: 9a56 36bf 93ba 1ebf 359c 69be e70d 4abf
00000200: 3dc0 84bf 5990 88bf 0e82 55be edb1 5cbe
00000210: 9c82 8a3e f947 0f3f d704 a3be 1080 c13f
00000220: 9ea9 c2bf 4b69 6b3f d260 0cbf 79c9 b1be
00000230: 9d58 3fbf 7866 6cbf 3dca 123f 6cd8 dfbd
00000240: 39ea 413f f642 d0be 44cc 02be 1c8c 8f3e
00000250: 686c 193d 7049 23bf d093 50bf 8083 30bf
00000260: 9441 453f df75 89bf f658 4ebe 3a6d 0fbf
00000270: 8484 2e3f 695a 04bf 2d26 e53f f771 163f
00000280: 4a3d 803e 2f04 4bbf f3e9 053f 1d9f 9c3f
00000290: 941f 72bf 472c adbf 328f 5840 9de1 19c0
000002a0: ab3a c7be 8305 a3bd b1ae 423f 7e52 80bf
000002b0: 4338 723f b5d0 b33e 1053 c93f e1f8 db3f
000002c0: 6b7b 73bd ee7b 1fc0 7a13 783e 389d 933e
000002d0: 3f4a e0bd 0d09 a03e 5a7c c03f 1ff7 003f
000002e0: 0851 1f3f 2672 e5be 8c40 92be 0da5 c63e
000002f0: 1c5d 92bf 0ab7 26bf a147 d3bd 2c96 313f
00000300: a57e 99bf 7538 42bd 5930 00c0 ce98 fbbe
00000310: 91b3 da3f 1091 4a3f fbf1 823f 09e2 7b3f
00000320: bc8b 35bf 0bb8 06bf f557 8dbf 060f 33bf
00000330: e0d7 0e3f f2e7 67bf 1b07 dfbe 8d9c 18bf
00000340: f369 90bd 49a7 b13e 8c57 27bf de80 c73f
00000350: 62d6 cc3e 574e 1c40 a280 c3be b384 dd3e
00000360: 711b 01c0 69d5 d83e 91b1 123f 4aeb e5bf
00000370: f9be 9cbe 182e d7be 0acc 903e 6c7d ba3e
00000380: 4f0e 2940 e85f 76bf 2e8d 54be bdc7 b1bf
00000390: f5ed 4f3c 2acd efbf f95d e63f d994 903e
000003a0: 7188 d43f 7921 8b3e f106 4fbf 93c3 013e
000003b0: db17 123f d206 0abe 9bfb af3e a35c be3e
000003c0: a1de 133e 83f4 463f a3a3 15c0 3c41 54bf
000003d0: 0c44 953f a644 bd3f 0304 893e 1291 413f
000003e0: a95b 16bf 82f6 03c0 0567 dc3e 54e1 ac3e
000003f0: a204 b0be 8702 1ebf 4c61 a03f 139b 52bd
-1.1494519 -1.056847 1.3346835 -0.70047367 -0.59003186 0.27376235 -0.96485204 -0.23581198
-0.5709802 0.013488896 -0.5494922 -1.0112808 1.3949215 0.8081901 0.5608995 1.0762349
0.43914157 1.1712008 1.7674273 -0.09536188 0.1393715 -1.5785011 -0.32062083 -0.29934606
-0.7984398 0.33573052 0.27533352 1.7163026 -0.056139667 0.910702 -1.3923858 2.689087
-1.8821425 -0.77654505 2.024202 -0.0865412 0.098123536 -1.2150067 0.7311667 1.1718048
2.4069781 0.27856624 0.24675292 1.1843266 -0.7282137 1.1632744 -0.0090745855 -0.8424634
0.21518245 -0.52419364 -1.8033639 -1.3083209 0.45325458 1.1421611 0.2486107 -1.7754008
1.1173496 0.2981353 0.10988554 -0.6463385 0.4285423 1.4760778 -1.7868679 1.6103176
0.9837094 0.87928617 -1.4503865 -1.1802155 0.40997243 0.40845066 0.2578654 1.0950214
1.3263941 0.8547218 -0.280524 0.7000165 -1.456733 1.6089354 0.093769975 -1.259749
-0.50467217 -1.4745737 -0.34157753 -0.30025828 1.3075355 -1.1627988 0.11963611 -0.16313533
-0.9246983 -0.93010116 1.4301451 0.4207734 -0.35380653 0.76392704 -0.5889507 -0.76359737
0.6155449 0.19382203 -2.5832138 0.85394204 1.2465683 0.5057214 0.9505112 1.2966483
-0.10103477 0.34335375 -1.0702778 -0.87426317 -1.4647994 -1.2629284 1.1220188 1.5663341
0.15728118 1.2539585 1.3275172 -0.4954058 1.5496205 0.34762925 0.09300803 0.6147403
-0.64466584 -0.28702253 3.3212175 -0.40206036 -0.71225893 -0.6200344 -0.22813495 -0.78927463
-1.0371166 -1.0669051 -0.20850393 -0.21552248 0.27052772 0.55969197 -0.3183963 1.5117207
-1.5208013 0.9195754 -0.54835236 -0.34724024 -0.7474459 -0.92343855 0.5733984 -0.10929951
0.7574802 -0.40676087 -0.12773234 0.28036582 0.0374569 -0.6378393 -0.81475544 -0.68950653
0.7705319 -1.0739096 -0.20151123 -0.5602604 0.6817095 -0.51700455 1.7902275 0.58767647
0.2504676 -0.7930326 0.52310103 1.2236058 -0.94579434 -1.3529137 3.38374 -2.4043953
-0.38911948 -0.07960036 0.7604781 -1.0025175 0.946171 0.35120168 1.5728474 1.7185327
-0.059443872 -2.491939 0.2422618 0.28830886 -0.10951661 0.31256905 1.5037949 0.50377077
0.6223302 -0.4481365 -0.2856487 0.387978 -1.1434665 -0.65123045 -0.103163965 0.6936977
-1.1991774 -0.047417123 -2.002951 -0.49140018 1.7086049 0.791276 1.0230097 0.9839178
-0.7091634 -0.5262458 -1.1042467 -0.699448 0.5579815 -0.90588295 -0.4356011 -0.5961388
-0.07051458 0.3469794 -0.6536796 1.5586202 0.4000731 2.4422815 -0.38184077 0.43265304
-2.0173 0.4235032 0.57302195 -1.796243 -0.3061445 -0.42027354 0.2828067 0.36423814
2.6414983 -0.9624009 -0.20756981 -1.388908 0.012691011 -1.8734486 1.7997428 0.28238562
1.6604139 0.27173975 -0.80869967 0.12672262 0.5706765 -0.13479164 0.34371647 0.3718005
0.14440395 0.77716845 -2.3381126 -0.8291204 1.1661391 1.4786575 0.26760873 0.75611985
-0.5873361 -2.0619206 0.43047348 0.33765662 -0.34378535 -0.61722606 1.2529693 -0.05141742

rnn.weight_ih_l0 f4 [1, 2]
00000000: 8db3 18bf 1f4f 6d3e
-0.5964897 0.23174714

rnn.weight_ih_l0_reverse f4 [1, 2]
00000000: 0582 1fbe 3577 42bf
-0.15576942 -0.75963145

fc1.weight f4 [20, 9]
00000000: 1fe7 b63e 9004 dbbe a3a4 ba3e 31e8 063d
00000010: e99e 593e 3d62 bb3e fa21 1abe 3fb3 cfbe
00000020: 30ce 0e3e 7076 e8be d19e bf3e c1f4 943d
00000030: 3b25 91be 15d8 943d 3dd0 1d3e e80d 26be
00000040: 1dc6 633e d411 b73c 279a abbe 3438 463e
00000050: 1c74 203e 7965 4f3e 8e37 38bd e9fd c3be
00000060: 16e2 6abd 9d74 8abd d9c2 d9be 6ff7 63be
00000070: 3e0a 533e 8aba df3e 7acd 8ebe 8ee4 06be
00000080: d1c4 14be aafe 04be 741a 4fbe b0a9 f1be
00000090: a155 1dbd 6938 c93e abfb 7fbe ddb5 b1be
000000a0: 51ec aebe 84c3 a2be c6ad c13e ac2d 96be
000000b0: 2865 bfbe d243 053e 1b29 5fbe e0cc aabd
000000c0: f507 c7be 5158 3fbe b6e0 a83e 5eb4 e9be
000000d0: 9ef3 a7be 2582 623e 52b4 a23d 18bb fabb
000000e0: 0b65 d43e 9fe6 c83d 529b 60bd e275 a6be
000000f0: 9e53 a13e 2bb6 44bd acb4 81be aace c8bd
00000100: 56df fbbd b1e9 47be c4ef d13e 0839 c83e
00000110: 008b b4be 0883 8abe 46c2 bf3d ea6c 6ebe
00000120: 72ec e4bd 20f0 70be 2dfb 23be 22fa 483d
00000130: 6350 b63e 9def 5c3e 2e6c 413e 93bb abbe
00000140: dd1e 0b3e 3ffe d0bd 4cf6 8b3e bcaa 9b3e
00000150: bed9 7c3d c7a8 943e 7e31 e3be 3f07 9cbe
00000160: a71f d5be fec8 bdbe f3e7 67be e93d 463c
00000170: 7446 91be 65c7 083e 86af 6bbd 8d1f 033e
00000180: 2091 b53e 6939 7e3e 82f5 503e 4fcb 59be
00000190: 2203 d7be c0e7 c9be 6fed cabe cc88 18be
000001a0: 2ea4 b13e eb83 e23e 661d bb3e 1cdd b63e
000001b0: 9c52 00be ff34 03be b82f 76bd 1a0b c23c
000001c0: b2d7 e2be 0840 73be 2fd1 5cbe 6539 c0bd
000001d0: 86c4 a23d 4f24 cebe 5b82 99be ad8d f83d
000001e0: 8908 bdbe d4f4 843e 70e1 9ebe 43d3 67be
000001f0: 0ce8 aabd f570 c63e 890b 243e ba50 8ebd
00000200: f060 023e cb15 20bc d6ac 8bba 00c5 af3d
00000210: 5c00 b73e 8470 d23e 6dde 873e c51a 82be
00000220: bc05 81bc 73c1 d53d 9d19 64be faef 153c
00000230: 2d80 17be e930 01be e102 043e 252f 82be
00000240: 3a0b 2abe 822f 03be 1e46 c53d 489e 10bd
00000250: e6b7 753e 93b4 023e 247e ce3e 5a1a b6be
00000260: f348 123e be11 b8be 69a1 d53e e03f 833e
00000270: 4739 79bd 6291 613e d156 a5bd 82f7 b2be
00000280: df3a 633e 9ea9 753e 2c9e 01be ba6a 533e
00000290: 782f c83e 2de2 eb3e 472a 33bd 1af3 e23d
000002a0: db6d cc3e 2456 fb3d 353c e2bc 56d8 adbe
000002b0: 7517 b8be 0d44 07be 445b 443e 3a23 e93d
000002c0: cdc5 7fbe 4db3 a2be 1798 c03e e0fa 9e3e
0.35723206 -0.42776918 0.36453733 0.03293628 0.21252026 0.36598387 -0.15052024 -0.4056644
0.13945842 -0.4540286 0.37425855 0.072732456 -0.28348717 0.07267777 0.15411468 -0.16216242
0.22243543 0.022347368 -0.33516046 0.19357377 0.15669292 0.20253552 -0.044974856 -0.38279656
-0.05734452 -0.067605235 -0.4253147 -0.22262357 0.20609376 0.43697006 -0.2789114 -0.13173124
-0.14528205 -0.12987772 -0.20224935 -0.47199774 -0.03841174 0.3930085 -0.24998347 -0.34709063
-0.3416467 -0.31789792 0.3782789 -0.2933172 -0.37381864 0.13014153 -0.21793024 -0.08339858
-0.38873258 -0.18686034 0.3298394 -0.45645422 -0.32803053 0.22119959 0.079445496 -0.007651698
0.4148334 0.098096125 -0.054835625 -0.32511812 0.31509107 -0.04802529 -0.25333154 -0.09805043
-0.12298457 -0.1952274 0.4100324 0.3910601 -0.352623 -0.27053094 0.093632266 -0.23283735
-0.11177911 -0.235291 -0.16013785 0.04906667 0.35608205 0.2157578 0.18888924 -0.33541545
0.13585992 -0.102047436 0.27336347 0.30403697 0.061731093 0.29035017 -0.44373697 -0.30474278
-0.4162571 -0.37067407 -0.22647075 0.0120997215 -0.28374064 0.13357313 -0.05754044 0.12805004
0.35462284 0.24826588 0.20406154 -0.21268962 -0.41994578 -0.39434624 -0.39634272 -0.14895934
0.34695572 0.4424127 0.36545867 0.35715568 -0.12531513 -0.12813185 -0.060104102 0.023686934
-0.44305187 -0.23754895 -0.21564172 -0.09385947 0.0794764 -0.40262076 -0.29982266 0.121363975
-0.36920574 0.2596804 -0.3103137 -0.22639184 -0.08345041 0.38758054 0.16020025 -0.06948991
0.12732291 -0.009770821 -0.0010656368 0.08582497 0.35742462 0.41101468 0.26536885 -0.2541105
-0.015749805 0.10437288 -0.22275396 0.009151453 -0.14794989 -0.12616314 0.12891723 -0.25426593
-0.16605845 -0.12811092 0.096325144 -0.0353072 0.23995933 0.12764196 0.40330613 -0.3556698
0.1428564 -0.35951036 0.4172471 0.2563467 -0.06084564 0.22028115 -0.080731995 -0.34954458
0.22190426 0.23990485 -0.12657994 0.20646182 0.39098716 0.46070996 -0.04374149 0.11081524
0.39927563 0.122722894 -0.0276166 -0.33954114 -0.35955396 -0.13209553 0.1917544 0.11383672
-0.24977799 -0.3177742 0.37616035 0.31050777

fc1.bias f4 [20]
00000000: 536b 0f3b b67e 8fbc 84ed 963c 7479 91bc
00000010: a638 963c c16f 8e3c 62ea e1ba 0971 a13c
00000020: 4c0d 8d3c 4656 953c ec7d 953c 2c1b 97bc
00000030: b286 91bc a40e 563c 71e1 92bc a901 96bc
00000040: 3bfd dc3b 132c 8dbc 28d2 92bc f346 8d3c
0.0021884039 -0.017516475 0.018423803 -0.017758109 0.018337559 0.017387273 -0.0017235989 0.01970722
0.017218255 0.018229615 0.01824852 -0.018445574 -0.017764423 0.013065014 -0.017929764 -0.018311338
0.0067440546 -0.01723293 -0.017922476 0.017245745

fc2.weight f4 [1, 20]
00000000: 9d44 2a3e 33ae 89be cc92 5b3e 7b84 3ebe
00000010: 07d6 d43e 97f4 103e 15e9 edbe 7f44 9b3c
00000020: f3ee 663d 238f d13e 42b7 b53e b3f1 b4be
00000030: 9121 c5be 411b b43e d8da 9ebd 3471 c0be
00000040: 0c62 993e 95e1 97be 333c fcbd c910 883d
0.16627736 -0.26890716 0.21442717 -0.18605225 0.4156954 0.14155804 -0.4646689 0.01895356
0.056380223 0.40929517 0.35491377 -0.35340652 -0.38502172 0.35177043 -0.07756585 -0.37586367
0.29957616 -0.29664293 -0.123161696 0.066438265
