MentorMix/checkpoint/MentorNet/MentorNet_Fold_3_Epoch_8.pt (torch, 6655 bytes, 7 tensors)

embedding_layer1.weight f4 [2, 2]
000000 36 f8 84 3f 2e 33 56 bc 47 fd 4e 3f f4 b1 a6 be
       1.0388248 -0.013073726 0.8085522 -0.32557642

embedding_layer2.weight f4 [101, 5]
000000 d2 9c 0d bf 81 d9 ab 3f c3 e3 08 bf d7 79 06 40
       -0.55317414 1.3425752 -0.53472537 2.1011865
000010 45 57 76 bf 01 f5 01 3f 50 df 95 3d d9 92 2f bf
       -0.9622691 0.5076447 0.07317984 -0.68583447
000020 3d 75 44 bf a9 fe ee be 31 e2 e5 3e 0b dd 93 3f
       -0.7674139 -0.46678665 0.44899133 1.1551832
000030 16 e6 fe 3e c6 0f f9 bf c2 8c 1c 3f ac f8 f5 be
       0.49784917 -1.9457939 0.6115228 -0.48041284
000040 31 6f 60 3f 16 0b 41 bf c0 4a 5c 3f 90 3f 2d bf
       0.87669665 -0.7540754 0.8605156 -0.67675114
000050 2b db 2d bf cd 89 94 3d 5b bd ab 3d d1 5a 1c 3f
       -0.6791255 0.07252846 0.08385726 0.61076075
000060 ab 5c 09 3f 94 01 35 be cb 56 18 bf c9 b5 83 3f
       0.53657025 -0.17676383 -0.59507436 1.0289851
000070 9b 60 8a bf 30 bc 38 be fc 32 21 3f 74 98 ac bc
       -1.0810732 -0.18040538 0.6296842 -0.021068789
000080 13 dd f0 bd 9d c6 ac bf 41 ad b8 3f b9 ea 8e bf
       -0.117609166 -1.3498112 1.4427873 -1.1165382
000090 7a 25 13 3e 1d b2 22 bf 4e e5 98 3e d7 9f d5 3e
       0.14369765 -0.6355303 0.29862446 0.4172351
0000a0 95 0d a1 3f 8a b2 83 3f 16 27 fc 3f f9 26 0e c0
       1.258227 1.0288861 1.9699428 -2.2211287
0000b0 54 14 c9 bf 44 3b 97 3f 10 56 97 3d fc ce 22 bf
       -1.5709329 1.1814961 0.07389462 -0.63597083
0000c0 f2 ca ce 3e a8 d8 3c bf 49 f7 18 c0 88 50 01 bf
       0.4038921 -0.7376809 -2.390093 -0.50513506
0000d0 1c 75 6c bf 11 70 c7 3e 0d 68 13 bf 67 1f 5b 3f
       -0.92366195 0.38952687 -0.57580644 0.8559479
0000e0 9d 4b 09 be e7 f5 d3 3f d8 80 f3 bf c1 bd d5 be
       -0.1340775 1.6559418 -1.9023695 -0.41746333
0000f0 4a 0b dd 3f 8a d1 c0 3f cc 4d 88 3f 52 1d 5a be
       1.726907 1.5063946 1.0648742 -0.21300247
000100 d8 59 2e 3e b8 df 65 3e 19 f1 5a bf 53 b1 d7 3f
       0.1702646 0.22448623 -0.85524136 1.685099
000110 d5 62 9d be c7 e9 6d be 04 b0 f5 3f 9e af e3 3f
       -0.30739465 -0.2323371 1.9194341 1.7787969
000120 44 ad 0b 3f a0 79 98 3f 2d b8 f9 bf 0a f7 51 bf
       0.5456126 1.1912117 -1.9509331 -0.82017577
000130 b8 da 48 3e 16 34 83 3f 57 9e ed 3f b3 c1 49 3f
       0.19614685 1.025027 1.8563946 0.78811187
000140 b8 55 7f bf 77 85 5a 3f 4e 99 0a 40 12 0c e4 3c
       -0.9974017 0.853599 2.165607 0.027837787
000150 36 e5 98 bd a8 66 05 3f a4 48 ca bf 52 34 35 c0
       -0.074655935 0.52109766 -1.5803418 -2.8313184
000160 57 fc d9 bf 49 5a b2 bf d8 c1 cb bf 4f 33 9f 3c
       -1.7030133 -1.3933803 -1.5918531 0.019433646
000170 da f0 66 bf 02 c3 03 be d2 4d 13 3f 85 13 b8 3d
       -0.9021126 -0.12867358 0.5754062 0.08988098
000180 21 56 98 3d a9 2e 08 40 a8 21 e6 be 51 56 7b 3f
       0.07438303 2.127848 -0.44947553 0.98178583
000190 ab 03 de 3f 41 6d 17 bf 8a 0f e3 be 37 e8 69 3e
       1.7344869 -0.59151083 -0.44347793 0.22842489
0001a0 aa 38 96 3f 69 d2 aa 3f e0 ee 95 3f d2 a0 68 be
       1.1736042 1.3345462 1.1713524 -0.22717598
0001b0 e1 2c 19 3d 44 84 e4 bf 34 e0 df be 90 af 9b 3f
       0.037396315 -1.7852864 -0.4372574 1.2162952
0001c0 93 ba e9 be be e4 88 bf 3b 20 41 3f d6 db 7b 3f
       -0.45650157 -1.0694807 0.75439805 0.9838232
0001d0 01 1e 14 3f 19 35 48 bf a5 54 f5 bd 0e 37 33 3f
       0.5785828 -0.7820602 -0.11979035 0.7000588
0001e0 9f 22 c1 be 86 3d 1b be a2 6c 70 3f 32 e5 0d 3f
       -0.37721726 -0.15160188 0.9391576 0.5542785
0001f0 97 6a dc 3e e4 a8 bd 3e 92 66 a4 bf f2 76 29 3f
       0.43050072 0.37042916 -1.2843802 0.6619712
000200 6a ff 5a 3f b1 68 39 bf 68 24 32 be 2c b7 be be
       0.8554598 -0.7242537 -0.173967 -0.37249124
000210 c2 7b 84 3d b1 7e a7 3d 6a 42 e7 bf 8e e6 ba be
       0.064689174 0.08178461 -1.8067143 -0.36504024
000220 55 8d ae 3e 57 45 84 bf 74 87 e1 be e3 cb 2b 3f
       0.34092203 -1.0333661 -0.44048655 0.6710798
000230 1f 30 dd 3f de 43 9a 3f d1 95 12 40 36 b6 bf 3f
       1.728031 1.2051961 2.290394 1.4977481
000240 ea b2 60 3f 59 aa 7d 3e 55 37 50 3f fd 43 f6 bd
       0.87773 0.24772014 0.8133443 -0.120246865
000250 f1 d7 33 be 22 d8 99 3e 64 ba 4f bf 4f 46 53 be
       -0.17562844 0.3004771 -0.81143785 -0.2063229
000260 c2 95 13 40 2f 32 ea be 19 81 7a 3f 6f f7 c0 3e
       2.3060155 -0.45741412 0.9785324 0.37688777
000270 51 1c db be 40 ce 7e bf 06 ad 7b bf 95 e5 9f be
       -0.4279504 -0.9953346 -0.9831089 -0.31229845
000280 25 ce 11 c0 cf 7b 97 bd 3a 55 99 3e b3 ff 90 be
       -2.278207 -0.073966615 0.29947835 -0.28320083
000290 29 40 7c 3d 68 ac cd bf fa c2 0b bf d8 67 ba be
       0.061584625 -1.6068239 -0.54594386 -0.36407351
0002a0 1d be 57 3e dd 6e e7 be 5d 47 93 bf 85 c9 5e be
       0.21068616 -0.4520177 -1.1506153 -0.21756561
0002b0 6f 11 f8 be 20 f1 32 bd 98 37 9c bf 35 65 85 3f
       -0.484508 -0.043686986 -1.2204466 1.0421511
0002c0 1a 2b 0c 40 06 a6 7e 3d ac 98 0c be 6f ea f9 3a
       2.1901307 0.06217005 -0.13730115 0.0019067059
0002d0 60 8b a1 be 80 36 20 40 02 de 0e c0 7e 9e d6 bd
       -0.31551647 2.5033264 -2.2323003 -0.10479449
0002e0 7a 0e 1c bf 67 9e 70 3f 9b 91 9b 3e f1 a2 4f bf
       -0.6095959 0.939917 0.30384526 -0.81108004
0002f0 09 81 8d bf a7 09 5b bf 51 85 78 3f d9 11 e8 3d
       -1.1055003 -0.85561603 0.97078425 0.11331529
000300 49 88 ab 3e 1f 8d 10 bf 9e e3 fc be 8b 08 35 3e
       0.33502415 -0.56465334 -0.49392408 0.1767904
000310 5a 0c 80 be ab e7 cf 3e 2e 71 a3 bf 77 1b 6a 3f
       -0.25009423 0.40606436 -1.2768915 0.9144816
000320 4f 31 ff 3e 60 27 c9 3f d3 44 96 be 6c a2 48 bf
       0.49842307 1.5715141 -0.29349384 -0.78372836
000330 05 15 63 bf 68 39 0b 3e 86 b2 8f bf af e3 b8 3e
       -0.8870395 0.13596117 -1.1226356 0.3611121
000340 20 17 06 3f 61 f7 b8 3d 3d c7 c4 3d 88 a0 3d be
       0.52379036 0.09031559 0.09608314 -0.18518269
000350 67 68 c6 3d 22 d5 99 bf 3a 92 90 be dd b4 a1 3e
       0.09687882 -1.2018168 -0.28236562 0.315833
000360 8f 91 0b bf d9 68 1e 3e 01 ba 75 3f 86 8d 05 3f
       -0.5451898 0.15469684 0.95986944 0.5216907
000370 07 8c c8 bf 71 99 5b 3e 56 60 68 3f d8 f3 c1 bf
       -1.5667733 0.21445252 0.90771997 -1.515254
000380 c0 09 9d bf a1 f7 37 3e 95 40 e9 3f 85 85 ec bd
       -1.22686 0.17965557 1.8222834 -0.11548904
000390 9f bf 1d bf 48 be 37 3e 1c 45 e0 bf 02 6e 12 c0
       -0.61620516 0.1794368 -1.752109 -2.2879643
0003a0 b9 d3 f1 3f 8e 11 92 3f 04 a8 bb bf d1 97 8e bd
       1.8892738 1.1411607 -1.4660649 -0.069625504
0003b0 b8 04 f8 bf 99 14 67 3e a6 e3 c3 be 24 9b d5 3e
       -1.937644 0.22566451 -0.3825962 0.41719925
0003c0 99 94 ac 3f 91 53 0b be ae 01 b4 bf f1 af af be
       1.3482848 -0.13606097 -1.4063013 -0.3431392
0003d0 8e 2e 5d bf 5b 86 b4 be d2 e9 09 bf 4e db 8c bf
       -0.8639916 -0.35258755 -0.53872406 -1.1004426
0003e0 64 57 5a bf 4f 6f 99 3f 90 66 25 be 5b 16 85 3e
       -0.852896 1.1987094 -0.16152406 0.25993618
0003f0 50 14 5d 3f f8 62 28 bd b0 13 35 3f 6e 25 17 c0
       0.8635912 -0.04111001 0.70733166 -2.3616595

rnn.weight_ih_l0 f4 [1, 2]
000000 82 f2 7f be 5d 4d 6b bf
       -0.24994853 -0.9191492

rnn.weight_ih_l0_reverse f4 [1, 2]
000000 7c 71 eb bd 16 b7 1b bf
       -0.11496255 -0.6082624

fc1.weight f4 [20, 9]
000000 79 22 99 3e 5d 4e bd be 06 89 66 3e 6c a9 96 be
       0.29909113 -0.3697385 0.22513208 -0.29426134
000010 f3 a7 25 bd 79 12 a6 3e b3 8d 82 be c5 43 05 3f
       -0.040443372 0.3243597 -0.25498733 0.52056533
000020 6c 6b b8 3e ba 77 e2 be f4 10 b3 3d 84 8c d0 bd
       0.36019456 -0.4423197 0.08743468 -0.10183051
000030 78 27 f1 3d 76 f1 c4 be 56 1f 60 3e 35 bd 9f be
       0.11775106 -0.3846547 0.21886954 -0.3119904
000040 10 f6 87 3e bc 31 be 3d 92 9e c3 3e 26 fb 45 be
       0.26554918 0.0928683 0.38206917 -0.19334087
000050 77 1e c1 be 04 40 d5 3e 1c 2c 4f be a9 88 ff bd
       -0.37718555 0.41650403 -0.2023167 -0.12477238
000060 2a 0c e8 3e 46 2c 61 3e f4 29 c8 3e 15 fe 4a 3e
       0.4532178 0.21989545 0.39094508 0.19823487
000070 01 0f 26 3e b0 58 d4 bc 9b 18 d7 be dd c1 48 bd
       0.16216661 -0.025921196 -0.4201096 -0.049013007
000080 c4 57 16 3d f4 d5 74 3e 2f 48 d4 be 81 cf 38 3e
       0.036704794 0.23909742 -0.41461322 0.18047906
000090 90 aa 43 3e 71 4f a1 be 86 69 a5 be 5d 13 c3 3d
       0.19108033 -0.3150592 -0.3230707 0.09525178
0000a0 f7 f8 d1 be 46 7a 3c be 21 e7 5d be 4d 41 af bd
       -0.41010258 -0.18406019 -0.216702 -0.08557377
0000b0 02 39 d9 bc 9c 56 9d 3e ee 05 e8 be 30 ee 49 bd
       -0.026516441 0.3073014 -0.45317024 -0.04929942
0000c0 49 a4 3e bc 71 4a c4 3e 13 7c ca 3b be 2b fb bc
       -0.011635848 0.38338044 0.0061793416 -0.030660506
0000d0 37 a1 f2 be fe d7 cb be a0 2a 43 3e 04 db 00 bf
       -0.47388622 -0.39813226 0.19059229 -0.5033419
0000e0 66 43 34 3d d4 c0 c8 3d 83 91 a8 be 3b c4 22 3e
       0.04400959 0.09802404 -0.32923517 0.15895168
0000f0 b7 7b 4c be 6d a0 89 bd f1 1f 04 be eb 89 b1 3e
       -0.19969068 -0.06720052 -0.1290281 0.34675536
000100 a4 01 cd 3e 23 df 98 3e 7b 0b 48 3e 4b 2f 1e be
       0.40040314 0.2985774 0.1953563 -0.15447728
000110 26 af da bc 6f ec 0f 3d 60 96 31 bd 4c 01 9b be
       -0.026694845 0.03513759 -0.0433563 -0.30274427
000120 c5 2d cc be 1e 33 17 be 8b c0 ad be 59 40 00 be
       -0.3987867 -0.14765593 -0.3393596 -0.12524547
000130 07 65 c5 bd cb a5 05 be e4 94 88 bc 51 48 c9 be
       -0.0963841 -0.13051526 -0.01667256 -0.39312986
000140 5a 86 f8 be 58 7b 94 be 48 1f f9 3c dd 62 94 3c
       -0.48540002 -0.29000354 0.030410424 0.018113548
000150 ab 87 50 bc b6 10 7c 3e 86 0d 2e 3e 0f ec a4 3e
       -0.012727658 0.2461575 0.16997346 0.32211348
000160 db 6a a4 3d 9b 59 d1 be 2c 72 bb 3a e3 09 2e 3e
       0.080281936 -0.40888676 0.0014300994 0.16995959
000170 6f c8 89 3e 3d 0b 8e 3e b5 d9 5c 3d eb 78 5b 3d
       0.2691073 0.2774295 0.05391856 0.053582113
000180 ab 8a 08 bd 56 b3 74 be 52 df 08 3f 3f 6e cd 3d
       -0.03333537 -0.23896536 0.5346576 0.100307934
000190 d1 70 86 be 4d 9e e1 3d 22 56 0c 3e 57 22 39 3e
       -0.26257947 0.110165216 0.13704732 0.18079506
0001a0 ff 2e ae 3e ad 1d 89 3d 1b ba ca bd b2 30 87 be
       0.3402023 0.06695113 -0.09898778 -0.2640434
0001b0 d4 1b 2e be ad 4b 79 3d 2c 3a 3c be cc 6b ae 3e
       -0.17002803 0.060863186 -0.18381566 0.34066617
0001c0 aa 8b d3 bd ea d6 77 be 05 db da 3d bd 82 60 3e
       -0.10329373 -0.24203077 0.10686306 0.21924873
0001d0 bb ef 04 3f 93 42 f2 bd 96 64 48 be b7 3c 9e 3e
       0.519283 -0.11829104 -0.1956962 0.30905697
0001e0 54 cb b2 be 30 3c 25 3e 27 4c 07 bf 31 c6 c2 3e
       -0.34920752 0.16136241 -0.52850574 0.38041833
0001f0 6e f4 4b 3e 93 7a f8 bb ec b1 a9 be 84 59 11 3c
       0.19917461 -0.0075829714 -0.33143556 0.00887144
000200 6b fe 0d be 2a 39 8d 3e 4b 58 e7 be 43 d1 0f be
       -0.13866584 0.27582675 -0.4518455 -0.14044671
000210 38 cf b9 3d d8 97 a3 3e c6 c6 01 bf 5a dc 0c 3e
       0.09072727 0.31951785 -0.5069393 0.13755932
000220 dc c6 08 3d f2 ac fd 3d fb 8b 89 3d c0 c1 69 3d
       0.033392772 0.12386502 0.06716152 0.05706954
000230 db f2 af 3e 9c a3 34 3e 2a b4 48 be 9d 61 a4 3e
       0.34364972 0.17640537 -0.19599977 0.32105723
000240 2e d0 4e 3d 4b ab 9a 3e 8d 43 85 be ac a6 e9 be
       0.050491504 0.3020881 -0.260281 -0.45634973
000250 fc 2d 56 3e 48 a1 26 bd 6f 4b 8d be 4b 53 81 bd
       0.20915979 -0.040681154 -0.27596614 -0.06314715
000260 6a 67 28 be ec cf d2 be c6 b5 38 bc 75 bd 8e be
       -0.164457 -0.41174257 -0.011273807 -0.2787892
000270 91 ee ab be b4 f7 da 3e 38 f1 ac bc f7 97 9b be
       -0.3358045 0.42767107 -0.021111116 -0.30389377
000280 50 15 23 be 04 a4 be 3e fc f4 73 bd ff 73 67 3e
       -0.15926099 0.3723451 -0.059559807 0.22602843
000290 d9 dd c9 3e bf c4 c4 3e 39 55 ad 3e e1 24 48 bd
       0.3942707 0.38431355 0.33854082 -0.048863295
0002a0 7e 61 f4 be ea 91 0c 3d 5d 68 2d 3e c4 76 bd 3e
       -0.4773063 0.034318842 0.16934343 0.37004673
0002b0 63 3b 88 be d8 50 e7 be 7c e4 bf 3e 04 14 0e 3e
       -0.26607808 -0.45178866 0.37479007 0.13874823
0002c0 3d 47 5c bd f6 24 c7 3e f9 9e 81 3e 89 d3 10 3e
       -0.053778876 0.38895386 0.253166 0.14143194

fc1.bias f4 [20]
000000 02 b6 ad bc 1e b4 50 3c 1a 30 7f bd be 79 46 bd
       -0.021204952 0.012738256 -0.062301733 -0.048455946
000010 23 c3 a8 3d a5 12 90 bd 02 df 23 bd 54 00 9c bd
       0.082403444 -0.07034806 -0.0400076 -0.0761725
000020 1c 8d 53 3d 16 e6 85 bc 70 76 fc 3d 22 15 bd bd
       0.051648244 -0.016345065 0.12327278 -0.092325464
000030 8f bc c0 3d c7 2f 57 3d 1c 30 11 bd 1b e0 79 3d
       0.09410965 0.0525358 -0.03544627 0.06100474
000040 03 45 91 3b b7 0b 2d 3c f9 59 f1 bc 45 bd e5 3c
       0.0044332757 0.010561875 -0.029461848 0.028044352

fc2.weight f4 [1, 20]
000000 74 79 21 3f be 7c 0b 3e 99 bb 89 3e 9d 93 99 be
       0.6307595 0.13621804 0.26900938 -0.29995432
000010 3c cb b5 3e 28 1f c3 be 55 66 ce be 0b d6 fe be
       0.35506618 -0.38109708 -0.40312448 -0.49772677
000020 03 fe 16 bf fd a6 0f bf 82 8c 94 3d f4 c3 16 be
       -0.5898134 -0.5611418 0.07253362 -0.14723188
000030 33 2c 15 3e 00 25 10 3e b5 72 4e be 8e 34 79 3e
       0.14567642 0.14076614 -0.20160945 0.24336454
000040 37 ac 48 3e 41 a4 ba 3e 27 fb a9 be 41 2d 70 be
       0.19596945 0.3645344 -0.33199427 -0.23454763
