MentorMix/checkpoint/MentorNet/MentorNet_Fold_2_Epoch_10.pt (torch, 6666 bytes, 7 tensors)

embedding_layer1.weight f4 [2, 2]
-1.1705604 1.2433422 0.3202822 -0.04446319
00000000: ecd4 95bf d625 9f3f 07fc a33e 091f 36bd

embedding_layer2.weight f4 [101, 5]
2.0790367 1.5061566 -0.4510729 -0.061992258 0.34361246 0.8960336 -0.9131245 0.22209883
2.3992677 0.024942685 1.6085908 0.9735401 -1.3202235 0.91245025 2.027868 0.4544703
1.5551693 0.9309372 -0.42388624 -1.9139578 0.8915239 1.4169725 1.2569332 1.2595882
0.39023182 -0.4164424 0.18395945 0.57409096 0.09448406 -0.03555666 -0.005175218 -0.9154438
0.5636944 -0.9464584 -0.14057662 0.2597254 -1.1578075 -1.3699645 -0.18041652 0.6456502
0.31966674 -1.3329968 1.6948701 0.6117981 1.0930016 -1.810879 -0.2673226 -0.18008865
-1.056883 0.9409241 -1.8335972 0.47078758 1.5225805 0.4063544 0.46205512 0.5332939
-0.28198463 0.57377243 -1.4071566 1.500491 1.6254936 0.96509755 0.20084518 -0.12304263
0.25451306 -0.9659184 -2.0737052 1.6326228 -1.8301901 -1.1747425 -0.04414257 0.40889248
0.482073 1.7429023 -0.77667135 1.901187 0.87826455 0.9624908 -0.19021517 -1.4811308
0.91998583 -1.5347229 0.12308578 -0.666572 -1.1208633 1.2822317 0.9033694 0.363537
-0.25730366 -1.0597578 -0.013341581 -0.60158235 -0.13531642 0.4625955 -0.9702104 -0.6966996
0.34305233 1.629288 -1.2041329 0.25653958 -0.7364791 -0.8075273 -0.5837566 -0.1328005
-0.630006 0.8479924 0.07078407 0.63955855 -0.23470163 0.631847 -2.0521681 -1.4369794
1.0554612 -0.20439987 0.24303901 -0.029711993 -1.5992196 2.3168929 -0.45822704 -1.1189729
0.26113272 -0.7974768 0.2162447 0.9814972 0.36496893 0.23529528 -0.32557333 0.22720474
0.008798593 -0.1995536 -0.63558835 -0.046193656 -0.98087674 -0.141001 0.7540015 0.13076752
0.29844514 -0.7659726 0.75272816 -0.05177682 0.07095669 -0.94751364 -0.77582926 -2.1362367
-1.8243952 -0.32777056 0.092128396 1.4027742 0.027142737 0.06917377 0.5554126 1.0274687
0.6710217 1.3316481 0.58029056 -2.0470936 0.57769895 -1.1823194 -0.21629679 -1.2150942
0.008132411 -0.39826998 0.21956861 -0.9013469 -0.655931 0.40613213 -0.02365569 0.4066204
0.083772846 1.3168442 -0.0062454436 -0.7024383 0.67415845 0.3680233 1.9527997 -0.411912
0.15158328 0.24597493 0.12270807 0.2583862 -0.58666015 0.5244999 0.21786307 -1.1335088
0.6115414 -0.667791 0.48405567 0.7146662 -1.6825899 -0.026593393 0.15425602 1.3493015
-0.65320694 -2.7878838 0.4396071 -0.9486473 0.27339926 -0.6335527 -1.2298791 0.47092646
-0.14404325 0.34949163 -1.3223804 -0.053830806 1.3686395 -1.1409979 -1.0490938 -1.0374506
-1.5671287 1.9777335 -0.6452641 0.43015963 4.1636887 1.1536481 0.91541624 -0.77532685
-0.8780456 0.2776668 2.1541655 0.98781353 0.08856774 1.8714055 0.9946557 0.84601015
0.22488117 1.1322514 0.7466037 0.8957837 0.24718592 0.55532175 0.33388487 1.6365747
0.27417573 -0.10773076 0.16330694 -0.8089285 1.0775397 0.45575505 0.017589556 -0.20480037
0.6285033 -0.915623 0.31887802 -1.1935332 0.48199147 0.008720966 0.18951218 -0.011751132
-1.3773214 0.98761475 -0.8541979 -1.114599 0.28222567 -0.10140152 -0.6086739 -1.6054405
00000000: f00e 0540 bdc9 c03f 07f3 e6be 98eb 7dbd
00000010: f9ed af3e 7562 653f 87c2 69bf e06d 633e
00000020: 9a8d 1940 9a54 cc3c 4ee6 cd3f ed39 793f
00000030: 15fd a8bf 5796 693f 97c8 0140 55b0 e83e
00000040: ca0f c73f e651 6e3f 9e07 d9be 92fc f4bf
00000050: e93a 643f 5b5f b53f 30e3 a03f 303a a13f
00000060: 77cc c73e f037 d5be de5f 3c3e a0f7 123f
00000070: dc80 c13d dca3 11bd e094 a9bb 865a 6abf
00000080: 474e 103f 194b 72bf 51f3 0fbe bafa 843e
00000090: 0933 94bf ff5a afbf 1cbf 38be 5549 253f
000000a0: 5cab a33e a49f aabf 81f1 d83f cd9e 1c3f
000000b0: 7ae7 8b3f e2ca e7bf 82de 88be 2969 38be
000000c0: f147 87bf 67e0 703f 50b3 eabf 120b f13e
000000d0: ebe3 c23f af0d d03e 7d92 ec3e f385 083f
000000e0: 4a60 90be c0e2 123f b51d b4bf 1710 c03f
000000f0: 2d10 d03f a210 773f 5caa 4d3e c6fd fbbd
00000100: 894f 823e 6e46 77bf 96b7 04c0 c9f9 d03f
00000110: ab43 eabf f65d 96bf d7ce 34bd 5b5a d13e
00000120: 46d2 f63e 6c17 df3f efd3 46bf 185a f33f
00000130: f2d5 603f cc65 763f c4c7 42be b295 bdbf
00000140: 3184 6b3f cd71 c4bf 6614 fc3d 76a4 2abf
00000150: 7378 8fbf 2b20 a43f 3843 673f 8621 ba3e
00000160: 4ebd 83be 25a6 87bf a696 5abc 4d01 1abf
00000170: 6390 0abe 51d9 ec3e b55f 78bf e85a 32bf
00000180: 8ea4 af3e 828c d03f 0721 9abf 2859 833e
00000190: e589 3cbf 1cba 4ebf 1371 15bf dbfc 07be
000001a0: 1348 21bf 0816 593f 3df7 903d 1cba 233f
000001b0: a055 70be bac0 213f b956 03c0 f1ee b7bf
000001c0: 5a19 873f 334e 51be 38df 783e 9166 f3bc
000001d0: 3ab3 ccbf f947 1440 bc9c eabe 813a 8fbf
000001e0: 30b3 853e 7127 4cbf 406f 5d3e 6743 7b3f
000001f0: 35dd ba3e 3ff1 703e 8cb1 a6be 5ca8 683e
00000200: f927 103c c757 4cbe ebb5 22bf 8f35 3dbd
00000210: bd1a 7bbf 9162 10be 3e06 413f ece7 053e
00000220: cdcd 983e c816 44bf cbb2 403f ee13 54bd
00000230: be51 913d 4190 72bf bf9c 46bf 1ab8 08c0
00000240: c885 e9bf 8bd1 a7be d0ad bc3d 1b8e b33f
00000250: 725a de3c faaa 8d3d 852f 0e3f 1884 833f
00000260: 14c8 2b3f 7273 aa3f ec8d 143f 9503 03c0
00000270: 14e4 133f 3e56 97bf e87c 5dbe 3588 9bbf
00000280: ce3d 053c 0bea cbbe 98d6 603e acbe 66bf
00000290: 18eb 27bf 8df0 cf3e 94c9 c1bc 8d30 d03e
000002a0: 1991 ab3d 5a8e a83f 94a6 ccbb ffd2 33bf
000002b0: a695 2c3f 8d6d bc3e 57f5 f93f 21e6 d2be
000002c0: a638 1b3e dae0 7b3e 5e4e fb3d 324b 843e
000002d0: 5c2f 16bf a045 063f 7f17 5f3e d116 91bf
000002e0: fa8d 1c3f 5af4 2abf 25d6 f73e 5df4 363f
000002f0: 1b5f d7bf 63da d9bc 4af5 1d3e e9b5 ac3f
00000300: 9238 27bf b06c 32c0 2f14 e13e 8dda 72bf
00000310: fdfa 8b3e 8230 22bf ae6c 9dbf 461d f13e
00000320: 1380 13be 91f0 b23e c343 a9bf b17d 5cbd
00000330: 942f af3f 380c 92bf b548 86bf 2ecb 84bf
00000340: ac97 c8bf 5f26 fd3f 0730 25bf e23d dc3e
00000350: f03c 8540 beaa 933f b858 6a3f d27b 46bf
00000360: 99c7 60bf 582a 8e3e d9dd 0940 59e1 7c3f
00000370: 0163 b53d 378a ef3f c2a1 7e3f 1f94 583f
00000380: 4047 663e 9ded 903f 6c21 3f3f 1552 653f
00000390: 4e1e 7d3e 9129 0e3f f5f2 aa3e 487b d13f
000003a0: c360 8c3e f2a1 dcbd ef39 273e f015 4fbf
000003b0: d2ec 893f ba58 e93e f917 903c 30b7 51be
000003c0: 98e5 203f 4566 6abf fb43 a33e b2c5 98bf
000003d0: 96c7 f63e 62e2 0e3c 7b0f 423e d287 40bc
000003e0: 114c b0bf 52d4 7c3f b7ac 5abf 2eab 8ebf
000003f0: e27f 903e 9aab cfbd 0dd2 1bbf 137f cdbf

rnn.weight_ih_l0 f4 [1, 2]
-0.82645774 0.6540872
00000000: bc92 53bf 4272 273f

rnn.weight_ih_l0_reverse f4 [1, 2]
0.07957151 -0.9894135
00000000: 63f6 a23d 344a 7dbf

fc1.weight f4 [20, 9]
0.13675031 -0.1814 0.06554964 -0.012737949 0.22833076 -0.25900534 0.19944753 -0.09943498
-0.5206797 0.3798101 -0.33306843 -0.061856683 0.11009828 0.2728167 -0.2814294 0.1307911
0.47346744 0.48225197 0.34485075 0.34013015 0.46206453 0.19974457 0.055662446 0.09555393
-0.28731227 -0.3544882 -0.060540274 -0.09064811 -0.27679396 0.0688897 -0.09243274 -0.04582424
0.08288899 -0.21010834 0.09262416 0.47313327 0.15322445 -0.036127068 -0.28845346 0.19348393
-0.31089175 -0.12621668 0.35507128 0.08921815 0.5207377 0.07965931 -0.26190162 -0.09813997
0.13369082 0.35452402 -0.2478335 0.2313082 0.3995678 -0.054694243 -0.1369055 -0.35521305
0.45751333 -0.40054694 0.24085572 0.03318477 -0.40167493 0.27031165 0.2723195 -0.28359324
-0.4230221 0.20703217 -0.15856145 0.27580646 0.28434914 0.0027973233 0.39755297 0.070224226
-0.2084475 -0.45363092 -0.09239283 0.13322514 0.16889864 0.22650973 -0.39667222 0.060857072
0.053901583 -0.17953409 0.2275184 0.15947516 -0.29316968 0.078366764 -0.08285927 -0.45244956
0.35560894 0.2813078 0.39769804 0.04243145 0.3234672 0.34106368 0.26769748 0.31617686
-0.27559325 -0.2104586 0.11209362 0.25813177 0.36405843 -0.2767351 0.033295512 -0.06545309
-0.09926638 0.013765169 -0.39679953 -0.32107806 0.5052215 -0.31413034 0.012588779 -0.30850667
-0.04287682 0.01703431 -0.3925209 -0.32997102 0.0838891 -0.18416761 -0.38596195 -0.1503853
0.28924873 0.08646082 0.2683396 -0.15807405 0.24891576 0.18909106 0.019928029 0.43132123
0.17902459 -0.41027755 0.02120442 -0.14736037 -0.41884223 -0.049211554 0.045628842 0.31425697
0.44272196 0.42546228 0.06256405 -0.10869466 -0.011531354 0.31867263 0.15176111 0.1730205
-0.0024817123 0.30983835 0.10264473 -0.34305185 -0.3357223 -0.29680315 0.4092117 0.19059561
0.31603238 0.41003695 -0.10402375 0.11361597 -0.16541292 -0.3109279 -0.011172806 -0.1089267
-0.33706334 0.030692104 -0.12323893 0.26466933 -0.33540154 -0.12485128 -0.124594994 -0.16279055
0.16790038 -0.217377 0.28063178 -0.50295496 -0.3798641 0.27434552 0.15602247 -0.37580785
0.059102353 -0.2695946 -0.33739108 0.55091757
00000000: 4608 0c3e ecc0 39be e43e 863d d5b2 50bc
00000010: 8acf 693e 599c 84be f93b 4c3e 91a4 cbbd
00000020: 444b 05bf 7876 c23e f287 aabe 6f5d 7dbd
00000030: 357b e13d a1ae 8b3e 8417 90be 1aee 053e
00000040: 536a f23e bbe9 f63e 4790 b03e 8a25 ae3e
00000050: b993 ec3e d789 4c3e 4efe 633d c7b1 c33d
00000060: 981a 93be 7a7f b5be 14f9 77bd b7a5 b9bd
00000070: f0b7 8dbe 0b16 8d3d 604d bdbd 33b2 3bbd
00000080: b4c1 a93d a426 57be bcb1 bd3d 863e f23e
00000090: dfe6 1c3e faf9 13bd 2cb0 93be a720 463e
000000a0: 342d 9fbe f23e 01be e7cb b53e 01b8 b63d
000000b0: 114f 053f 6c24 a33d f817 86be 9cfd c8bd
000000c0: 3fe6 083e 2c84 b53e 11c8 7dbe 0fdc 6c3e
000000d0: 2794 cc3e 1207 60bd f530 0cbe 7cde b5be
000000e0: 303f ea3e 7d14 cdbe e2a2 763e c1ec 073d
000000f0: 56a8 cdbe 4a66 8a3e 766d 8b3e 2233 91be
00000100: 5a96 d8be 3e00 543e ef5d 22be 8136 8d3e
00000110: 3696 913e 4c53 373b 108c cb3e b8d1 8f3d
00000120: 4373 55be 5042 e8be 7438 bdbd 2c6c 083e
00000130: c4f3 2c3e 2bf2 673e 9f18 cbbe 4445 793d
00000140: e8c7 5c3d c9d7 37be 95fa 683e 754d 233e
00000150: 561a 96be c17e a03d 1fb2 a9bd 78a7 e7be
00000160: 6012 b63e 9307 903e 149f cb3e 9acc 2d3d
00000170: 7e9d a53e e69f ae3e a50f 893e efe1 a13e
00000180: 8f1a 8dbe 7682 57be 5791 e53d d929 843e
00000190: de65 ba3e 39b0 8dbe e060 083d 450c 86bd
000001a0: 2c4c cbbd 4e87 613c 4f29 cbbe 5864 a4be
000001b0: 3256 013f b1d5 a0be 2b41 4e3c 96f4 9dbe
000001c0: 9b9f 2fbd 8a8b 8b3c 80f8 c8be f6f1 a8be
000001d0: 0cce ab3d 6f96 3cbe ce9c c5be 9bfe 19be
000001e0: 6918 943e 5f12 b13d cf63 893e 2ade 21be
000001f0: c6e3 7e3e 16a1 413e 1b40 a33c 23d6 dc3e
00000200: 3952 373e e60f d2be e4b4 ad3c a3e5 16be
00000210: 7d72 d6be 0e92 49bd 4fe5 3a3d 4ae6 a03e
00000220: 74ac e23e 31d6 d93e 9521 803d 4e9b debd
00000230: 01ee 3cbc 0f29 a33e 4467 1b3e 492c 313e
00000240: 39a4 22bb 22a3 9e3e 6637 d23d 7ea4 afbe
00000250: cbe3 abbe 95f6 97be 3284 d13e 7f2b 433e
00000260: ffce a13e 5df0 d13e 670a d5bd 7daf e83d
00000270: 0162 29be f131 9fbe 250e 37bc f614 dfbd
00000280: 9193 acbe 026e fb3c b164 fcbd bd82 873e
00000290: c0b9 abbe 07b2 ffbd a92b ffbd 91b2 26be
000002a0: 14ee 2b3e 1498 5ebe f8ae 8f3e a8c1 00bf
000002b0: 8c7d c2be 0477 8c3e 5bc4 1f3e e369 c0be
000002c0: 4f15 723d 4e08 8abe 86be acbe ef08 0d3f

fc1.bias f4 [20]
0.24296115 0.054504815 -0.03278506 0.10500898 0.0750444 0.0420567 1.3410669e-05 -0.050936066
-0.07776649 -0.07136089 -0.085329585 0.05910595 -0.073395155 -0.09591812 0.057220947 0.050069068
-0.09074775 -0.045307387 -0.07560731 0.060907654
00000000: cfca 783e 7140 5f3d a149 06bd f30e d73d
00000010: e1b0 993d a543 2c3d 63fe 6037 56a2 50bd
00000020: 0a44 9fbd a925 92bd 47c1 aebd 1519 723d
00000030: 3350 96bd b870 c4bd 8360 6a3d 3915 4d3d
00000040: f5d9 b9bd 3d94 39bd 01d8 9abd 4e7a 793d

fc2.weight f4 [1, 20]
-0.22816823 0.35542685 0.20306925 0.33243188 0.68347937 -0.24046431 0.0081205275 0.4040021
0.20929013 0.61468446 0.2935368 -0.28867975 -0.01652243 0.4611299 -0.23048097 -0.3956263
0.4546582 -0.33674535 0.31285107 0.6824287
00000000: efa4 69be 82fa b53e 63f1 4f3e 8334 aa3e
00000010: 81f8 2e3f 473c 76be f60b 053c 5dd9 ce3e
00000020: 2750 563e f65b 1d3f 754a 963e d5cd 93be
00000030: 0c5a 87bc 3819 ec3e 3403 6cbe 888f cabe
00000040: f6c8 e83e e369 acbe 042e a03e a6b3 2e3f
