MentorMix/checkpoint/MentorNet/MentorNet_Fold_2_Epoch_2.pt (torch, 6655 bytes, 7 tensors)

embedding_layer1.weight f4 [2, 2]
-1.1704887 1.3076375 0.3202822 -0.04446319
00000000: 93d2 95bf aa60 a73f 07fc a33e 091f 36bd

embedding_layer2.weight f4 [101, 5]
2.0802531 1.5054451 -0.4515029 -0.060782533 0.342502 0.8960336 -0.9131245 0.22209883
2.3992677 0.024942685 1.6085908 0.9735401 -1.3202235 0.91245025 2.027868 0.4544703
1.5551693 0.9309372 -0.42388624 -1.9139578 0.8915239 1.4169725 1.2569332 1.2595882
0.39023182 -0.4164424 0.18395945 0.57409096 0.09448406 -0.03555666 -0.005175218 -0.9154438
0.5636944 -0.9464584 -0.14057662 0.2597254 -1.1578075 -1.3699645 -0.18041652 0.6456502
0.31966674 -1.3329968 1.6948701 0.6117981 1.0930016 -1.810879 -0.2673226 -0.18008865
-1.056883 0.9409241 -1.8243983 0.4683223 1.5311958 0.41443393 0.45442072 0.5332939
-0.28198463 0.57377243 -1.4071566 1.500491 1.6254936 0.96509755 0.20084518 -0.12304263
0.25451306 -0.9659184 -2.0737052 1.6326228 -1.8301901 -1.1747425 -0.04414257 0.40889248
0.482073 1.7429023 -0.77667135 1.901187 0.87826455 0.9624908 -0.19021517 -1.4811308
0.91998583 -1.5347229 0.12308578 -0.666572 -1.1208633 1.2822317 0.9033694 0.363537
-0.25730366 -1.0597578 -0.013341581 -0.60158235 -0.13531642 0.4625955 -0.9702104 -0.6966996
0.34305233 1.629288 -1.2041329 0.25653958 -0.7032057 -0.8452864 -0.54916984 -0.09348664
-0.6600257 0.8479924 0.07078407 0.63955855 -0.23470163 0.631847 -2.0521681 -1.4369794
1.0554612 -0.20439987 0.24303901 -0.029711993 -1.5992196 2.3168929 -0.45822704 -1.1189729
0.26113272 -0.7974768 0.2162447 0.9814972 0.36496893 0.23529528 -0.32557333 0.22720474
0.008798593 -0.1995536 -0.63558835 -0.046193656 -0.98087674 -0.141001 0.7540015 0.13076752
0.29844514 -0.7659726 0.75272816 -0.05177682 0.07095669 -0.94751364 -0.77582926 -2.1362367
-1.8243952 -0.32777056 0.092128396 1.4027742 0.027142737 0.06917377 0.5993461 0.9809561
0.7180273 1.3775033 0.5332679 -2.0470936 0.57769895 -1.1823194 -0.21629679 -1.2150942
0.008132411 -0.39826998 0.21956861 -0.9013469 -0.655931 0.40613213 -0.02365569 0.4066204
0.083772846 1.3168442 -0.0062454436 -0.7024383 0.67415845 0.3680233 1.9527997 -0.411912
0.15158328 0.24597493 0.12270807 0.2583862 -0.58666015 0.5244999 0.21786307 -1.1335088
0.6115414 -0.667791 0.48405567 0.7146662 -1.6825899 -0.026593393 0.15425602 1.3493015
-0.65320694 -2.7878838 0.4396071 -0.9486473 0.27339926 -0.6335527 -1.2298791 0.47092646
-0.18803841 0.39120305 -1.3688196 -0.09707326 1.4112867 -1.1409979 -1.0490938 -1.0374506
-1.5671287 1.9777335 -0.6452641 0.43015963 4.1636887 1.1536481 0.91541624 -0.77532685
-0.8780456 0.2776668 2.1541655 0.98781353 0.08856774 1.8714055 0.9946557 0.84601015
0.22488117 1.1322514 0.7466037 0.8957837 0.24718592 0.55532175 0.33388487 1.6365747
0.27417573 -0.10773076 0.16330694 -0.8089285 1.0775397 0.45575505 0.017589556 -0.20480037
0.6285033 -0.915623 0.31887802 -1.1935332 0.48199147 0.008720966 0.18951218 -0.011751132
-1.3773214 0.98761475 -0.79525965 -1.1723896 0.3392326 -0.042422026 -0.66753185 -1.6054405
00000000: de22 0540 6db2 c03f 632b e7be 1bf7 78bd
00000010: 6c5c af3e 7562 653f 87c2 69bf e06d 633e
00000020: 9a8d 1940 9a54 cc3c 4ee6 cd3f ed39 793f
00000030: 15fd a8bf 5796 693f 97c8 0140 55b0 e83e
00000040: ca0f c73f e651 6e3f 9e07 d9be 92fc f4bf
00000050: e93a 643f 5b5f b53f 30e3 a03f 303a a13f
00000060: 77cc c73e f037 d5be de5f 3c3e a0f7 123f
00000070: dc80 c13d dca3 11bd e094 a9bb 865a 6abf
00000080: 474e 103f 194b 72bf 51f3 0fbe bafa 843e
00000090: 0933 94bf ff5a afbf 1cbf 38be 5549 253f
000000a0: 5cab a33e a49f aabf 81f1 d83f cd9e 1c3f
000000b0: 7ae7 8b3f e2ca e7bf 82de 88be 2969 38be
000000c0: f147 87bf 67e0 703f e285 e9bf f1c7 ef3e
000000d0: 39fe c33f af30 d43e d5a9 e83e f385 083f
000000e0: 4a60 90be c0e2 123f b51d b4bf 1710 c03f
000000f0: 2d10 d03f a210 773f 5caa 4d3e c6fd fbbd
00000100: 894f 823e 6e46 77bf 96b7 04c0 c9f9 d03f
00000110: ab43 eabf f65d 96bf d7ce 34bd 5b5a d13e
00000120: 46d2 f63e 6c17 df3f efd3 46bf 185a f33f
00000130: f2d5 603f cc65 763f c4c7 42be b295 bdbf
00000140: 3184 6b3f cd71 c4bf 6614 fc3d 76a4 2abf
00000150: 7378 8fbf 2b20 a43f 3843 673f 8621 ba3e
00000160: 4ebd 83be 25a6 87bf a696 5abc 4d01 1abf
00000170: 6390 0abe 51d9 ec3e b55f 78bf e85a 32bf
00000180: 8ea4 af3e 828c d03f 0721 9abf 2859 833e
00000190: 4a05 34bf b164 58bf 6596 0cbf ec75 bfbd
000001a0: 72f7 28bf 0816 593f 3df7 903d 1cba 233f
000001b0: a055 70be bac0 213f b956 03c0 f1ee b7bf
000001c0: 5a19 873f 334e 51be 38df 783e 9166 f3bc
000001d0: 3ab3 ccbf f947 1440 bc9c eabe 813a 8fbf
000001e0: 30b3 853e 7127 4cbf 406f 5d3e 6743 7b3f
000001f0: 35dd ba3e 3ff1 703e 8cb1 a6be 5ca8 683e
00000200: f927 103c c757 4cbe ebb5 22bf 8f35 3dbd
00000210: bd1a 7bbf 9162 10be 3e06 413f ece7 053e
00000220: cdcd 983e c816 44bf cbb2 403f ee13 54bd
00000230: be51 913d 4190 72bf bf9c 46bf 1ab8 08c0
00000240: c885 e9bf 8bd1 a7be d0ad bc3d 1b8e b33f
00000250: 725a de3c faaa 8d3d bf6e 193f f01f 7b3f
00000260: a3d0 373f 0752 b03f 3f84 083f 9503 03c0
00000270: 14e4 133f 3e56 97bf e87c 5dbe 3588 9bbf
00000280: ce3d 053c 0bea cbbe 98d6 603e acbe 66bf
00000290: 18eb 27bf 8df0 cf3e 94c9 c1bc 8d30 d03e
000002a0: 1991 ab3d 5a8e a83f 94a6 ccbb ffd2 33bf
000002b0: a695 2c3f 8d6d bc3e 57f5 f93f 21e6 d2be
000002c0: a638 1b3e dae0 7b3e 5e4e fb3d 324b 843e
000002d0: 5c2f 16bf a045 063f 7f17 5f3e d116 91bf
000002e0: fa8d 1c3f 5af4 2abf 25d6 f73e 5df4 363f
000002f0: 1b5f d7bf 63da d9bc 4af5 1d3e e9b5 ac3f
00000300: 9238 27bf b06c 32c0 2f14 e13e 8dda 72bf
00000310: fdfa 8b3e 8230 22bf ae6c 9dbf 461d f13e
00000320: 248d 40be c44b c83e 7b35 afbf 58ce c6bd
00000330: 0ba5 b43f 380c 92bf b548 86bf 2ecb 84bf
00000340: ac97 c8bf 5f26 fd3f 0730 25bf e23d dc3e
00000350: f03c 8540 beaa 933f b858 6a3f d27b 46bf
00000360: 99c7 60bf 582a 8e3e d9dd 0940 59e1 7c3f
00000370: 0163 b53d 378a ef3f c2a1 7e3f 1f94 583f
00000380: 4047 663e 9ded 903f 6c21 3f3f 1552 653f
00000390: 4e1e 7d3e 9129 0e3f f5f2 aa3e 487b d13f
000003a0: c360 8c3e f2a1 dcbd ef39 273e f015 4fbf
000003b0: d2ec 893f ba58 e93e f917 903c 30b7 51be
000003c0: 98e5 203f 4566 6abf fb43 a33e b2c5 98bf
000003d0: 96c7 f63e 62e2 0e3c 7b0f 423e d287 40bc
000003e0: 114c b0bf 52d4 7c3f 2396 4bbf dd10 96bf
000003f0: e5af ad3e b8c2 2dbd 5ee3 2abf 137f cdbf

rnn.weight_ih_l0 f4 [1, 2]
-0.793611 0.68787783
00000000: 172a 4bbf c318 303f

rnn.weight_ih_l0_reverse f4 [1, 2]
0.2506447 -0.81514716
00000000: 8154 803e 7cad 50bf

fc1.weight f4 [20, 9]
0.3447273 -0.3887883 0.04891944 -0.09611905 0.12013321 -0.30907544 0.24673449 -0.29870895
-0.29474014 0.41677466 -0.37013134 -7.4856165e-05 0.18166597 0.37324446 -0.32822707 0.10821677
0.41130272 0.33375213 0.30327225 0.3808557 0.4560462 0.15805835 0.04971319 0.102109544
-0.2920978 -0.35115144 -0.18235132 -0.024918977 -0.3428394 0.14511302 -0.20656769 -0.041206144
0.04652952 -0.2781692 0.0073595056 0.3083011 0.2061597 -0.08843233 -0.33460665 0.20816126
-0.39128926 -0.10373169 0.4348727 0.01927362 0.4059849 0.11361872 -0.29487845 -0.157903
0.13706821 0.2680199 -0.28459543 0.25203753 0.42105693 0.05809471 -0.14143963 -0.35062844
0.45878083 -0.39584318 0.24387555 0.030900437 -0.36798042 0.2784491 0.29429406 -0.3091359
-0.39857444 0.27615258 -0.19516279 0.35115483 0.29565206 -0.03074431 0.36893132 -0.0347003
-0.25981575 -0.40332004 -0.047139022 0.12303612 0.25004703 0.2537825 -0.44072407 0.053237405
-0.03998873 -0.21830401 0.26527756 0.20097496 -0.31848007 0.1375877 -0.068895355 -0.48475343
0.36536247 0.16965179 0.32811606 0.110966414 0.41828567 0.3624103 0.36364627 0.3440994
-0.29698032 -0.22591116 0.0069080833 0.29962036 0.3238587 -0.38418517 0.058576193 -0.1422711
-0.08718489 0.045735408 -0.39516258 -0.16511485 0.4666463 -0.2757457 -0.012086697 -0.3238901
-0.056547247 0.014599388 -0.3972462 -0.29467592 0.15059055 -0.24680893 -0.3239411 -0.106068686
0.33805463 0.21444927 0.34430233 -0.20248927 0.25733072 0.059799023 0.051780943 0.40054688
0.107544 -0.3672524 -0.025485877 -0.12914474 -0.35915068 -0.029398186 0.13368995 0.3496441
0.40835565 0.36610648 0.055103417 -0.11787179 -0.014034505 0.2726953 0.14623213 0.29215953
-0.071805626 0.37785694 0.13089511 -0.38514748 -0.3437274 -0.33822098 0.39612088 0.22608264
0.19757515 0.3698013 -0.06334282 0.06436185 -0.1495624 -0.36544687 -0.029749742 -0.085637614
-0.30296808 0.10725284 -0.16623111 0.30628574 -0.37590492 -0.2309421 -0.17101541 -0.185339
0.1709578 -0.25238782 0.12047628 -0.41911757 -0.46361464 0.37152767 0.12526426 -0.36226577
-0.016105693 -0.28008106 -0.44699576 0.38942468
00000000: 1980 b03e 430f c7be c05f 483d 11da c4bd
00000010: 6708 f63d 233f 9ebe f7a7 7c3e 61f0 98be
00000020: 2ee8 96be 7d63 d53e db81 bdbe 19fc 9cb8
00000030: a506 3a3e e619 bf3e 610d a8be c1a0 dd3d
00000040: 4596 d23e 8fe1 aa3e 8046 9b3e 85ff c23e
00000050: e37e e93e 0cda 213e 0fa0 4b3d cf1e d13d
00000060: d88d 95be 1fca b3be 4eba 3abe e222 ccbc
00000070: a588 afbe 8298 143e 7b86 53be c6c7 28bd
00000080: bd95 3e3d 326c 8ebe 0228 f13b a4d9 9d3e
00000090: 871b 533e 021c b5bd 9051 abbe 3a28 553e
000000a0: 1157 c8be 4871 d4bd a2a7 de3e b6e3 9d3c
000000b0: 41dd cf3e eeb0 e83d 4ffa 96be 53b1 21be
000000c0: 9c5b 0c3e e839 893e 7eb6 91be 100b 813e
000000d0: c694 d73e b8f4 6d3d 8dd5 10be 9285 b3be
000000e0: 52e5 ea3e f5ab cabe 83ba 793e ea22 fd3c
000000f0: ee67 bcbe e190 8e3e b6ad 963e 1047 9ebe
00000100: f311 ccbe df63 8d3e c1d8 47be 91ca b33e
00000110: b55f 973e 7edb fbbc 91e4 bc3e e721 0ebd
00000120: 9206 85be f77f cebe d914 41bd 5cfa fb3d
00000130: 2a06 803e c8ef 813e 96a6 e1be 770f 5a3d
00000140: 39cb 23bd 168b 5fbe 76d2 873e 61cc 4d3e
00000150: d20f a3be cae3 0c3e 0219 8dbd 9a31 f8be
00000160: ca10 bb3e 33b9 2d3e d4fe a73e 5c42 e33d
00000170: 8a29 d63e d88d b93e d82f ba3e cc2d b03e
00000180: ce0d 98be 4155 67be 345d e23b d767 993e
00000190: cfd0 a53e ebb3 c4be 97ed 6f3d 84af 11be
000001a0: fe8d b2bd 0d55 3b3d c052 cabe de13 29be
000001b0: 44ec ee3e 8a2e 8dbe 4807 46bc ecd4 a5be
000001c0: 169e 67bd 4632 6f3c db63 cbbe c3df 96be
000001d0: 6934 1a3e 7bbb 7cbe 9cdb a5be 8a3a d9bd
000001e0: 7f15 ad3e 9798 5b3e 6548 b03e 5959 4fbe
000001f0: dac0 833e d2ef 743d 4118 543d 7b14 cd3e
00000200: 0740 dc3d 8208 bcbe c2c7 d0bc 853e 04be
00000210: 99e2 b7be 77d4 f0bc 05e6 083e 8d04 b33e
00000220: fe13 d13e 4f72 bb3e 1fb4 613d c466 f1bd
00000230: fbf0 65bc b89e 8b3e e0bd 153e ef95 953e
00000240: d40e 93bd 7776 c13e 5e09 063e 0d32 c5be
00000250: 0afd afbe 4d2b adbe 5bd0 ca3e 3582 673e
00000260: 2451 4a3e 9956 bd3e e1b9 81bd 25d0 833d
00000270: e326 19be da1b bbbe bbb5 f3bc c662 afbd
00000280: a21e 9bbe 61a7 db3d 7d38 2abe 7cd1 9c3e
00000290: 9c76 c0be 167c 6cbe aa1e 2fbe 82c9 3dbe
000002a0: 900f 2f3e fa38 81be 45bc f63d 9496 d6be
000002b0: e65e edbe e038 be3e 4645 003e e67a b9be
000002c0: 16f0 83bc c966 8fbe a1dc e4be ac62 c73e

fc1.bias f4 [20]
0.034214664 0.017518152 0.008742272 0.03887762 0.02187604 0.008146948 0.004590314 -0.025575165
-0.026152426 -0.032647718 -0.015724907 0.017745368 -0.03472309 -0.032952774 0.025536422 0.014577913
-0.021370482 -0.0048119966 -0.033022515 -0.023478268
00000000: ad24 0c3d 3a82 8f3c bf3b 0f3c 243e 1f3d
00000010: 6235 b33c c77a 053c 586a 963b 0283 d1bc
00000020: 9d3d d6bc 9db9 05bd 85d1 80bc bc5e 913c
00000030: cc39 0ebd 7df9 06bd c231 d13c 33d8 6e3c
00000040: 2611 afbc f4ad 9dbb 9e42 07bd 7f55 c0bc

fc2.weight f4 [1, 20]
-0.06150971 0.21977046 0.30652654 0.18928276 0.55486345 -0.28887644 -0.04110784 0.45610398
0.23222095 0.53349215 0.30604377 -0.15849431 -0.06923024 0.31578684 -0.24711975 -0.49406454
0.33821267 -0.40409106 0.15332256 0.509007
00000000: 9bf1 7bbd 820b 613e 0cf1 9c3e 57d3 413e
00000010: 880b 0e3f 9de7 93be b260 28bd 7686 e93e
00000020: 54cb 6d3e f192 083f c5b1 9c3e 554c 22be
00000030: 96c8 8dbd d0ae a13e f60c 7dbe 07f6 fcbe
00000040: 362a ad3e 06e5 cebe 9700 1d3e 484e 023f
