MentorMix/checkpoint/MentorNet/MentorNet_Fold_1_Epoch_7.pt (torch, 6655 bytes, 7 tensors)

embedding_layer1.weight f4 [2, 2]
0.59828365 0.28924757 0.06167726 0.6213173
00000000: 1e29 193f 4218 943e 4ba1 7c3d a70e 1f3f

embedding_layer2.weight f4 [101, 5]
-1.1434902 -1.0503607 1.3413907 -0.7076959 -0.5914899 0.27376235 -0.96485204 -0.23581198
-0.5709802 0.013488896 -0.5494922 -1.0112808 1.3949215 0.8081901 0.5608995 1.0762349
0.43914157 1.1712008 1.7674273 -0.09536188 0.1393715 -1.5785011 -0.32062083 -0.29934606
-0.7984398 0.33573052 0.27533352 1.7163026 -0.056139667 0.910702 -1.3923858 2.689087
-1.8821425 -0.77654505 2.024202 -0.0865412 0.098123536 -1.2150067 0.7311667 1.1718048
2.4069781 0.27856624 0.24675292 1.1843266 -0.7282137 1.1632744 -0.0090745855 -0.8424634
0.21518245 -0.52419364 -1.8349664 -1.3420404 0.4201735 1.1677498 0.2816801 -1.7754008
1.1173496 0.2981353 0.10988554 -0.6463385 0.4285423 1.4760778 -1.7868679 1.6103176
0.9837094 0.87928617 -1.4503865 -1.1802155 0.40997243 0.40845066 0.2578654 1.0950214
1.3263941 0.8547218 -0.280524 0.7000165 -1.456733 1.6089354 0.093769975 -1.259749
-0.50467217 -1.4745737 -0.34157753 -0.30025828 1.3075355 -1.1627988 0.11963611 -0.16313533
-0.9246983 -0.93010116 1.4301451 0.4207734 -0.35380653 0.76392704 -0.5889507 -0.76359737
0.6155449 0.19382203 -2.5832138 0.85394204 1.2853246 0.544219 0.9908115 1.2562708
-0.14140616 0.34335375 -1.0702778 -0.87426317 -1.4647994 -1.2629284 1.1220188 1.5663341
0.15728118 1.2539585 1.3275172 -0.4954058 1.5496205 0.34762925 0.09300803 0.6147403
-0.64466584 -0.28702253 3.3212175 -0.40206036 -0.71225893 -0.6200344 -0.22813495 -0.78927463
-1.0371166 -1.0669051 -0.20850393 -0.21552248 0.27052772 0.55969197 -0.3183963 1.5117207
-1.5208013 0.9195754 -0.54835236 -0.34724024 -0.7474459 -0.92343855 0.5733984 -0.10929951
0.7574802 -0.40676087 -0.12773234 0.28036582 0.0374569 -0.6378393 -0.84192854 -0.6408849
0.72671354 -1.1226468 -0.24319087 -0.5602604 0.6817095 -0.51700455 1.7902275 0.58767647
0.2504676 -0.7930326 0.52310103 1.2236058 -0.94579434 -1.3529137 3.38374 -2.4043953
-0.38911948 -0.07960036 0.7604781 -1.0025175 0.946171 0.35120168 1.5728474 1.7185327
-0.059443872 -2.491939 0.2422618 0.28830886 -0.10951661 0.31256905 1.5037949 0.50377077
0.6223302 -0.4481365 -0.2856487 0.387978 -1.1434665 -0.65123045 -0.103163965 0.6936977
-1.1991774 -0.047417123 -2.002951 -0.49140018 1.7086049 0.791276 1.0230097 0.9839178
-0.76105106 -0.58181757 -1.138713 -0.64469486 0.609798 -0.90588295 -0.4356011 -0.5961388
-0.07051458 0.3469794 -0.6536796 1.5586202 0.4000731 2.4422815 -0.38184077 0.43265304
-2.0173 0.4235032 0.57302195 -1.796243 -0.3061445 -0.42027354 0.2828067 0.36423814
2.6414983 -0.9624009 -0.20756981 -1.388908 0.012691011 -1.8734486 1.7997428 0.28238562
1.6604139 0.27173975 -0.80869967 0.12672262 0.5706765 -0.13479164 0.34371647 0.3718005
0.14440395 0.77716845 -2.3381126 -0.8291204 1.1661391 1.4786575 0.26760873 0.75611985
-0.5873361 -2.0619206 0.37529147 0.2816332 -0.29365486 -0.67177916 1.1983358 -0.05141742
00000000: e35d 92bf 3872 86bf b1b2 ab3f 8f2b 35bf
00000010: e26b 17bf 942a 8c3e 8b00 77bf b278 71be
00000020: c22b 12bf 8800 5d3c 85ab 0cbf a671 81bf
00000030: ca8c b23f 8ce5 4e3f 1c97 0f3f 11c2 893f
00000040: 2ad7 e03e e8e9 953f 0f3b e23f 174d c3bd
00000050: 67b7 0e3e 530c cabf 6a28 a4be e343 99be
00000060: 8d66 4cbf dfe4 ab3e 84f8 8c3e ceaf db3f
00000070: b5f2 65bd c423 693f b339 b2bf 001a 2c40
00000080: 0cea f0bf a8cb 46bf 878c 0140 833c b1bd
00000090: fef4 c83d 5785 9bbf be2d 3b3f b3fd 953f
000000a0: ee0b 1a40 3ca0 8e3e ccac 7c3e 0498 973f
000000b0: 376c 3abf 2de6 943f 92ad 14bc aeab 57bf
000000c0: ca58 5c3e 8e31 06bf 2ee0 eabf fbc7 abbf
000000d0: fb20 d73e d378 953f 6038 903e 5540 e3bf
000000e0: 5005 8f3f 31a5 983e ac0b e13d 7176 25bf
000000f0: e569 db3e 1ef0 bc3f 16b8 e4bf e31e ce3f
00000100: 61d4 7b3f e618 613f 44a6 b9bf 4d11 97bf
00000110: e8e7 d13e 7220 d13e ef06 843e a929 8c3f
00000120: 48c7 a93f 0ccf 5a3f d7a0 8fbe 4834 333f
00000130: 3a76 babf 98f1 cd3f 790a c03d 753f a1bf
00000140: 3232 01bf d5be bcbf 40e3 aebe 74bb 99be
00000150: 535d a73f 97d6 94bf c703 f53d f30c 27be
00000160: 07b9 6cbf 1c1b 6ebf ff0e b73f 9c6f d73e
00000170: 2126 b5be b990 433f 79c5 16bf 1e7b 43bf
00000180: 5a94 1d3f 4879 463e 6053 25c0 f29b 5a3f
00000190: 8485 a43f f051 0b3f d3a5 7d3f 7bcd a03f
000001a0: c7cc 10be 10cc af3e ddfe 88bf b6cf 5fbf
000001b0: 8c7e bbbf a3a7 a1bf 509e 8f3f a37d c83f
000001c0: 510e 213e b681 a03f 15ec a93f d4a5 fdbe
000001d0: f759 c63f 76fc b13e fe7a be3d 9f5f 1d3f
000001e0: d208 25bf 9ef4 92be d48e 5440 dbda cdbe
000001f0: 9a56 36bf 93ba 1ebf 359c 69be e70d 4abf
00000200: 3dc0 84bf 5990 88bf 0e82 55be edb1 5cbe
00000210: 9c82 8a3e f947 0f3f d704 a3be 1080 c13f
00000220: 9ea9 c2bf 4b69 6b3f d260 0cbf 79c9 b1be
00000230: 9d58 3fbf 7866 6cbf 3dca 123f 6cd8 dfbd
00000240: 39ea 413f f642 d0be 44cc 02be 1c8c 8f3e
00000250: 686c 193d 7049 23bf a188 57bf 0811 24bf
00000260: e609 3a3f e4b2 8fbf 0707 79be 3a6d 0fbf
00000270: 8484 2e3f 695a 04bf 2d26 e53f f771 163f
00000280: 4a3d 803e 2f04 4bbf f3e9 053f 1d9f 9c3f
00000290: 941f 72bf 472c adbf 328f 5840 9de1 19c0
000002a0: ab3a c7be 8305 a3bd b1ae 423f 7e52 80bf
000002b0: 4338 723f b5d0 b33e 1053 c93f e1f8 db3f
000002c0: 6b7b 73bd ee7b 1fc0 7a13 783e 389d 933e
000002d0: 3f4a e0bd 0d09 a03e 5a7c c03f 1ff7 003f
000002e0: 0851 1f3f 2672 e5be 8c40 92be 0da5 c63e
000002f0: 1c5d 92bf 0ab7 26bf a147 d3bd 2c96 313f
00000300: a57e 99bf 7538 42bd 5930 00c0 ce98 fbbe
00000310: 91b3 da3f 1091 4a3f fbf1 823f 09e2 7b3f
00000320: 3ed4 42bf fff1 14bf 59c1 91bf b90a 25bf
00000330: b91b 1c3f f2e7 67bf 1b07 dfbe 8d9c 18bf
00000340: f369 90bd 49a7 b13e 8c57 27bf de80 c73f
00000350: 62d6 cc3e 574e 1c40 a280 c3be b384 dd3e
00000360: 711b 01c0 69d5 d83e 91b1 123f 4aeb e5bf
00000370: f9be 9cbe 182e d7be 0acc 903e 6c7d ba3e
00000380: 4f0e 2940 e85f 76bf 2e8d 54be bdc7 b1bf
00000390: f5ed 4f3c 2acd efbf f95d e63f d994 903e
000003a0: 7188 d43f 7921 8b3e f106 4fbf 93c3 013e
000003b0: db17 123f d206 0abe 9bfb af3e a35c be3e
000003c0: a1de 133e 83f4 463f a3a3 15c0 3c41 54bf
000003d0: 0c44 953f a644 bd3f 0304 893e 1291 413f
000003e0: a95b 16bf 82f6 03c0 3426 c03e 3a32 903e
000003f0: ee59 96be b8f9 2bbf 1163 993f 139b 52bd

rnn.weight_ih_l0 f4 [1, 2]
-0.53655344 0.28805137
00000000: 915b 09bf 787b 933e

rnn.weight_ih_l0_reverse f4 [1, 2]
-0.283269 -0.84809214
00000000: a208 91be 911c 59bf

fc1.weight f4 [20, 9]
0.32958505 -0.45728776 0.42372513 0.084156826 0.21804543 0.3931915 -0.16886725 -0.36714563
0.19715936 -0.46819934 0.35860866 0.08469942 -0.27416196 0.083489336 0.20503506 -0.18035865
0.1713972 -0.051543742 -0.32921514 0.20041072 0.1667286 0.21220325 -0.07767382 -0.47355917
-0.02396597 -0.02095638 -0.35907537 -0.2432152 0.18423158 0.40798694 -0.29741365 -0.120960414
-0.10235488 -0.15551844 -0.26939073 -0.57035583 -0.01104362 0.42266214 -0.28343412 -0.37384224
-0.3379653 -0.34436923 0.39545003 -0.24963108 -0.30212435 0.14414531 -0.20301922 -0.10049226
-0.40318123 -0.18383549 0.3225406 -0.4500215 -0.2827564 0.28995898 0.038876735 -0.04951924
0.3677583 0.061620276 -0.008553228 -0.25129983 0.2620635 -0.10746717 -0.33061737 -0.10276497
-0.12914261 -0.19772498 0.40568814 0.3910162 -0.37334314 -0.2729231 0.076781206 -0.27447066
-0.099153735 -0.22214201 -0.17423607 0.03608626 0.36558113 0.22494948 0.1865823 -0.3022167
0.18555245 -0.09569831 0.27972007 0.31347474 0.06528229 0.30694443 -0.46320465 -0.32269958
-0.36133203 -0.2553519 -0.21574119 0.02313451 -0.2777441 0.13307182 -0.037513573 0.12125193
0.32749838 0.3176632 0.32083616 -0.23086102 -0.43913275 -0.4116673 -0.40450212 -0.17204958
0.36166602 0.4520841 0.31786537 0.27372584 -0.1277473 -0.13030653 -0.047701344 0.033949237
-0.43654698 -0.21501817 -0.21896438 -0.14910507 -0.008502814 -0.3042603 -0.1980567 0.09896695
-0.3944072 0.2578911 -0.2782911 -0.14214449 -0.022984374 0.45556262 0.15459198 -0.07511623
0.14407621 0.0037141484 -0.008135372 0.099047825 0.3681935 0.37529692 0.19639683 -0.26945496
-0.032148007 0.12715723 -0.20343058 0.005952813 -0.120278 -0.12282566 0.06363429 -0.35447487
-0.15786642 -0.11959008 0.10634249 -0.028449837 0.24670547 0.17389534 0.42095926 -0.30221137
0.21894388 -0.41872156 0.35502973 0.30546466 -0.016789574 0.23147312 -0.068319984 -0.4142833
0.17310558 0.1793714 -0.13722117 0.19531557 0.40664357 0.47321042 -0.036173906 0.13752781
0.36967167 0.024749134 -0.16713896 -0.2505185 -0.26665288 -0.15061621 0.16875786 0.114517726
-0.22454745 -0.24527863 0.46314862 0.41066337
00000000: 5fbf a83e 9f21 eabe 80f2 d83e 6a5a ac3d
00000010: 4d47 5f3e 6550 c93e 89eb 2cbe 83fa bbbe
00000020: 25e4 493e d3b7 efbe 8e9b b73e e476 ad3d
00000030: f55e 8cbe 75fc aa3d b6f4 513e f0af 38be
00000040: bf82 2f3e 881f 53bd e38e a8be 7838 4d3e
00000050: e7ba 2a3e cf4b 593e 7413 9fbd 5976 f2be
00000060: 4854 c4bc b7ac abbc bad8 b7be 680d 79be
00000070: 34a7 3c3e aae3 d03e 9a46 98be 18ba f7bd
00000080: 6f9f d1bd 3a40 1fbe 95ed 89be d702 12bf
00000090: 4df0 34bc 2c67 d83e 471e 91be 4068 bfbe
000000a0: ca09 adbe 2a51 b0be 6d78 ca3e 4a9f 7fbe
000000b0: 0bb0 9abe d49a 133e 45e4 4fbe e3ce cdbd
000000c0: c56d cebe 5f3f 3cbe 0b24 a53e 3869 e6be
000000d0: 72c5 90be 8175 943e 363d 1f3d b0d4 4abd
000000e0: d14a bc3e 8b65 7c3d d722 0cbc 5faa 80be
000000f0: 302d 863e bf17 dcbd ae46 a9be 7176 d2bd
00000100: f63d 04be 6b78 4abe 5bb6 cf3e 4633 c83e
00000110: d526 bfbe 94bc 8bbe 773f 9d3d 6b87 8cbe
00000120: 1d11 cbbd 3279 63be f16a 32be 30cf 133d
00000130: 732d bb3e 2859 663e 6e0f 3f3e 26bc 9abe
00000140: 7601 3e3e 7afd c3bd 7837 8f3e c37f a03e
00000150: b9b2 853d d227 9d3e 2929 edbe e138 a5be
00000160: 8300 b9be 7cbd 82be 42eb 5cbe 9584 bd3c
00000170: 7a34 8ebe fb43 083e d5a7 19bd ef52 f83d
00000180: dead a73e c0a4 a23e a344 a43e d566 6cbe
00000190: 02d6 e0be 0ec6 d2be e71a cfbe c42d 30be
000001a0: 4a2c b93e 9177 e73e 40bf a23e cb25 8c3e
000001b0: 30d0 02be 136f 05be 7c62 43bd 5b0e 0b3d
000001c0: 1683 dfbe b92d 5cbe 3338 60be 00af 18be
000001d0: 634f 0bbc 02c8 9bbe 60cf 4abe 2faf ca3d
000001e0: beef c9be 4d0a 843e 2c7c 8ebe 538e 11be
000001f0: ba49 bcbc 813f e93e 5c4d 1e3e 8ad6 99bd
00000200: b788 133e 1269 733b 394a 05bc 96d9 ca3d
00000210: dc83 bc3e eb26 c03e 401c 493e 00f6 89be
00000220: a1ad 03bd 8135 023e 1b50 50be d10f c33b
00000230: 5054 f6bd 058c fbbd b252 823d bb7d b5be
00000240: bca7 21be a5eb f4bd 17ca d93d a20f e9bc
00000250: 5ca0 7c3e 9f11 323e f987 d73e 73bb 9abe
00000260: d332 603e ac62 d6be 75c6 b53e dd65 9c3e
00000270: 4a8a 89bc 4a07 6d3e 59eb 8bbd f11c d4be
00000280: 9742 313e 23ad 373e b583 0cbe ce00 483e
00000290: 9633 d03e a348 f23e 172b 14bd 17d4 0c3e
000002a0: 9b45 bd3e b2be ca3c 7a26 2bbe f643 80be
000002b0: ba86 88be 233b 1abe dcce 2c3e 4588 ea3d
000002c0: c4ef 65be 522a 7bbe d121 ed3e 7842 d23e

fc1.bias f4 [20]
-0.026225794 -0.03230804 0.02494808 -0.038945187 0.04661084 0.03165395 -0.043125413 0.014186474
0.029945482 0.024658553 0.029143672 -0.03715197 -0.019949071 0.113111176 -0.023523256 -0.03399134
0.014917317 -0.07790505 -0.028573932 0.10802199
00000000: 7ad7 d6bc 6f55 04bd ea5f cc3c fd84 1fbd
00000010: 02eb 3e3d 93a7 013d 46a4 30bd 626e 683c
00000020: 3a50 f53c bc00 ca3c b6be ee3c aa2c 18bd
00000030: 3c6c a3bc d5a6 e73d d8b3 c0bc 813a 0bbd
00000040: c367 743c af8c 9fbd e113 eabc a23a dd3d

fc2.weight f4 [1, 20]
0.13879104 -0.23103066 0.15392554 -0.26559183 0.36545634 0.13235559 -0.5354402 -0.07033193
0.024933452 0.33235434 0.45674974 -0.29564598 -0.43031043 0.42786652 -0.008990752 -0.50761086
0.27300495 -0.24822468 -0.15097602 0.13502541
00000000: 3d1f 0e3e 4d93 6cbe a89e 1d3e a7fb 87be
00000010: 181d bb3e 3988 073e 9c12 09bf 300a 90bd
00000020: 3d41 cc3c 592a aa3e 1adb e93e e95e 97be
00000030: a651 dcbe 5211 db3e f24d 13bc c9f2 01bf
00000040: 4ec7 8b3e 9c2e 7ebe 7599 1abe 1a44 0a3e
