MentorMix/checkpoint/MentorNet/MentorNet_Fold_3_Epoch_9.pt (torch, 6655 bytes, 7 tensors)

embedding_layer1.weight f4 [2, 2]
1.0400349 -0.020604638 0.8085522 -0.32557642
00000000: dd1f 853f 0fcb a8bc 47fd 4e3f f4b1 a6be

embedding_layer2.weight f4 [101, 5]
-0.55317414 1.3425752 -0.53472537 2.1011865 -0.9622691 0.5076447 0.07317984 -0.68583447
-0.7674139 -0.46678665 0.44899133 1.1551832 0.49784917 -1.9457939 0.6115228 -0.48041284
0.87669665 -0.7540754 0.8605156 -0.67675114 -0.6791255 0.07252846 0.08385726 0.61076075
0.53657025 -0.17676383 -0.59507436 1.0289851 -1.0810732 -0.18040538 0.6296842 -0.021068789
-0.117609166 -1.3498112 1.4427873 -1.1165382 0.14369765 -0.6355303 0.29862446 0.4172351
1.258227 1.0288861 1.9699428 -2.2211287 -1.5709329 1.1814961 0.07389462 -0.63597083
0.4038921 -0.7376809 -2.390093 -0.50513506 -0.92366195 0.38952687 -0.57580644 0.8559479
-0.1340775 1.6559418 -1.9023695 -0.41746333 1.726907 1.5063946 1.0648742 -0.21300247
0.1702646 0.22448623 -0.85524136 1.685099 -0.30739465 -0.2323371 1.9194341 1.7787969
0.5456126 1.1912117 -1.9509331 -0.82017577 0.19614685 1.025027 1.8563946 0.78811187
-0.9974017 0.853599 2.165607 0.027837787 -0.074655935 0.52109766 -1.5803418 -2.8313184
-1.7030133 -1.3933803 -1.5918531 0.019433646 -0.9021126 -0.12867358 0.5754062 0.08988098
0.07438303 2.127848 -0.44947553 0.98178583 1.7344869 -0.59151083 -0.4434781 0.2284247
1.1736042 1.3345462 1.1713524 -0.22717598 0.037396315 -1.7852864 -0.4372574 1.2162952
-0.45650157 -1.0694807 0.75439805 0.9838232 0.5785828 -0.7820602 -0.11979035 0.7000588
-0.37721726 -0.15160188 0.9391576 0.5542785 0.43050072 0.37042916 -1.2843802 0.6619712
0.8554598 -0.7242537 -0.173967 -0.37249124 0.064689174 0.08178461 -1.8067143 -0.36504024
0.34092203 -1.0333661 -0.44048655 0.6710798 1.728031 1.2051961 2.290394 1.4977481
0.87773 0.24772014 0.8133443 -0.120246865 -0.17562844 0.3004771 -0.81143534 -0.20632511
2.3060136 -0.45741194 0.9785301 0.37688777 -0.4279504 -0.9953346 -0.9831089 -0.31229845
-2.278207 -0.073966615 0.29947835 -0.28320083 0.061584625 -1.6068239 -0.54594386 -0.36407351
0.21068616 -0.4520177 -1.1506153 -0.21756561 -0.484508 -0.043686986 -1.2204466 1.0421511
2.1901307 0.06217005 -0.13730115 0.0019067059 -0.31551647 2.5033264 -2.2323003 -0.10479449
-0.6095959 0.939917 0.30384526 -0.81108004 -1.1055003 -0.85561603 0.97078425 0.11331529
0.33502415 -0.56465334 -0.49392408 0.1767904 -0.25009423 0.40606436 -1.2768915 0.9144816
0.49839622 1.5714911 -0.2935146 -0.7837083 -0.88706213 0.13596117 -1.1226356 0.3611121
0.52379036 0.09031559 0.09608314 -0.18518269 0.09687882 -1.2018168 -0.28236562 0.315833
-0.5451898 0.15469684 0.95986944 0.5216907 -1.5667733 0.21445252 0.90771997 -1.515254
-1.22686 0.17965557 1.8222834 -0.11548904 -0.61620516 0.1794368 -1.752109 -2.2879643
1.8892738 1.1411607 -1.4660649 -0.069625504 -1.937644 0.22566451 -0.3825962 0.41719925
1.3482848 -0.13606097 -1.4063013 -0.3431392 -0.8639916 -0.35258755 -0.53872406 -1.1004426
-0.852896 1.1987094 -0.16174251 0.25974414 0.8633801 -0.041114878 0.70713484 -2.3616595
00000000: d29c 0dbf 81d9 ab3f c3e3 08bf d779 0640
00000010: 4557 76bf 01f5 013f 50df 953d d992 2fbf
00000020: 3d75 44bf a9fe eebe 31e2 e53e 0bdd 933f
00000030: 16e6 fe3e c60f f9bf c28c 1c3f acf8 f5be
00000040: 316f 603f 160b 41bf c04a 5c3f 903f 2dbf
00000050: 2bdb 2dbf cd89 943d 5bbd ab3d d15a 1c3f
00000060: ab5c 093f 9401 35be cb56 18bf c9b5 833f
00000070: 9b60 8abf 30bc 38be fc32 213f 7498 acbc
00000080: 13dd f0bd 9dc6 acbf 41ad b83f b9ea 8ebf
00000090: 7a25 133e 1db2 22bf 4ee5 983e d79f d53e
000000a0: 950d a13f 8ab2 833f 1627 fc3f f926 0ec0
000000b0: 5414 c9bf 443b 973f 1056 973d fcce 22bf
000000c0: f2ca ce3e a8d8 3cbf 49f7 18c0 8850 01bf
000000d0: 1c75 6cbf 1170 c73e 0d68 13bf 671f 5b3f
000000e0: 9d4b 09be e7f5 d33f d880 f3bf c1bd d5be
000000f0: 4a0b dd3f 8ad1 c03f cc4d 883f 521d 5abe
00000100: d859 2e3e b8df 653e 19f1 5abf 53b1 d73f
00000110: d562 9dbe c7e9 6dbe 04b0 f53f 9eaf e33f
00000120: 44ad 0b3f a079 983f 2db8 f9bf 0af7 51bf
00000130: b8da 483e 1634 833f 579e ed3f b3c1 493f
00000140: b855 7fbf 7785 5a3f 4e99 0a40 120c e43c
00000150: 36e5 98bd a866 053f a448 cabf 5234 35c0
00000160: 57fc d9bf 495a b2bf d8c1 cbbf 4f33 9f3c
00000170: daf0 66bf 02c3 03be d24d 133f 8513 b83d
00000180: 2156 983d a92e 0840 a821 e6be 5156 7b3f
00000190: ab03 de3f 416d 17bf 900f e3be 2ae8 693e
000001a0: aa38 963f 69d2 aa3f e0ee 953f d2a0 68be
000001b0: e12c 193d 4484 e4bf 34e0 dfbe 90af 9b3f
000001c0: 93ba e9be bee4 88bf 3b20 413f d6db 7b3f
000001d0: 011e 143f 1935 48bf a554 f5bd 0e37 333f
000001e0: 9f22 c1be 863d 1bbe a26c 703f 32e5 0d3f
000001f0: 976a dc3e e4a8 bd3e 9266 a4bf f276 293f
00000200: 6aff 5a3f b168 39bf 6824 32be 2cb7 bebe
00000210: c27b 843d b17e a73d 6a42 e7bf 8ee6 babe
00000220: 558d ae3e 5745 84bf 7487 e1be e3cb 2b3f
00000230: 1f30 dd3f de43 9a3f d195 1240 36b6 bf3f
00000240: eab2 603f 59aa 7d3e 5537 503f fd43 f6bd
00000250: f1d7 33be 22d8 993e 3aba 4fbf e446 53be
00000260: ba95 1340 e631 eabe f380 7a3f 6ff7 c03e
00000270: 511c dbbe 40ce 7ebf 06ad 7bbf 95e5 9fbe
00000280: 25ce 11c0 cf7b 97bd 3a55 993e b3ff 90be
00000290: 2940 7c3d 68ac cdbf fac2 0bbf d867 babe
000002a0: 1dbe 573e dd6e e7be 5d47 93bf 85c9 5ebe
000002b0: 6f11 f8be 20f1 32bd 9837 9cbf 3565 853f
000002c0: 1a2b 0c40 06a6 7e3d ac98 0cbe 6fea f93a
000002d0: 608b a1be 8036 2040 02de 0ec0 7e9e d6bd
000002e0: 7a0e 1cbf 679e 703f 9b91 9b3e f1a2 4fbf
000002f0: 0981 8dbf a709 5bbf 5185 783f d911 e83d
00000300: 4988 ab3e 1f8d 10bf 9ee3 fcbe 8b08 353e
00000310: 5a0c 80be abe7 cf3e 2e71 a3bf 771b 6a3f
00000320: ca2d ff3e 9f26 c93f 8c47 96be 1ba1 48bf
00000330: 8116 63bf 6839 0b3e 86b2 8fbf afe3 b83e
00000340: 2017 063f 61f7 b83d 3dc7 c43d 88a0 3dbe
00000350: 6768 c63d 22d5 99bf 3a92 90be ddb4 a13e
00000360: 8f91 0bbf d968 1e3e 01ba 753f 868d 053f
00000370: 078c c8bf 7199 5b3e 5660 683f d8f3 c1bf
00000380: c009 9dbf a1f7 373e 9540 e93f 8585 ecbd
00000390: 9fbf 1dbf 48be 373e 1c45 e0bf 026e 12c0
000003a0: b9d3 f13f 8e11 923f 04a8 bbbf d197 8ebd
000003b0: b804 f8bf 9914 673e a6e3 c3be 249b d53e
000003c0: 9994 ac3f 9153 0bbe ae01 b4bf f1af afbe
000003d0: 8e2e 5dbf 5b86 b4be d2e9 09bf 4edb 8cbf
000003e0: 6457 5abf 4f6f 993f d49f 25be 2ffd 843e
000003f0: 7a06 5d3f 1368 28bd ca06 353f 6e25 17c0

rnn.weight_ih_l0 f4 [1, 2]
-0.27063456 -0.9390993
00000000: 9d90 8abe d068 70bf

rnn.weight_ih_l0_reverse f4 [1, 2]
-0.12582912 -0.6195604
00000000: 59d9 00be 839b 1ebf

fc1.weight f4 [20, 9]
0.2999857 -0.37087873 0.22240375 -0.29432696 -0.041893203 0.32335222 -0.25582433 0.5308681
0.3706748 -0.44557595 0.09355538 -0.09426309 0.117480315 -0.3766967 0.22548881 -0.3027665
0.27963677 0.10756119 0.36561525 -0.17867614 -0.3652585 0.41653454 -0.17090489 -0.11882827
0.45273516 0.22951278 0.40074798 0.1939978 0.16507964 -0.029101018 -0.41983268 -0.044489775
0.03410535 0.23180117 -0.42678928 0.1676452 0.19497475 -0.31783974 -0.3213133 0.09506951
-0.4186832 -0.18341538 -0.21136805 -0.08216361 -0.022860264 0.31588423 -0.46223727 -0.05581676
-0.011568895 0.367665 0.0022366066 -0.030849107 -0.48424956 -0.40805924 0.18391743 -0.49483928
0.043802056 0.09825378 -0.3183322 0.15843181 -0.20625375 -0.07766531 -0.13987398 0.3429631
0.40379947 0.29666334 0.19565341 -0.14980753 -0.029846206 0.028148608 -0.052887402 -0.31267753
-0.4020568 -0.14409223 -0.33123243 -0.12528211 -0.08852498 -0.12773582 -0.012882891 -0.40286496
-0.4957455 -0.28355563 0.022194939 0.010490084 -0.012423492 0.23655666 0.16227596 0.31708035
0.07223785 -0.4171947 0.008636545 0.16272178 0.26993158 0.2764021 0.04635192 0.056068465
-0.024105946 -0.21281096 0.56134015 0.1104849 -0.2794027 0.0956112 0.13747458 0.1662043
0.31525934 0.05471527 -0.115845874 -0.28116944 -0.17955236 0.07449632 -0.17130102 0.340324
-0.09046313 -0.22433916 0.11701319 0.2351744 0.5351641 -0.11313736 -0.2015748 0.3077679
-0.3494348 0.15538517 -0.52960783 0.38442275 0.21790133 0.01134853 -0.3357689 0.014439672
-0.14040078 0.27610326 -0.44459873 -0.14367639 0.08305655 0.31129327 -0.51536036 0.13656865
0.03528965 0.12616673 0.06705423 0.05885307 0.34689894 0.17939079 -0.18582563 0.33134323
0.048126224 0.3039373 -0.25785565 -0.45636156 0.21211597 -0.039902497 -0.27605903 -0.05687233
-0.15787837 -0.40952945 -0.014365919 -0.27920985 -0.3358369 0.4248282 -0.021874225 -0.30216682
-0.15425712 0.3775383 -0.06250356 0.2282229 0.3950785 0.38438588 0.34295866 -0.04857105
-0.47919053 0.030989448 0.16582581 0.3750072 -0.2707703 -0.4566714 0.3747387 0.12671743
-0.05635065 0.38766035 0.2469313 0.13489571
00000000: ba97 993e d1e3 bdbe cfbd 633e 06b2 96be
00000010: 3598 2bbd 6c8e a53e 68fb 82be f9e6 073f
00000020: 16c9 bd3e 8822 e4be f799 bf3d 020d c1bd
00000030: 8599 f03d 64de c0be 8ae6 663e 3604 9bbe
00000040: 8d2c 8f3e 0b49 dc3d ec31 bb3e e1f6 36be
00000050: 2a03 bbbe 0444 d53e b101 2fbe 3c5c f3bd
00000060: e7cc e73e 6605 6b3e d72e cd3e 5ca7 463e
00000070: a30a 293e 4265 eebc 4ff4 d6be e93a 36bd
00000080: 0db2 0b3d 495d 6d3e 2084 dabe 2fab 2b3e
00000090: 76a7 473e e4bb a2be 2d83 a4be ceb3 c23d
000000a0: a55d d6be 3ed1 3bbe de70 58be 6545 a8bd
000000b0: 7345 bbbc 94bb a13e 5daa ecbe 1da0 64bd
000000c0: 768b 3dbc 963e bc3e 0894 123b 44b7 fcbc
000000d0: 8fef f7be 24ed d0be da54 3c3e 935b fdbe
000000e0: c969 333d 4739 c93d 70fc a2be f33b 223e
000000f0: 2f34 53be fd0e 9fbd 203b 0fbe dc98 af3e
00000100: cebe ce3e 42e4 973e 5e59 483e 2567 19be
00000110: 0880 f4bc e997 e63c 76a0 58bd 4517 a0be
00000120: 64da cdbe ea8c 13be 4c97 a9be f449 00be
00000130: 964c b5bd 2ecd 02be c312 53bc 5144 cebe
00000140: 5bd2 fdbe 342e 91be 29d2 b53c 9ade 2b3c
00000150: e78b 4bbc e93b 723e ab2b 263e 5b58 a23e
00000160: 70f1 933d 8b9a d5be 4c80 0d3c 8aa0 263e
00000170: 7934 8a3e 9384 8d3e 83db 3d3d 0ca8 653d
00000180: d579 c5bc 1eeb 59be fdb3 0f3f e845 e23d
00000190: df0d 8fbe cecf c33d 23c6 0c3e 7631 2a3e
000001a0: ac69 a13e 1e1d 603d 9a40 edbd 71f5 8fbe
000001b0: 93dc 37be 8791 983d 8969 2fbe f33e ae3e
000001c0: bc44 b9bd 2ab9 65be 9da4 ef3d 8fd1 703e
000001d0: 8400 093f 8fb4 e7bd a069 4ebe c193 9d3e
000001e0: 1ee9 b2be 4a1d 1f3e 6194 07bf 0fd3 c43e
000001f0: 8721 5f3e 2fef 393c e7e9 abbe 6094 6c3c
00000200: 39c5 0fbe 685d 8d3e 72a2 e3be e71f 13be
00000210: 8d19 aa3d d561 9f3e a8ee 03bf a7d8 0b3e
00000220: e18b 103d da31 013e ba53 893d eb0f 713d
00000230: bd9c b13e 38b2 373e 1349 3ebe d2a5 a93e
00000240: 0120 453d ab9d 9b3e a805 84be 39a8 e9be
00000250: ee34 593e cd70 23bd 9c57 8dbe f6f2 68bd
00000260: deaa 21be d8ad d1be 085f 6bbc 98f4 8ebe
00000270: d0f2 abbe 1583 d93e 9331 b3bc 9cb5 9abe
00000280: 94f5 1dbe b34c c13e de01 80bd 44b3 693e
00000290: bb47 ca3e 3ace c43e 4798 af3e 70f2 46bd
000002a0: 7658 f5be 95dd fd3c 3ece 293e f200 c03e
000002b0: 68a2 8abe d5d0 e9be c0dd bf3e 37c2 013e
000002c0: f0cf 66bd 6b7b c63e 8fdb 7c3e 1a22 0a3e

fc1.bias f4 [20]
-0.020260816 0.009334645 -0.079436444 -0.05281102 0.086448096 -0.061470907 -0.046888407 -0.08007686
0.04820461 -0.009653981 0.13064016 -0.08184491 0.0842913 0.05784652 -0.039912596 0.059971668
0.0019692995 0.012848128 -0.032530066 0.033245422
00000000: 03fa a5bc 57f0 183c 93af a2bd 5e50 58bd
00000010: b30b b13d ebc8 7bbd 0f0e 40bd 56ff a3bd
00000020: 3272 453d bb2b 1ebc 89c6 053e 4e9e a7bd
00000030: eba0 ac3d 79f0 6c3d 647b 23bd daa4 753d
00000040: 5d0f 013b f480 523c 3f3e 05bd 5a2c 083d

fc2.weight f4 [1, 20]
0.6450904 0.15359972 0.27524522 -0.31439915 0.3512063 -0.39127964 -0.415883 -0.51103675
-0.6018367 -0.5680438 0.0893419 -0.16219087 0.15648425 0.15685043 -0.2102465 0.2541838
0.18954816 0.37059313 -0.3287139 -0.22919312
00000000: a524 253f 3f49 1d3e f1ec 8c3e edf8 a0be
00000010: 50d1 b33e ce55 c8be 9eee d4be 4ed3 02bf
00000020: f811 1abf 526b 11bf e3f8 b63d 5d15 26be
00000030: 683d 203e 669d 203e dc4a 57be 6124 823e
00000040: ea18 423e 62be bd3e 304d a8be 9ab1 6abe
