MentorMix/checkpoint/MentorNet/MentorNet_Fold_2_Epoch_4.pt (torch, 6655 bytes, 7 tensors)

embedding_layer1.weight f4 [2, 2]
0	0xbf95652a	-1.1671498
1	0x3fa43068	1.2827272
2	0x3ea3fc07	0.3202822
3	0xbd361f09	-0.04446319

embedding_layer2.weight f4 [101, 5]
0	0x40050f3f	2.0790555
1	0x3fc0c95e	1.5061452
2	0xbee6f3ed	-0.45107976
3	0xbd7dd70e	-0.06197267
4	0x3eafeb9e	0.3435945
5	0x3f656275	0.8960336
6	0xbf69c287	-0.9131245
7	0x3e636de0	0.22209883
8	0x40198d9a	2.3992677
9	0x3ccc549a	0.024942685
10	0x3fcde64e	1.6085908
11	0x3f7939ed	0.9735401
12	0xbfa8fd15	-1.3202235
13	0x3f699657	0.91245025
14	0x4001c897	2.027868
15	0x3ee8b055	0.4544703
16	0x3fc70fca	1.5551693
17	0x3f6e51e6	0.9309372
18	0xbed9079e	-0.42388624
19	0xbff4fc92	-1.9139578
20	0x3f643ae9	0.8915239
21	0x3fb55f5b	1.4169725
22	0x3fa0e330	1.2569332
23	0x3fa13a30	1.2595882
24	0x3ec7cc77	0.39023182
25	0xbed537f0	-0.4164424
26	0x3e3c5fde	0.18395945
27	0x3f12f7a0	0.57409096
28	0x3dc180dc	0.09448406
29	0xbd11a3dc	-0.03555666
30	0xbba994e0	-0.005175218
31	0xbf6a5a86	-0.9154438
32	0x3f104e47	0.5636944
33	0xbf724b19	-0.9464584
34	0xbe0ff351	-0.14057662
35	0x3e84faba	0.2597254
36	0xbf943309	-1.1578075
37	0xbfaf5aff	-1.3699645
38	0xbe38bf1c	-0.18041652
39	0x3f254955	0.6456502
40	0x3ea3ab5c	0.31966674
41	0xbfaa9fa4	-1.3329968
42	0x3fd8f181	1.6948701
43	0x3f1c9ecd	0.6117981
44	0x3f8be77a	1.0930016
45	0xbfe7cae2	-1.810879
46	0xbe88de82	-0.2673226
47	0xbe386929	-0.18008865
48	0xbf8747f1	-1.056883
49	0x3f70e067	0.9409241
50	0xbfeaae6e	-1.8334482
51	0x3ef105d6	0.47074765
52	0x3fc2e87a	1.5227196
53	0x3ed01ed7	0.4064853
54	0x3eec8244	0.46193135
55	0x3f0885f3	0.5332939
56	0xbe90604a	-0.28198463
57	0x3f12e2c0	0.57377243
58	0xbfb41db5	-1.4071566
59	0x3fc01017	1.500491
60	0x3fd0102d	1.6254936
61	0x3f7710a2	0.96509755
62	0x3e4daa5c	0.20084518
63	0xbdfbfdc6	-0.12304263
64	0x3e824f89	0.25451306
65	0xbf77466e	-0.9659184
66	0xc004b796	-2.0737052
67	0x3fd0f9c9	1.6326228
68	0xbfea43ab	-1.8301901
69	0xbf965df6	-1.1747425
70	0xbd34ced7	-0.04414257
71	0x3ed15a5b	0.40889248
72	0x3ef6d246	0.482073
73	0x3fdf176c	1.7429023
74	0xbf46d3ef	-0.77667135
75	0x3ff35a18	1.901187
76	0x3f60d5f2	0.87826455
77	0x3f7665cc	0.9624908
78	0xbe42c7c4	-0.19021517
79	0xbfbd95b2	-1.4811308
80	0x3f6b8431	0.91998583
81	0xbfc471cd	-1.5347229
82	0x3dfc1466	0.12308578
83	0xbf2aa476	-0.666572
84	0xbf8f7873	-1.1208633
85	0x3fa4202b	1.2822317
86	0x3f674338	0.9033694
87	0x3eba2186	0.363537
88	0xbe83bd4e	-0.25730366
89	0xbf87a625	-1.0597578
90	0xbc5a96a6	-0.013341581
91	0xbf1a014d	-0.60158235
92	0xbe0a9063	-0.13531642
93	0x3eecd951	0.4625955
94	0xbf785fb5	-0.9702104
95	0xbf325ae8	-0.6966996
96	0x3eafa48e	0.34305233
97	0x3fd08c82	1.629288
98	0xbf9a2107	-1.2041329
99	0x3e835928	0.25653958
100	0xbf3c387e	-0.735237
101	0xbf4f19e9	-0.8089891
102	0xbf1520de	-0.58253276
103	0xbe062d35	-0.13103183
104	0xbf21894d	-0.6310013
105	0x3f591608	0.8479924
106	0x3d90f73d	0.07078407
107	0x3f23ba1c	0.63955855
108	0xbe7055a0	-0.23470163
109	0x3f21c0ba	0.631847
110	0xc00356b9	-2.0521681
111	0xbfb7eef1	-1.4369794
112	0x3f87195a	1.0554612
113	0xbe514e33	-0.20439987
114	0x3e78df38	0.24303901
115	0xbcf36691	-0.029711993
116	0xbfccb33a	-1.5992196
117	0x401447f9	2.3168929
118	0xbeea9cbc	-0.45822704
119	0xbf8f3a81	-1.1189729
120	0x3e85b330	0.26113272
121	0xbf4c2771	-0.7974768
122	0x3e5d6f40	0.2162447
123	0x3f7b4367	0.9814972
124	0x3ebadd35	0.36496893
125	0x3e70f13f	0.23529528
126	0xbea6b18c	-0.32557333
127	0x3e68a85c	0.22720474
128	0x3c1027f9	0.008798593
129	0xbe4c57c7	-0.1995536
130	0xbf22b5eb	-0.63558835
131	0xbd3d358f	-0.046193656
132	0xbf7b1abd	-0.98087674
133	0xbe106291	-0.141001
134	0x3f41063e	0.7540015
135	0x3e05e7ec	0.13076752
136	0x3e98cdcd	0.29844514
137	0xbf4416c8	-0.7659726
138	0x3f40b2cb	0.75272816
139	0xbd5413ee	-0.05177682
140	0x3d9151be	0.07095669
141	0xbf729041	-0.94751364
142	0xbf469cbf	-0.77582926
143	0xc008b81a	-2.1362367
144	0xbfe985c8	-1.8243952
145	0xbea7d18b	-0.32777056
146	0x3dbcadd0	0.092128396
147	0x3fb38e1b	1.4027742
148	0x3cde5a72	0.027142737
149	0x3d8daafa	0.06917377
150	0x3f116d9e	0.5680789
151	0x3f81a8b9	1.0129615
152	0x3f2f97c1	0.68590933
153	0x3fac4714	1.3459191
154	0x3f10c522	0.565508
155	0xc0030395	-2.0470936
156	0x3f13e414	0.57769895
157	0xbf97563e	-1.1823194
158	0xbe5d7ce8	-0.21629679
159	0xbf9b8835	-1.2150942
160	0x3c053dce	0.008132411
161	0xbecbea0b	-0.39826998
162	0x3e60d698	0.21956861
163	0xbf66beac	-0.9013469
164	0xbf27eb18	-0.655931
165	0x3ecff08d	0.40613213
166	0xbcc1c994	-0.02365569
167	0x3ed0308d	0.4066204
168	0x3dab9119	0.083772846
169	0x3fa88e5a	1.3168442
170	0xbbcca694	-0.0062454436
171	0xbf33d2ff	-0.7024383
172	0x3f2c95a6	0.67415845
173	0x3ebc6d8d	0.3680233
174	0x3ff9f557	1.9527997
175	0xbed2e621	-0.411912
176	0x3e1b38a6	0.15158328
177	0x3e7be0da	0.24597493
178	0x3dfb4e5e	0.12270807
179	0x3e844b32	0.2583862
180	0xbf162f5c	-0.58666015
181	0x3f0645a0	0.5244999
182	0x3e5f177f	0.21786307
183	0xbf9116d1	-1.1335088
184	0x3f1c8dfa	0.6115414
185	0xbf2af45a	-0.667791
186	0x3ef7d625	0.48405567
187	0x3f36f45d	0.7146662
188	0xbfd75f1b	-1.6825899
189	0xbcd9da63	-0.026593393
190	0x3e1df54a	0.15425602
191	0x3facb5e9	1.3493015
192	0xbf273892	-0.65320694
193	0xc0326cb0	-2.7878838
194	0x3ee1142f	0.4396071
195	0xbf72da8d	-0.9486473
196	0x3e8bfafd	0.27339926
197	0xbf223082	-0.6335527
198	0xbf9d6cae	-1.2298791
199	0x3ef11d46	0.47092646
200	0xbe408d24	-0.18803841
201	0x3ec84bc4	0.39120305
202	0xbfaf357b	-1.3688196
203	0xbdc6ce58	-0.09707326
204	0x3fb4a50b	1.4112867
205	0xbf920c38	-1.1409979
206	0xbf8648b5	-1.0490938
207	0xbf84cb2e	-1.0374506
208	0xbfc897ac	-1.5671287
209	0x3ffd265f	1.9777335
210	0xbf253007	-0.6452641
211	0x3edc3de2	0.43015963
212	0x40853cf0	4.1636887
213	0x3f93aabe	1.1536481
214	0x3f6a58b8	0.91541624
215	0xbf467bd2	-0.77532685
216	0xbf60c799	-0.8780456
217	0x3e8e2a58	0.2776668
218	0x4009ddd9	2.1541655
219	0x3f7ce159	0.98781353
220	0x3db56301	0.08856774
221	0x3fef8a37	1.8714055
222	0x3f7ea1c2	0.9946557
223	0x3f58941f	0.84601015
224	0x3e664740	0.22488117
225	0x3f90ed9d	1.1322514
226	0x3f3f216c	0.7466037
227	0x3f655215	0.8957837
228	0x3e7d1e4e	0.24718592
229	0x3f0e2991	0.55532175
230	0x3eaaf2f5	0.33388487
231	0x3fd17b48	1.6365747
232	0x3e8c60c3	0.27417573
233	0xbddca1f2	-0.10773076
234	0x3e2739ef	0.16330694
235	0xbf4f15f0	-0.8089285
236	0x3f89ecd2	1.0775397
237	0x3ee958ba	0.45575505
238	0x3c9017f9	0.017589556
239	0xbe51b730	-0.20480037
240	0x3f20e598	0.6285033
241	0xbf6a6645	-0.915623
242	0x3ea343fb	0.31887802
243	0xbf98c5b2	-1.1935332
244	0x3ef6c796	0.48199147
245	0x3c0ee262	0.008720966
246	0x3e420f7b	0.18951218
247	0xbc4087d2	-0.011751132
248	0xbfb04c11	-1.3773214
249	0x3f7cd452	0.98761475
250	0xbf4b9623	-0.79525965
251	0xbf9610dd	-1.1723896
252	0x3eadafe5	0.3392326
253	0xbd2dc2b8	-0.042422026
254	0xbf2ae35e	-0.66753185
255	0xbfcd7f13	-1.6054405

rnn.weight_ih_l0 f4 [1, 2]
0	0xbf4c7da6	-0.79879224
1	0x3f2ebccd	0.6825684

rnn.weight_ih_l0_reverse f4 [1, 2]
0	0x3e540ee6	0.20708808
1	0xbf5c380f	-0.8602304

fc1.weight f4 [20, 9]
0	0x3e9e19da	0.30879098
1	0xbeb4a5df	-0.352828
2	0x3d29aa2d	0.041422058
3	0xbdbe92bf	-0.09305333
4	0x3e059207	0.13043986
5	0xbe8cfbe7	-0.27535936
6	0x3e7b258a	0.24526039
7	0xbe86253f	-0.26200292
8	0xbea88d78	-0.32920432
9	0x3ec7a268	0.38991094
10	0xbeafb77d	-0.34319678
11	0xbb6c44de	-0.003605179
12	0x3e2fd7d1	0.17172171
13	0x3eb4baae	0.35298675
14	0xbea658fc	-0.32489765
15	0x3da8e114	0.08246055
16	0x3ee21220	0.44154453
17	0x3eb9dacf	0.3629975
18	0x3ea70497	0.3262069
19	0x3eb73934	0.3578583
20	0x3eeec42a	0.46634036
21	0x3e2584b7	0.16163908
22	0x3d335c54	0.043789223
23	0x3da1c25a	0.07898398
24	0xbe91efa1	-0.28503135
25	0xbebaadfd	-0.36460868
26	0xbe17abf2	-0.14811686
27	0xbd2b9128	-0.04188648
28	0xbea6db74	-0.32589304
29	0x3e0eb10d	0.13934727
30	0xbe4723a0	-0.19447184
31	0xbcdd10ae	-0.026985493
32	0x3d9dd56e	0.07706724
33	0xbe851d00	-0.25998688
34	0x3ce1426c	0.027497493
35	0x3eb12102	0.34595495
36	0x3e3d635e	0.18494937
37	0xbd89815d	-0.06714127
38	0xbeab5b99	-0.3346832
39	0x3e52bde0	0.20580244
40	0xbecd4e70	-0.40098906
41	0xbdc028f8	-0.09382814
42	0x3ed7ee95	0.4217421
43	0x3d28cb81	0.0412097
44	0x3edfdb2a	0.43721896
45	0x3dceb8c2	0.100938335
46	0xbe908014	-0.28222716
47	0xbe207698	-0.1567024
48	0x3e21b5d6	0.15792021
49	0x3e94c61e	0.290574
50	0xbe7a0c22	-0.24418691
51	0x3e93255f	0.2873945
52	0x3ed5fe63	0.41795644
53	0x3cf0bff0	0.029388398
54	0xbe0f4d68	-0.13994372
55	0xbeb45624	-0.3522197
56	0x3eee9c9f	0.46603867
57	0xbeccb38f	-0.39980742
58	0x3e6f4174	0.23364812
59	0x3cdecca7	0.027197195
60	0xbec23a42	-0.37935072
61	0x3e8bb706	0.27288073
62	0x3e8d6948	0.27619386
63	0xbe95ad41	-0.29233745
64	0xbed4af06	-0.41539782
65	0x3e8bb55d	0.27286807
66	0xbe517599	-0.20455016
67	0x3eaace78	0.33360648
68	0x3e850046	0.2597677
69	0xbd444ae4	-0.047922984
70	0x3ebee437	0.3728349
71	0xbc0642ba	-0.00819462
72	0xbe7aa24c	-0.24475974
73	0xbed63744	-0.4183904
74	0xbd4ee924	-0.05051531
75	0x3dece0d7	0.11566322
76	0x3e73d644	0.23812205
77	0x3e66e84f	0.22549556
78	0xbee822bb	-0.45338997
79	0x3d641c9c	0.055691347
80	0xbc5723ee	-0.013131125
81	0xbe44fc15	-0.19236787
82	0x3e7500cc	0.23926085
83	0x3e50aead	0.20379134
84	0xbea6d202	-0.32582098
85	0x3dfd1ec6	0.12359385
86	0xbdd6988b	-0.10478314
87	0xbefd03db	-0.49417004
88	0x3eb0eca7	0.3455555
89	0x3e473c82	0.19456676
90	0x3eb7bd1e	0.35886472
91	0x3da4594b	0.08024844
92	0x3ed4636c	0.41482103
93	0x3eaede4a	0.34153968
94	0x3ead40cb	0.33838496
95	0x3e9bdfdb	0.30444226
96	0xbea6c7e4	-0.3257438
97	0xbe67bd82	-0.22630885
98	0x3cfabe31	0.030608268
99	0x3e908466	0.28226012
100	0x3eaeaddb	0.34117016
101	0xbec0336a	-0.37539226
102	0x3d91fc20	0.07128167
103	0xbe06f1f1	-0.13178231
104	0xbd82e72e	-0.0639175
105	0x3d81cb4d	0.06337605
106	0xbec80b46	-0.390711
107	0xbe4ebc4f	-0.20189022
108	0x3efdd157	0.49573776
109	0xbe9c1088	-0.30481362
110	0x3b8c649c	0.0042844545
111	0xbe9d9ee5	-0.3078529
112	0xbd5bf1b5	-0.053697307
113	0x3c37eb84	0.011225585
114	0xbec0a0f9	-0.37622812
115	0xbea27cf0	-0.31735945
116	0x3df21278	0.11819929
117	0xbe6b71d5	-0.22992642
118	0xbeae8000	-0.3408203
119	0xbdde4824	-0.108536035
120	0x3ea59c83	0.3234597
121	0x3e43c5e7	0.19118463
122	0x3e9b3831	0.30316308
123	0xbe6d59e7	-0.23178826
124	0x3e83a647	0.25712797
125	0x3db53d71	0.0884961
126	0x3cc0ea3f	0.023549197
127	0x3edb88f0	0.42877913
128	0x3ddb1487	0.10697275
129	0xbebc8291	-0.36818364
130	0xbd072632	-0.03299541
131	0xbdf39119	-0.118929096
132	0xbebe6046	-0.37182826
133	0xbcda7b14	-0.026670016
134	0x3de8196a	0.11332972
135	0x3eb0edeb	0.34556517
136	0x3ed316c6	0.41228312
137	0x3ec0c244	0.37648213
138	0x3d8737d0	0.06602442
139	0xbdeaa268	-0.11456758
140	0x3bf2d813	0.007411012
141	0x3e94a1e2	0.29029757
142	0x3e1189d1	0.14212729
143	0x3e843eed	0.2582926
144	0xbd4ab4dc	-0.049488887
145	0x3eb5fef6	0.35546082
146	0x3e069b61	0.1314521
147	0xbec40f28	-0.38292813
148	0xbeab444e	-0.3345055
149	0xbeb32671	-0.34990266
150	0x3ed1f475	0.41006818
151	0x3e5b1667	0.21395265
152	0x3e690872	0.22757128
153	0x3ec70859	0.38873556
154	0xbda8ef89	-0.08248813
155	0x3d9b4126	0.075807855
156	0xbe0d55ab	-0.13802211
157	0xbeb8494d	-0.35993424
158	0xbca1c755	-0.01974837
159	0xbd8206a9	-0.063489266
160	0xbea107c7	-0.31451246
161	0x3da9bda1	0.08288122
162	0xbe095be9	-0.13413967
163	0x3e8c6921	0.27423957
164	0xbeb8d3e4	-0.3609916
165	0xbe648ef6	-0.2232016
166	0xbe33adeb	-0.17546813
167	0xbe527a5c	-0.20554489
168	0x3e3afdd5	0.18260892
169	0xbe84493b	-0.2583712
170	0x3e1b1153	0.15143327
171	0xbee22894	-0.44171584
172	0xbee1c32a	-0.4409421
173	0x3ebab16f	0.36463496
174	0x3df67f7b	0.12036034
175	0xbeb97a70	-0.36226225
176	0x3c1e3765	0.009656762
177	0xbe96a32f	-0.29421374
178	0xbed4dc30	-0.4157424
179	0x3edb9e2a	0.42894107

fc1.bias f4 [20]
0	0x3d9011ad	0.070346214
1	0x3d368979	0.044564698
2	0xbc6b11c8	-0.014347501
3	0x3d650909	0.05591682
4	0x3d3139cf	0.04326802
5	0x3cab3f5c	0.020904236
6	0x3b49b46f	0.0030777713
7	0xbd2e32de	-0.04252898
8	0xbd295e8d	-0.041349936
9	0xbd70d034	-0.058792308
10	0xbd3ee84c	-0.046608254
11	0x3d104ce4	0.03522958
12	0xbd82d848	-0.063889086
13	0xbd4ca242	-0.04995943
14	0x3d5cf907	0.05394843
15	0x3c98ee93	0.018668449
16	0xbd33c0c5	-0.04388501
17	0xbcc3f43f	-0.023920177
18	0xbd858d7b	-0.06521126
19	0xba35a8d5	-0.000692976

fc2.weight f4 [1, 20]
0	0xbda242d1	-0.079229005
1	0x3e7c12e5	0.24616583
2	0x3e8fc0db	0.28076825
3	0x3e65af4e	0.22430155
4	0x3f1613a1	0.586237
5	0xbe8be40b	-0.2732242
6	0xbc6d1ea1	-0.0144726345
7	0x3edfe769	0.4373124
8	0x3e54435e	0.20728824
9	0x3f0e6885	0.55628234
10	0x3e9854ba	0.2975214
11	0xbe430fa8	-0.19048941
12	0xbd1ddd43	-0.03854109
13	0x3eaa05c4	0.33207524
14	0xbe6973b7	-0.22798048
15	0xbeecac54	-0.46225226
16	0x3ebde5f7	0.37089512
17	0xbec0318f	-0.3753781
18	0x3e3e7fd6	0.18603453
19	0x3f0ea96e	0.5572728
