MentorMix/checkpoint/MentorNet/MentorNet_Fold_2_Epoch_8.pt (torch, 6655 bytes, 7 tensors)

embedding_layer1.weight f4 [2, 2]
0	0xbf9337c6	-1.1501396
1	0x3fa23ff1	1.2675763
2	0x3ea3fc07	0.3202822
3	0xbd361f09	-0.04446319

embedding_layer2.weight f4 [101, 5]
0	0x40050ef0	2.0790367
1	0x3fc0c9bd	1.5061566
2	0xbee6f307	-0.4510729
3	0xbd7deb98	-0.061992258
4	0x3eafedf9	0.34361246
5	0x3f656275	0.8960336
6	0xbf69c287	-0.9131245
7	0x3e636de0	0.22209883
8	0x40198d9a	2.3992677
9	0x3ccc549a	0.024942685
10	0x3fcde64e	1.6085908
11	0x3f7939ed	0.9735401
12	0xbfa8fd15	-1.3202235
13	0x3f699657	0.91245025
14	0x4001c897	2.027868
15	0x3ee8b055	0.4544703
16	0x3fc70fca	1.5551693
17	0x3f6e51e6	0.9309372
18	0xbed9079e	-0.42388624
19	0xbff4fc92	-1.9139578
20	0x3f643ae9	0.8915239
21	0x3fb55f5b	1.4169725
22	0x3fa0e330	1.2569332
23	0x3fa13a30	1.2595882
24	0x3ec7cc77	0.39023182
25	0xbed537f0	-0.4164424
26	0x3e3c5fde	0.18395945
27	0x3f12f7a0	0.57409096
28	0x3dc180dc	0.09448406
29	0xbd11a3dc	-0.03555666
30	0xbba994e0	-0.005175218
31	0xbf6a5a86	-0.9154438
32	0x3f104e47	0.5636944
33	0xbf724b19	-0.9464584
34	0xbe0ff351	-0.14057662
35	0x3e84faba	0.2597254
36	0xbf943309	-1.1578075
37	0xbfaf5aff	-1.3699645
38	0xbe38bf1c	-0.18041652
39	0x3f254955	0.6456502
40	0x3ea3ab5c	0.31966674
41	0xbfaa9fa4	-1.3329968
42	0x3fd8f181	1.6948701
43	0x3f1c9ecd	0.6117981
44	0x3f8be77a	1.0930016
45	0xbfe7cae2	-1.810879
46	0xbe88de82	-0.2673226
47	0xbe386929	-0.18008865
48	0xbf8747f1	-1.056883
49	0x3f70e067	0.9409241
50	0xbfeab350	-1.8335972
51	0x3ef10b12	0.47078758
52	0x3fc2e3eb	1.5225805
53	0x3ed00daf	0.4063544
54	0x3eec927d	0.46205512
55	0x3f0885f3	0.5332939
56	0xbe90604a	-0.28198463
57	0x3f12e2c0	0.57377243
58	0xbfb41db5	-1.4071566
59	0x3fc01017	1.500491
60	0x3fd0102d	1.6254936
61	0x3f7710a2	0.96509755
62	0x3e4daa5c	0.20084518
63	0xbdfbfdc6	-0.12304263
64	0x3e824f89	0.25451306
65	0xbf77466e	-0.9659184
66	0xc004b796	-2.0737052
67	0x3fd0f9c9	1.6326228
68	0xbfea43ab	-1.8301901
69	0xbf965df6	-1.1747425
70	0xbd34ced7	-0.04414257
71	0x3ed15a5b	0.40889248
72	0x3ef6d246	0.482073
73	0x3fdf176c	1.7429023
74	0xbf46d3ef	-0.77667135
75	0x3ff35a18	1.901187
76	0x3f60d5f2	0.87826455
77	0x3f7665cc	0.9624908
78	0xbe42c7c4	-0.19021517
79	0xbfbd95b2	-1.4811308
80	0x3f6b8431	0.91998583
81	0xbfc471cd	-1.5347229
82	0x3dfc1466	0.12308578
83	0xbf2aa476	-0.666572
84	0xbf8f7873	-1.1208633
85	0x3fa4202b	1.2822317
86	0x3f674338	0.9033694
87	0x3eba2186	0.363537
88	0xbe83bd4e	-0.25730366
89	0xbf87a625	-1.0597578
90	0xbc5a96a6	-0.013341581
91	0xbf1a014d	-0.60158235
92	0xbe0a9063	-0.13531642
93	0x3eecd951	0.4625955
94	0xbf785fb5	-0.9702104
95	0xbf325ae8	-0.6966996
96	0x3eafa48e	0.34305233
97	0x3fd08c82	1.629288
98	0xbf9a2107	-1.2041329
99	0x3e835928	0.25653958
100	0xbf3c89e5	-0.7364791
101	0xbf4eba1c	-0.8075273
102	0xbf157113	-0.5837566
103	0xbe07fcc6	-0.13280019
104	0xbf214813	-0.630006
105	0x3f591608	0.8479924
106	0x3d90f73d	0.07078407
107	0x3f23ba1c	0.63955855
108	0xbe7055a0	-0.23470163
109	0x3f21c0ba	0.631847
110	0xc00356b9	-2.0521681
111	0xbfb7eef1	-1.4369794
112	0x3f87195a	1.0554612
113	0xbe514e33	-0.20439987
114	0x3e78df38	0.24303901
115	0xbcf36691	-0.029711993
116	0xbfccb33a	-1.5992196
117	0x401447f9	2.3168929
118	0xbeea9cbc	-0.45822704
119	0xbf8f3a81	-1.1189729
120	0x3e85b330	0.26113272
121	0xbf4c2771	-0.7974768
122	0x3e5d6f40	0.2162447
123	0x3f7b4367	0.9814972
124	0x3ebadd35	0.36496893
125	0x3e70f13f	0.23529528
126	0xbea6b18c	-0.32557333
127	0x3e68a85c	0.22720474
128	0x3c1027f9	0.008798593
129	0xbe4c57c7	-0.1995536
130	0xbf22b5eb	-0.63558835
131	0xbd3d358f	-0.046193656
132	0xbf7b1abd	-0.98087674
133	0xbe106291	-0.141001
134	0x3f41063e	0.7540015
135	0x3e05e7ec	0.13076752
136	0x3e98cdcd	0.29844514
137	0xbf4416c8	-0.7659726
138	0x3f40b2cb	0.75272816
139	0xbd5413ee	-0.05177682
140	0x3d9151be	0.07095669
141	0xbf729041	-0.94751364
142	0xbf469cbf	-0.77582926
143	0xc008b81a	-2.1362367
144	0xbfe985c8	-1.8243952
145	0xbea7d18b	-0.32777056
146	0x3dbcadd0	0.092128396
147	0x3fb38e1b	1.4027742
148	0x3cde5a72	0.027142737
149	0x3d8daafa	0.06917377
150	0x3f0e2fac	0.5554149
151	0x3f838403	1.0274662
152	0x3f2bc843	0.6710245
153	0x3faa7387	1.3316506
154	0x3f148dbd	0.58028775
155	0xc0030395	-2.0470936
156	0x3f13e414	0.57769895
157	0xbf97563e	-1.1823194
158	0xbe5d7ce8	-0.21629679
159	0xbf9b8835	-1.2150942
160	0x3c053dce	0.008132411
161	0xbecbea0b	-0.39826998
162	0x3e60d698	0.21956861
163	0xbf66beac	-0.9013469
164	0xbf27eb18	-0.655931
165	0x3ecff08d	0.40613213
166	0xbcc1c994	-0.02365569
167	0x3ed0308d	0.4066204
168	0x3dab9119	0.083772846
169	0x3fa88e5a	1.3168442
170	0xbbcca694	-0.0062454436
171	0xbf33d2ff	-0.7024383
172	0x3f2c95a6	0.67415845
173	0x3ebc6d8d	0.3680233
174	0x3ff9f557	1.9527997
175	0xbed2e621	-0.411912
176	0x3e1b38a6	0.15158328
177	0x3e7be0da	0.24597493
178	0x3dfb4e5e	0.12270807
179	0x3e844b32	0.2583862
180	0xbf162f5c	-0.58666015
181	0x3f0645a0	0.5244999
182	0x3e5f177f	0.21786307
183	0xbf9116d1	-1.1335088
184	0x3f1c8dfa	0.6115414
185	0xbf2af45a	-0.667791
186	0x3ef7d625	0.48405567
187	0x3f36f45d	0.7146662
188	0xbfd75f1b	-1.6825899
189	0xbcd9da63	-0.026593393
190	0x3e1df54a	0.15425602
191	0x3facb5e9	1.3493015
192	0xbf273892	-0.65320694
193	0xc0326cb0	-2.7878838
194	0x3ee1142f	0.4396071
195	0xbf72da8d	-0.9486473
196	0x3e8bfafd	0.27339926
197	0xbf223082	-0.6335527
198	0xbf9d6cae	-1.2298791
199	0x3ef11d46	0.47092646
200	0xbe13859b	-0.14406435
201	0x3eb2f335	0.34951177
202	0xbfa94482	-1.3224032
203	0xbd5c933a	-0.053851344
204	0x3faf303b	1.3686594
205	0xbf920c38	-1.1409979
206	0xbf8648b5	-1.0490938
207	0xbf84cb2e	-1.0374506
208	0xbfc897ac	-1.5671287
209	0x3ffd265f	1.9777335
210	0xbf253007	-0.6452641
211	0x3edc3de2	0.43015963
212	0x40853cf0	4.1636887
213	0x3f93aabe	1.1536481
214	0x3f6a58b8	0.91541624
215	0xbf467bd2	-0.77532685
216	0xbf60c799	-0.8780456
217	0x3e8e2a58	0.2776668
218	0x4009ddd9	2.1541655
219	0x3f7ce159	0.98781353
220	0x3db56301	0.08856774
221	0x3fef8a37	1.8714055
222	0x3f7ea1c2	0.9946557
223	0x3f58941f	0.84601015
224	0x3e664740	0.22488117
225	0x3f90ed9d	1.1322514
226	0x3f3f216c	0.7466037
227	0x3f655215	0.8957837
228	0x3e7d1e4e	0.24718592
229	0x3f0e2991	0.55532175
230	0x3eaaf2f5	0.33388487
231	0x3fd17b48	1.6365747
232	0x3e8c60c3	0.27417573
233	0xbddca1f2	-0.10773076
234	0x3e2739ef	0.16330694
235	0xbf4f15f0	-0.8089285
236	0x3f89ecd2	1.0775397
237	0x3ee958ba	0.45575505
238	0x3c9017f9	0.017589556
239	0xbe51b730	-0.20480037
240	0x3f20e598	0.6285033
241	0xbf6a6645	-0.915623
242	0x3ea343fb	0.31887802
243	0xbf98c5b2	-1.1935332
244	0x3ef6c796	0.48199147
245	0x3c0ee262	0.008720966
246	0x3e420f7b	0.18951218
247	0xbc4087d2	-0.011751132
248	0xbfb04c11	-1.3773214
249	0x3f7cd452	0.98761475
250	0xbf5a9c76	-0.8539499
251	0xbf8eb30e	-1.1148393
252	0x3e909e88	0.2824595
253	0xbdcf2a1c	-0.101154536
254	0xbf1be21c	-0.6089189
255	0xbfcd7f13	-1.6054405

rnn.weight_ih_l0 f4 [1, 2]
0	0xbf50123d	-0.8127783
1	0x3f2b0dd6	0.66817987

rnn.weight_ih_l0_reverse f4 [1, 2]
0	0x3df0683c	0.11738631
1	0xbf73810f	-0.951188

fc1.weight f4 [20, 9]
0	0x3e4152ac	0.18879193
1	0xbe6f7aaa	-0.23386636
2	0x3d98f64e	0.07468854
3	0xbdabbc66	-0.083855435
4	0x3e301237	0.17194448
5	0xbe95e116	-0.2927329
6	0x3e7048d7	0.23465286
7	0xbe13d44f	-0.14436458
8	0xbee99b40	-0.4562626
9	0x3ebd04f7	0.3691785
10	0xbea50485	-0.3223001
11	0xbd8005b5	-0.062510885
12	0x3e17b4ba	0.14815035
13	0x3e952824	0.29132187
14	0xbe8d7395	-0.27627245
15	0x3dfe8c6e	0.124291286
16	0x3ef1b5eb	0.47209105
17	0x3ee0cf30	0.43908072
18	0x3eb5ca54	0.35505927
19	0x3ea8df1e	0.32982725
20	0x3ef05807	0.4694216
21	0x3e30b914	0.17258102
22	0x3d1c866e	0.03821414
23	0x3dab28eb	0.08357414
24	0xbe8de8fe	-0.2771682
25	0xbec0cab4	-0.3765465
26	0xbdb8b4ba	-0.09018846
27	0xbd5e6edc	-0.054304942
28	0xbea0661c	-0.31327903
29	0x3df93f87	0.1217032
30	0xbe19f4e1	-0.1503482
31	0xbdaa7aed	-0.083242275
32	0x3d406d9a	0.046979524
33	0xbe48c6e2	-0.19607118
34	0x3d54889a	0.051888086
35	0x3edd96f6	0.43279237
36	0x3e1d1a08	0.15341961
37	0xbd153d14	-0.0364352
38	0xbe9db181	-0.30799487
39	0x3e466e38	0.19377983
40	0xbea17e68	-0.31541753
41	0xbdfd3ef0	-0.1236552
42	0x3eb77545	0.35831657
43	0x3da06890	0.07832444
44	0x3ef8af21	0.48571113
45	0x3d9e6e13	0.07735839
46	0xbe84d56e	-0.25944084
47	0xbdf4986e	-0.11943136
48	0x3e22f170	0.15912414
49	0x3eb78824	0.35846055
50	0xbe7a28d6	-0.2442964
51	0x3e6df0d5	0.23236401
52	0x3ed36b6b	0.4129289
53	0xbd056515	-0.032567102
54	0xbe09f459	-0.13472117
55	0xbeb6f933	-0.35737
56	0x3eec6946	0.46174067
57	0xbed13ebf	-0.40868184
58	0x3e744c33	0.23857193
59	0x3cf7d65e	0.030253585
60	0xbecd476b	-0.4009355
61	0x3e895dfb	0.26829514
62	0x3e8a85b5	0.27055135
63	0xbe877e47	-0.2646353
64	0xbee272ff	-0.4422836
65	0x3e7631f7	0.24042498
66	0xbe4ae5f6	-0.19814286
67	0x3e8074b3	0.25089034
68	0x3e89eba5	0.26937595
69	0x3c3d80c5	0.011566346
70	0x3ebf5a29	0.37373474
71	0x3d2fdf94	0.04293783
72	0xbe51fc4c	-0.205064
73	0xbeea17f9	-0.45721415
74	0xbd98f91f	-0.07469391
75	0x3de60c21	0.11232782
76	0x3e25a5a8	0.16176474
77	0x3e6398cb	0.22226255
78	0xbecb5fe8	-0.39721608
79	0x3d3e64e0	0.04648292
80	0x3ce8f813	0.028438604
81	0xbe302b3c	-0.17203993
82	0x3e60f920	0.21970034
83	0x3e35beb3	0.17748527
84	0xbea7872a	-0.3272031
85	0x3d7bd95e	0.061486594
86	0xbdbd9075	-0.092560686
87	0xbee48096	-0.44629353
88	0x3eacff38	0.33788466
89	0x3e7a4d01	0.24443437
90	0x3ed16de8	0.40904164
91	0x3cfcb319	0.03084712
92	0x3eb71034	0.3575455
93	0x3e9ffb81	0.3124657
94	0x3e82d602	0.255539
95	0x3e9e9fbe	0.3098125
96	0xbe8c4276	-0.27394456
97	0xbe725a61	-0.2366729
98	0x3da14309	0.07874114
99	0x3e6e38bd	0.23263831
100	0x3ec79aff	0.3898544
101	0xbea55085	-0.32287994
102	0x3da8081c	0.08204672
103	0xbd13e9ab	-0.036111515
104	0xbda6ea19	-0.08150119
105	0x3aef5103	0.0018258396
106	0xbeb993e9	-0.3624566
107	0xbe8f515a	-0.27991754
108	0x3f011940	0.50429153
109	0xbea05df0	-0.3132167
110	0x3c274424	0.010209117
111	0xbe9cc604	-0.30619824
112	0xbd2cbb9d	-0.04217111
113	0x3c91124b	0.017708918
114	0xbec8eb62	-0.39242083
115	0xbea848da	-0.3286808
116	0x3db1c500	0.08680153
117	0xbe56af43	-0.20965295
118	0xbeb891da	-0.36048776
119	0xbe162237	-0.1466149
120	0x3ea6864e	0.3252434
121	0x3de72b29	0.11287529
122	0x3e921138	0.28528762
123	0xbe2ecf6b	-0.17071311
124	0x3e8595d2	0.26090866
125	0x3e27c795	0.16384728
126	0x3b4a64eb	0.0030882906
127	0x3ee59884	0.44842923
128	0x3e16408b	0.14673059
129	0xbebd53cb	-0.3697799
130	0x3d348120	0.044068456
131	0xbe07c87a	-0.1326007
132	0xbeda2f1a	-0.4261406
133	0xbce68245	-0.02813829
134	0x3d92462b	0.0714229
135	0x3e9baa4e	0.3040337
136	0x3ee7f777	0.45305988
137	0x3ecf621b	0.40504536
138	0x3dbb76f7	0.0915355
139	0xbdbfd063	-0.093659185
140	0xbb73c1bd	-0.0037194334
141	0x3ea0b472	0.3138767
142	0x3e305fce	0.17224047
143	0x3e533fb1	0.20629765
144	0x3c9e4658	0.019320652
145	0x3e935e50	0.28782892
146	0x3dfa8bff	0.122337334
147	0xbec096d4	-0.37615073
148	0xbebf99ce	-0.3742203
149	0xbe9dff8d	-0.30859032
150	0x3ed87470	0.42276335
151	0x3e22737d	0.15864368
152	0x3e9463db	0.28982434
153	0x3ed1ec9d	0.41000834
154	0xbdd4e23d	-0.10394714
155	0x3dd05e22	0.101742044
156	0xbe1ec5b6	-0.15505108
157	0xbe9f12a6	-0.31068915
158	0xbc1f8ef0	-0.009738669
159	0xbdddd69d	-0.1083195
160	0xbeab5745	-0.3346502
161	0x3d1d296f	0.038369592
162	0xbdb5ab01	-0.08870507
163	0x3e6b327c	0.22968477
164	0xbea13e3a	-0.31492788
165	0xbe30af7e	-0.17254445
166	0xbe2f7178	-0.17133129
167	0xbe49943e	-0.19685456
168	0x3e522f3f	0.20525835
169	0xbe85f6aa	-0.26164752
170	0x3e6d2b56	0.23161063
171	0xbeef0ca8	-0.46689343
172	0xbed5000b	-0.41601595
173	0x3ea50887	0.32233068
174	0x3dcec32e	0.10095821
175	0xbed4f9c1	-0.41596797
176	0x3cbdf747	0.0231892
177	0xbe82b0fa	-0.25525647
178	0xbec13c78	-0.37741446
179	0x3f042fac	0.5163524

fc1.bias f4 [20]
0	0x3e43200a	0.1905519
1	0x3d85cd0d	0.06533251
2	0xbd313880	-0.043266773
3	0x3d8c0523	0.06836917
4	0x3d99247b	0.07477661
5	0x3d362109	0.0444651
6	0xbb113db1	-0.0022162015
7	0xbd8fc5b3	-0.0702013
8	0xbda68090	-0.0812999
9	0xbda20bf3	-0.079124354
10	0xbdc659fd	-0.09685133
11	0x3dadd2f5	0.084875025
12	0xbd946111	-0.072450764
13	0xbd8fcc4f	-0.07021391
14	0x3d9843d7	0.074348144
15	0x3d77ebe7	0.06052771
16	0xbde74c5b	-0.112938605
17	0xbd395bf2	-0.0452537
18	0xbde24d88	-0.11049944
19	0x3cc86f86	0.024467241

fc2.weight f4 [1, 20]
0	0xbe2ec19b	-0.17066042
1	0x3e9f9e4e	0.31175464
2	0x3e689044	0.22711283
3	0x3e99f4b1	0.30069497
4	0x3f256be7	0.6461777
5	0xbe842a8b	-0.25813708
6	0x3bebc28f	0.007194824
7	0x3ecabdaa	0.39597827
8	0x3e36c0e5	0.17847021
9	0x3f135cc7	0.5756344
10	0x3e8c9846	0.27459925
11	0xbe8142e1	-0.25246337
12	0xbbb7cc39	-0.005609062
13	0x3ed2858c	0.41117513
14	0xbe679b83	-0.22617917
15	0xbed69c91	-0.41916326
16	0x3ee2638d	0.44216576
17	0xbea53d98	-0.32273555
18	0x3e8d2ff1	0.2757564
19	0x3f273084	0.65308404
