MentorMix/checkpoint/MentorNet/MentorNet_Fold_1_Epoch_10.pt (torch, 6666 bytes, 7 tensors)

embedding_layer1.weight f4 [2, 2]
0	0x3f0dc0ed	0.55372506
1	0x3e90f9b6	0.28315514
2	0x3d7ca14b	0.06167726
3	0x3f1f0ea7	0.6213173

embedding_layer2.weight f4 [101, 5]
0	0xbf925de3	-1.1434902
1	0xbf867238	-1.0503607
2	0x3fabb2b1	1.3413907
3	0xbf352b8f	-0.7076959
4	0xbf176be2	-0.5914899
5	0x3e8c2a94	0.27376235
6	0xbf77008b	-0.96485204
7	0xbe7178b2	-0.23581198
8	0xbf122bc2	-0.5709802
9	0x3c5d0088	0.013488896
10	0xbf0cab85	-0.5494922
11	0xbf8171a6	-1.0112808
12	0x3fb28cca	1.3949215
13	0x3f4ee58c	0.8081901
14	0x3f0f971c	0.5608995
15	0x3f89c211	1.0762349
16	0x3ee0d72a	0.43914157
17	0x3f95e9e8	1.1712008
18	0x3fe23b0f	1.7674273
19	0xbdc34d17	-0.09536188
20	0x3e0eb767	0.1393715
21	0xbfca0c53	-1.5785011
22	0xbea4286a	-0.32062083
23	0xbe9943e3	-0.29934606
24	0xbf4c668d	-0.7984398
25	0x3eabe4df	0.33573052
26	0x3e8cf884	0.27533352
27	0x3fdbafce	1.7163026
28	0xbd65f2b5	-0.056139667
29	0x3f6923c4	0.910702
30	0xbfb239b3	-1.3923858
31	0x402c1a00	2.689087
32	0xbff0ea0c	-1.8821425
33	0xbf46cba8	-0.77654505
34	0x40018c87	2.024202
35	0xbdb13c83	-0.0865412
36	0x3dc8f4fe	0.098123536
37	0xbf9b8557	-1.2150067
38	0x3f3b2dbe	0.7311667
39	0x3f95fdb3	1.1718048
40	0x401a0bee	2.4069781
41	0x3e8ea03c	0.27856624
42	0x3e7caccc	0.24675292
43	0x3f979804	1.1843266
44	0xbf3a6c37	-0.7282137
45	0x3f94e62d	1.1632744
46	0xbc14ad92	-0.0090745855
47	0xbf57abae	-0.8424634
48	0x3e5c58ca	0.21518245
49	0xbf06318e	-0.52419364
50	0xbfeae02e	-1.8349664
51	0xbfabc7fb	-1.3420404
52	0x3ed720f4	0.4201733
53	0x3f9578d3	1.1677498
54	0x3e903867	0.28168032
55	0xbfe34055	-1.7754008
56	0x3f8f0550	1.1173496
57	0x3e98a531	0.2981353
58	0x3de10bac	0.10988554
59	0xbf257671	-0.6463385
60	0x3edb69e5	0.4285423
61	0x3fbcf01e	1.4760778
62	0xbfe4b816	-1.7868679
63	0x3fce1ee3	1.6103176
64	0x3f7bd461	0.9837094
65	0x3f6118e6	0.87928617
66	0xbfb9a644	-1.4503865
67	0xbf97114d	-1.1802155
68	0x3ed1e7e8	0.40997243
69	0x3ed12072	0.40845066
70	0x3e8406ef	0.2578654
71	0x3f8c29a9	1.0950214
72	0x3fa9c748	1.3263941
73	0x3f5acf0c	0.8547218
74	0xbe8fa0d7	-0.280524
75	0x3f333448	0.7000165
76	0xbfba763a	-1.456733
77	0x3fcdf198	1.6089354
78	0x3dc00a79	0.093769975
79	0xbfa13f75	-1.259749
80	0xbf013232	-0.50467217
81	0xbfbcbed5	-1.4745737
82	0xbeaee340	-0.34157753
83	0xbe99bb74	-0.30025828
84	0x3fa75d53	1.3075355
85	0xbf94d697	-1.1627988
86	0x3df503c7	0.11963611
87	0xbe270cf3	-0.16313533
88	0xbf6cb907	-0.9246983
89	0xbf6e1b1c	-0.93010116
90	0x3fb70eff	1.4301451
91	0x3ed76f9c	0.4207734
92	0xbeb52621	-0.35380653
93	0x3f4390b9	0.76392704
94	0xbf16c579	-0.5889507
95	0xbf437b1e	-0.76359737
96	0x3f1d945a	0.6155449
97	0x3e467948	0.19382203
98	0xc0255360	-2.5832138
99	0x3f5a9bf2	0.85394204
100	0x3fa48597	1.2853268
101	0x3f0b521a	0.5442215
102	0x3f7da5fe	0.9908141
103	0x3fa0cd67	1.2562684
104	0xbe10cd7f	-0.1414089
105	0x3eafcc10	0.34335375
106	0xbf88fedd	-1.0702778
107	0xbf5fcfb6	-0.87426317
108	0xbfbb7e8c	-1.4647994
109	0xbfa1a7a3	-1.2629284
110	0x3f8f9e50	1.1220188
111	0x3fc87da3	1.5663341
112	0x3e210e51	0.15728118
113	0x3fa081b6	1.2539585
114	0x3fa9ec15	1.3275172
115	0xbefda5d4	-0.4954058
116	0x3fc659f7	1.5496205
117	0x3eb1fc76	0.34762925
118	0x3dbe7afe	0.09300803
119	0x3f1d5f9f	0.6147403
120	0xbf2508d2	-0.64466584
121	0xbe92f49e	-0.28702253
122	0x40548ed4	3.3212175
123	0xbecddadb	-0.40206036
124	0xbf36569a	-0.71225893
125	0xbf1eba93	-0.6200344
126	0xbe699c35	-0.22813495
127	0xbf4a0de7	-0.78927463
128	0xbf84c03d	-1.0371166
129	0xbf889059	-1.0669051
130	0xbe55820e	-0.20850393
131	0xbe5cb1ed	-0.21552248
132	0x3e8a829c	0.27052772
133	0x3f0f47f9	0.55969197
134	0xbea304d7	-0.3183963
135	0x3fc18010	1.5117207
136	0xbfc2a99e	-1.5208013
137	0x3f6b694b	0.9195754
138	0xbf0c60d2	-0.54835236
139	0xbeb1c979	-0.34724024
140	0xbf3f589d	-0.7474459
141	0xbf6c6678	-0.92343855
142	0x3f12ca3d	0.5733984
143	0xbddfd86c	-0.10929951
144	0x3f41ea39	0.7574802
145	0xbed042f6	-0.40676087
146	0xbe02cc44	-0.12773234
147	0x3e8f8c1c	0.28036582
148	0x3d196c68	0.0374569
149	0xbf234970	-0.6378393
150	0xbf57891b	-0.8419358
151	0xbf240f44	-0.64085793
152	0x3f3a0814	0.72668576
153	0xbf8fb3c6	-1.1226737
154	0xbe790c8e	-0.24321195
155	0xbf0f6d3a	-0.5602604
156	0x3f2e8484	0.6817095
157	0xbf045a69	-0.51700455
158	0x3fe5262d	1.7902275
159	0x3f1671f7	0.58767647
160	0x3e803d4a	0.2504676
161	0xbf4b042f	-0.7930326
162	0x3f05e9f3	0.52310103
163	0x3f9c9f1d	1.2236058
164	0xbf721f94	-0.94579434
165	0xbfad2c47	-1.3529137
166	0x40588f32	3.38374
167	0xc019e19d	-2.4043953
168	0xbec73aab	-0.38911948
169	0xbda30583	-0.07960036
170	0x3f42aeb1	0.7604781
171	0xbf80527e	-1.0025175
172	0x3f723843	0.946171
173	0x3eb3d0b5	0.35120168
174	0x3fc95310	1.5728474
175	0x3fdbf8e1	1.7185327
176	0xbd737b6b	-0.059443872
177	0xc01f7bee	-2.491939
178	0x3e78137a	0.2422618
179	0x3e939d38	0.28830886
180	0xbde04a3f	-0.10951661
181	0x3ea0090d	0.31256905
182	0x3fc07c5a	1.5037949
183	0x3f00f71f	0.50377077
184	0x3f1f5108	0.6223302
185	0xbee57226	-0.4481365
186	0xbe92408c	-0.2856487
187	0x3ec6a50d	0.387978
188	0xbf925d1c	-1.1434665
189	0xbf26b70a	-0.65123045
190	0xbdd347a1	-0.103163965
191	0x3f31962c	0.6936977
192	0xbf997ea5	-1.1991774
193	0xbd423875	-0.047417123
194	0xc0003059	-2.002951
195	0xbefb98ce	-0.49140018
196	0x3fdab391	1.7086049
197	0x3f4a9110	0.791276
198	0x3f82f1fb	1.0230097
199	0x3f7be209	0.9839178
200	0xbf42e329	-0.7612787
201	0xbf15026b	-0.58206815
202	0xbf91c4f3	-1.1388229
203	0xbf24fabd	-0.64445096
204	0x3f1c2ace	0.61002815
205	0xbf67e7f2	-0.90588295
206	0xbedf071b	-0.4356011
207	0xbf189c8d	-0.5961388
208	0xbd9069f3	-0.07051458
209	0x3eb1a749	0.3469794
210	0xbf27578c	-0.6536796
211	0x3fc780de	1.5586202
212	0x3eccd662	0.4000731
213	0x401c4e57	2.4422815
214	0xbec380a2	-0.38184077
215	0x3edd84b3	0.43265304
216	0xc0011b71	-2.0173
217	0x3ed8d569	0.4235032
218	0x3f12b191	0.57302195
219	0xbfe5eb4a	-1.796243
220	0xbe9cbef9	-0.3061445
221	0xbed72e18	-0.42027354
222	0x3e90cc0a	0.2828067
223	0x3eba7d6c	0.36423814
224	0x40290e4f	2.6414983
225	0xbf765fe8	-0.9624009
226	0xbe548d2e	-0.20756981
227	0xbfb1c7bd	-1.388908
228	0x3c4fedf5	0.012691011
229	0xbfefcd2a	-1.8734486
230	0x3fe65df9	1.7997428
231	0x3e9094d9	0.28238562
232	0x3fd48871	1.6604139
233	0x3e8b2179	0.27173975
234	0xbf4f06f1	-0.80869967
235	0x3e01c393	0.12672262
236	0x3f1217db	0.5706765
237	0xbe0a06d2	-0.13479164
238	0x3eaffb9b	0.34371647
239	0x3ebe5ca3	0.3718005
240	0x3e13dea1	0.14440395
241	0x3f46f483	0.77716845
242	0xc015a3a3	-2.3381126
243	0xbf54413c	-0.8291204
244	0x3f95440c	1.1661391
245	0x3fbd44a6	1.4786575
246	0x3e890403	0.26760873
247	0x3f419112	0.75611985
248	0xbf165ba9	-0.5873361
249	0xc003f682	-2.0619206
250	0x3ebf207f	0.3732948
251	0x3e8f298c	0.27961385
252	0xbe957ea0	-0.2919817
253	0xbf2c7b81	-0.6737595
254	0x3f992308	1.1963816
255	0xbd529b13	-0.05141742

rnn.weight_ih_l0 f4 [1, 2]
0	0xbf078020	-0.5292988
1	0x3e97003b	0.29492363

rnn.weight_ih_l0_reverse f4 [1, 2]
0	0xbebf9f95	-0.3742644
1	0xbf6dd409	-0.92901665

fc1.weight f4 [20, 9]
0	0x3eb9ff79	0.36327723
1	0xbed6ff9c	-0.4199189
2	0x3eeef4ee	0.46671242
3	0x3d9d469a	0.07679482
4	0x3e3d2639	0.18471612
5	0x3ec70862	0.38873583
6	0xbe4363ec	-0.19081086
7	0xbeb3dd01	-0.3512955
8	0x3e6f7994	0.23386222
9	0xbef8ca25	-0.48591724
10	0x3eacf6fd	0.33782187
11	0x3d23c32b	0.03998105
12	0xbe87e029	-0.26538208
13	0x3ddc957e	0.10770701
14	0x3e558f1f	0.20855378
15	0xbe0b610b	-0.13611238
16	0x3e20e7a4	0.15713364
17	0xbdb50dec	-0.08840546
18	0xbea1e69e	-0.3162126
19	0x3e5c8dfb	0.21538536
20	0x3e63ac21	0.2223363
21	0x3e60fa0c	0.21970385
22	0xbdc53216	-0.09628694
23	0xbef9ba2c	-0.4877485
24	0xbd424bc2	-0.04743553
25	0xbc0114e3	-0.007878515
26	0xbea7f861	-0.32806686
27	0xbe7a2b3a	-0.24430552
28	0x3e3afe2a	0.18261018
29	0x3ea4c2cc	0.32179868
30	0xbe98b947	-0.29828855
31	0xbde2d6c4	-0.110761195
32	0xbdb16ee7	-0.08663731
33	0xbdca4521	-0.098764665
34	0xbe95791d	-0.29193965
35	0xbf1ece44	-0.62033486
36	0xbacb8543	-0.0015527386
37	0x3ede31f3	0.43397483
38	0xbe8f3021	-0.27966407
39	0xbebf45e0	-0.37357998
40	0xbeb143fd	-0.34622183
41	0xbeb16f06	-0.34655017
42	0x3ecb9935	0.39765325
43	0xbe6d56a1	-0.23177578
44	0xbe7e15d5	-0.24813016
45	0x3e1ca848	0.15298569
46	0xbe44f567	-0.19234239
47	0xbdcb26b6	-0.09919493
48	0xbecbcaee	-0.3980326
49	0xbe3fb700	-0.18722153
50	0x3ea22166	0.31666106
51	0xbedbac20	-0.42904758
52	0xbe8b9be5	-0.27267376
53	0x3ea1e738	0.31621718
54	0x3c77f06e	0.0151330065
55	0xbd9a7950	-0.0754267
56	0x3e91d9ab	0.2848638
57	0x3d2d52ae	0.042315178
58	0x3c908601	0.017642023
59	0xbe67ce47	-0.22637282
60	0x3e8c1243	0.27357683
61	0xbe05d989	-0.13071264
62	0xbec1aa7c	-0.37825382
63	0xbdfe9805	-0.12431339
64	0xbe19c60f	-0.1501696
65	0xbe90bfdf	-0.28271386
66	0x3eb5b2be	0.35487932
67	0x3e9bc067	0.3042023
68	0xbea75913	-0.32685146
69	0xbe977348	-0.2958014
70	0xbcc155c2	-0.023600463
71	0xbecbac46	-0.39779872
72	0xbdc6583e	-0.096847996
73	0xbe606b86	-0.21916017
74	0xbe253d07	-0.16136561
75	0x3d1a17cd	0.037620354
76	0x3ebabe8b	0.36473498
77	0x3e638813	0.22219877
78	0x3e37e0f1	0.17956902
79	0xbe96d967	-0.2946274
80	0x3e574938	0.21024024
81	0xbdba338f	-0.09091865
82	0x3e9252b0	0.2857871
83	0x3eac1dc9	0.33616474
84	0x3d89d160	0.06729388
85	0x3e9add25	0.30246845
86	0xbeefaf61	-0.4681349
87	0xbeac8837	-0.33697674
88	0xbeb0af8e	-0.34508938
89	0xbe588d85	-0.21147735
90	0xbe57c2b1	-0.21070363
91	0x3cf12277	0.02943538
92	0xbe652c4d	-0.2238018
93	0x3dffdfc6	0.12493853
94	0xbd4f49b0	-0.050607383
95	0x3df524ee	0.119699344
96	0x3e89dbe9	0.2692559
97	0x3eae5686	0.34050387
98	0x3ebfbc2c	0.3744825
99	0xbe735348	-0.23762238
100	0xbee51f21	-0.44750312
101	0xbee32b62	-0.44369036
102	0xbed00d81	-0.40635303
103	0xbe29d2be	-0.16584298
104	0x3ebbec07	0.36703512
105	0x3ef2fc22	0.47457987
106	0x3e9caa3d	0.30598632
107	0x3e79655d	0.24355073
108	0xbe02029a	-0.12696305
109	0xbe049ca4	-0.12950379
110	0xbdc3376f	-0.095320575
111	0x3d624f37	0.055251326
112	0xbed2ec09	-0.41195706
113	0xbe619b42	-0.22031882
114	0xbe0fc448	-0.14039719
115	0xbe2ed521	-0.1707349
116	0xbd8245d2	-0.063609734
117	0xbe679c5d	-0.22618242
118	0xbdec8455	-0.11548678
119	0x3df11510	0.117715955
120	0xbebc160b	-0.36735567
121	0x3e671e90	0.22570252
122	0xbe989b61	-0.29806045
123	0xbdbdc066	-0.09265213
124	0x3c0820df	0.008308618
125	0x3eff2f6a	0.49840862
126	0x3e1fcbe0	0.15605116
127	0xbd963b9f	-0.073355906
128	0x3e131b5b	0.14365904
129	0x3b537d5a	0.003227076
130	0xbc1e78fc	-0.0096724
131	0x3dcb27ea	0.099197224
132	0x3ebc3803	0.36761484
133	0x3ec039e2	0.3754416
134	0x3e472ddc	0.19451088
135	0xbe8b1245	-0.27162376
136	0xbd0c431b	-0.034243684
137	0x3d44e04a	0.04806546
138	0xbe39ff0d	-0.181637
139	0x3cdc1f13	0.026870286
140	0xbdf87b76	-0.12132923
141	0xbd3318e9	-0.043724928
142	0x3d18c362	0.037295707
143	0xbed554fd	-0.41666403
144	0xbe199f3a	-0.15002146
145	0xbde29565	-0.11063651
146	0x3e2c3492	0.16816929
147	0xbd515e9d	-0.05111562
148	0x3e651fff	0.22375487
149	0x3e36162f	0.177819
150	0x3eb0b500	0.34513092
151	0xbe92107c	-0.28528202
152	0x3e864e35	0.26231542
153	0xbee24b8d	-0.44198266
154	0x3ea86925	0.3289272
155	0x3e958cf9	0.29209116
156	0xbcc8ec19	-0.024526643
157	0x3e769c6d	0.24083109
158	0xbd7e5956	-0.062096916
159	0xbedf9029	-0.43664673
160	0x3e238f38	0.15972602
161	0x3e188833	0.14895706
162	0xbe22662c	-0.15859288
163	0x3e2ed756	0.17074332
164	0x3eb08818	0.3447883
165	0x3ef17b2c	0.47164285
166	0xbc1e7d6a	-0.009673456
167	0x3e1d3779	0.15353192
168	0x3ecb61f1	0.3972316
169	0xbc930fed	-0.01795193
170	0xbe71e966	-0.2362419
171	0xbe44b715	-0.19210465
172	0xbe505b30	-0.20347285
173	0xbdf0cb65	-0.117575444
174	0x3e3e2091	0.1856711
175	0x3daf8212	0.08569731
176	0xbe75cfd1	-0.24005057
177	0xbe5a7c97	-0.2133659
178	0x3f041bad	0.5160473
179	0x3efc2618	0.49247813

fc1.bias f4 [20]
0	0x3c3c3e46	0.0114894565
1	0xbd591c46	-0.05300548
2	0x3d25df3c	0.040496096
3	0xbd28eeca	-0.041243352
4	0x3d6c325e	0.05766522
5	0x3d2bfdde	0.041990153
6	0xbd8f4ece	-0.06997453
7	0xbbed3342	-0.0072387764
8	0x3d06c75d	0.03290497
9	0x3cfbbe1c	0.0307303
10	0x3d126f66	0.03575077
11	0xbd3aac67	-0.045574572
12	0xbca1dd2d	-0.019758785
13	0x3e497b17	0.19675861
14	0xbcb2e720	-0.021838725
15	0xbd173120	-0.036912084
16	0x3cc6c412	0.024263415
17	0xbdd57e6d	-0.104245044
18	0xbd5ab2ee	-0.053393297
19	0x3e301378	0.17194927

fc2.weight f4 [1, 20]
0	0x3e1ba046	0.15197858
1	0xbe675bf4	-0.22593671
2	0x3e01a231	0.12659527
3	0xbe978c37	-0.29599163
4	0x3ea96a97	0.33089134
5	0x3e2cce2a	0.1687552
6	0xbf14183f	-0.57849497
7	0xbe3278cd	-0.17428894
8	0x3cafd56b	0.02146407
9	0x3ea00237	0.3125169
10	0x3efb9f70	0.4914508
11	0xbe92fba1	-0.28707603
12	0xbee8a988	-0.45441842
13	0x3ef77d65	0.48337856
14	0x3c6648e5	0.014055465
15	0xbf158488	-0.5840535
16	0x3e8fbcae	0.2807364
17	0xbe65baad	-0.22434492
18	0xbe4c98a8	-0.19980109
19	0x3e380573	0.17970829
