MentorMix/checkpoint/MentorNet/MentorNet_Fold_3_Epoch_7.pt (torch, 6655 bytes, 7 tensors)

embedding_layer1.weight f4 [2, 2]
00000000: 2e5b 863f 5ddb fbbb 47fd 4e3f f4b1 a6be
1.0496576 -0.0076860623 0.8085522 -0.32557642

embedding_layer2.weight f4 [101, 5]
00000000: d29c 0dbf 81d9 ab3f c3e3 08bf d779 0640
00000010: 4557 76bf 01f5 013f 50df 953d d992 2fbf
00000020: 3d75 44bf a9fe eebe 31e2 e53e 0bdd 933f
00000030: 16e6 fe3e c60f f9bf c28c 1c3f acf8 f5be
00000040: 316f 603f 160b 41bf c04a 5c3f 903f 2dbf
00000050: 2bdb 2dbf cd89 943d 5bbd ab3d d15a 1c3f
00000060: ab5c 093f 9401 35be cb56 18bf c9b5 833f
00000070: 9b60 8abf 30bc 38be fc32 213f 7498 acbc
00000080: 13dd f0bd 9dc6 acbf 41ad b83f b9ea 8ebf
00000090: 7a25 133e 1db2 22bf 4ee5 983e d79f d53e
000000a0: 950d a13f 8ab2 833f 1627 fc3f f926 0ec0
000000b0: 5414 c9bf 443b 973f 1056 973d fcce 22bf
000000c0: f2ca ce3e a8d8 3cbf 49f7 18c0 8850 01bf
000000d0: 1c75 6cbf 1770 c73e 0d68 13bf 671f 5b3f
000000e0: 9d4b 09be e7f5 d33f d880 f3bf c1bd d5be
000000f0: 4a0b dd3f 8ad1 c03f cc4d 883f 521d 5abe
00000100: d859 2e3e b8df 653e 19f1 5abf 53b1 d73f
00000110: d562 9dbe c7e9 6dbe 04b0 f53f 9eaf e33f
00000120: 44ad 0b3f a079 983f 2db8 f9bf 0af7 51bf
00000130: b8da 483e 1634 833f 579e ed3f b3c1 493f
00000140: b855 7fbf 7785 5a3f 4e99 0a40 120c e43c
00000150: 36e5 98bd a866 053f a448 cabf 5234 35c0
00000160: 57fc d9bf 495a b2bf d8c1 cbbf 4f33 9f3c
00000170: daf0 66bf 02c3 03be d24d 133f 8513 b83d
00000180: 2156 983d a92e 0840 a821 e6be 5156 7b3f
00000190: ba03 de3f 1c6d 17bf 4a0f e3be b7e8 693e
000001a0: b338 963f 69d2 aa3f e0ee 953f d2a0 68be
000001b0: e12c 193d 4484 e4bf 34e0 dfbe 90af 9b3f
000001c0: 93ba e9be bee4 88bf 3b20 413f d6db 7b3f
000001d0: 011e 143f 1935 48bf a554 f5bd 0e37 333f
000001e0: 9f22 c1be 863d 1bbe a26c 703f 32e5 0d3f
000001f0: 976a dc3e e4a8 bd3e 9266 a4bf f276 293f
00000200: 6aff 5a3f b168 39bf 6824 32be 2cb7 bebe
00000210: c27b 843d b17e a73d 6a42 e7bf 8ee6 babe
00000220: 558d ae3e 5745 84bf 7487 e1be e3cb 2b3f
00000230: 1f30 dd3f de43 9a3f d195 1240 36b6 bf3f
00000240: eab2 603f 59aa 7d3e 5537 503f fd43 f6bd
00000250: f1d7 33be 22d8 993e c6bb 4fbf 5a41 53be
00000260: 1396 1340 a834 eabe 5082 7a3f 6ff7 c03e
00000270: 511c dbbe 40ce 7ebf 06ad 7bbf 95e5 9fbe
00000280: 25ce 11c0 cf7b 97bd 3a55 993e b3ff 90be
00000290: 2940 7c3d 68ac cdbf fac2 0bbf d867 babe
000002a0: 1dbe 573e dd6e e7be 5d47 93bf 85c9 5ebe
000002b0: 6f11 f8be 20f1 32bd 9837 9cbf 3565 853f
000002c0: 1a2b 0c40 06a6 7e3d ac98 0cbe 6fea f93a
000002d0: 608b a1be 8036 2040 02de 0ec0 7e9e d6bd
000002e0: 7a0e 1cbf 679e 703f 9b91 9b3e f1a2 4fbf
000002f0: 0981 8dbf a709 5bbf 5185 783f d911 e83d
00000300: 4988 ab3e 1f8d 10bf 9ee3 fcbe 8b08 353e
00000310: 5a0c 80be abe7 cf3e 2e71 a3bf 771b 6a3f
00000320: 554f ff3e d42d c93f 9d2d 96be b0ad 48bf
00000330: 5e08 63bf 6839 0b3e 86b2 8fbf afe3 b83e
00000340: 2017 063f 61f7 b83d 3dc7 c43d 88a0 3dbe
00000350: 6768 c63d 22d5 99bf 3a92 90be ddb4 a13e
00000360: 8f91 0bbf d968 1e3e 01ba 753f 868d 053f
00000370: 078c c8bf 7199 5b3e 5660 683f d8f3 c1bf
00000380: c009 9dbf a1f7 373e 9540 e93f 8585 ecbd
00000390: 9fbf 1dbf 48be 373e 1c45 e0bf 026e 12c0
000003a0: b9d3 f13f 8e11 923f 04a8 bbbf d197 8ebd
000003b0: b804 f8bf 9914 673e a6e3 c3be 249b d53e
000003c0: 9994 ac3f 9153 0bbe ae01 b4bf f1af afbe
000003d0: 8e2e 5dbf 5b86 b4be d2e9 09bf 4edb 8cbf
000003e0: 6457 5abf 4f6f 993f 267e 23be 07ed 853e
000003f0: 448a 5d3f 7737 28bd a781 353f 6e25 17c0
-0.55317414 1.3425752 -0.53472537 2.1011865 -0.9622691 0.5076447 0.07317984 -0.68583447
-0.7674139 -0.46678665 0.44899133 1.1551832 0.49784917 -1.9457939 0.6115228 -0.48041284
0.87669665 -0.7540754 0.8605156 -0.67675114 -0.6791255 0.07252846 0.08385726 0.61076075
0.53657025 -0.17676383 -0.59507436 1.0289851 -1.0810732 -0.18040538 0.6296842 -0.021068789
-0.117609166 -1.3498112 1.4427873 -1.1165382 0.14369765 -0.6355303 0.29862446 0.4172351
1.258227 1.0288861 1.9699428 -2.2211287 -1.5709329 1.1814961 0.07389462 -0.63597083
0.4038921 -0.7376809 -2.390093 -0.50513506 -0.92366195 0.38952705 -0.57580644 0.8559479
-0.1340775 1.6559418 -1.9023695 -0.41746333 1.726907 1.5063946 1.0648742 -0.21300247
0.1702646 0.22448623 -0.85524136 1.685099 -0.30739465 -0.2323371 1.9194341 1.7787969
0.5456126 1.1912117 -1.9509331 -0.82017577 0.19614685 1.025027 1.8563946 0.78811187
-0.9974017 0.853599 2.165607 0.027837787 -0.074655935 0.52109766 -1.5803418 -2.8313184
-1.7030133 -1.3933803 -1.5918531 0.019433646 -0.9021126 -0.12867358 0.5754062 0.08988098
0.07438303 2.127848 -0.44947553 0.98178583 1.7344887 -0.5915086 -0.44347602 0.2284268
1.1736053 1.3345462 1.1713524 -0.22717598 0.037396315 -1.7852864 -0.4372574 1.2162952
-0.45650157 -1.0694807 0.75439805 0.9838232 0.5785828 -0.7820602 -0.11979035 0.7000588
-0.37721726 -0.15160188 0.9391576 0.5542785 0.43050072 0.37042916 -1.2843802 0.6619712
0.8554598 -0.7242537 -0.173967 -0.37249124 0.064689174 0.08178461 -1.8067143 -0.36504024
0.34092203 -1.0333661 -0.44048655 0.6710798 1.728031 1.2051961 2.290394 1.4977481
0.87773 0.24772014 0.8133443 -0.120246865 -0.17562844 0.3004771 -0.81145895 -0.20630398
2.3060348 -0.457433 0.9785509 0.37688777 -0.4279504 -0.9953346 -0.9831089 -0.31229845
-2.278207 -0.073966615 0.29947835 -0.28320083 0.061584625 -1.6068239 -0.54594386 -0.36407351
0.21068616 -0.4520177 -1.1506153 -0.21756561 -0.484508 -0.043686986 -1.2204466 1.0421511
2.1901307 0.06217005 -0.13730115 0.0019067059 -0.31551647 2.5033264 -2.2323003 -0.10479449
-0.6095959 0.939917 0.30384526 -0.81108004 -1.1055003 -0.85561603 0.97078425 0.11331529
0.33502415 -0.56465334 -0.49392408 0.1767904 -0.25009423 0.40606436 -1.2768915 0.9144816
0.49865213 1.5717111 -0.29331675 -0.78390026 -0.8868464 0.13596117 -1.1226356 0.3611121
0.52379036 0.09031559 0.09608314 -0.18518269 0.09687882 -1.2018168 -0.28236562 0.315833
-0.5451898 0.15469684 0.95986944 0.5216907 -1.5667733 0.21445252 0.90771997 -1.515254
-1.22686 0.17965557 1.8222834 -0.11548904 -0.61620516 0.1794368 -1.752109 -2.2879643
1.8892738 1.1411607 -1.4660649 -0.069625504 -1.937644 0.22566451 -0.3825962 0.41719925
1.3482848 -0.13606097 -1.4063013 -0.3431392 -0.8639916 -0.35258755 -0.53872406 -1.1004426
-0.852896 1.1987094 -0.1596609 0.261574 0.865391 -0.04106852 0.7090096 -2.3616595

rnn.weight_ih_l0 f4 [1, 2]
00000000: 767d 66be e444 65bf
-0.22508797 -0.89558244

rnn.weight_ih_l0_reverse f4 [1, 2]
00000000: 34cb cbbd 0b9e 17bf
-0.09950867 -0.5922553

fc1.weight f4 [20, 9]
00000000: 7694 9c3e 160f bfbe 5585 713e d96b 96be
00000010: 0dfe 4cbd ca97 a73e b340 7dbe 27f7 013f
00000020: 656b b23e ffdc e7be 75c9 c23d ef1a debd
00000030: 0657 f03d cd36 bbbe fde8 5b3e 990c a7be
00000040: 4a8d 803e 76b2 9f3d f333 ca3e 21ba 4cbe
00000050: 0bfe bcbe 5d31 d53e 270c 68be f5ac f8bd
00000060: e0dd f03e a340 533e 6f96 c13e e79c 5a3e
00000070: 0bec 1b3e f857 62bc 4bb1 d6be a1bd 84bd
00000080: c872 333d eb41 843e 5426 cebe 4aa2 453e
00000090: f347 3d3e 0f7b 9fbe 7912 a7be cc47 c33d
000000a0: 27be cbbe 89a9 3dbe e410 67be fc4d c5bd
000000b0: 6806 18bd 6f89 973e 1c5e e4be 7cc7 82bd
000000c0: 486b 41bc 51df ce3e 8e45 3f3a d6cd 37bd
000000d0: b521 ecbe 3c24 c6be b74e 4f3e dcbb 03bf
000000e0: d419 523d d3d8 c93d 6f81 b1be bd51 2b3e
000000f0: ac73 3cbe 6cdf 5dbd 87f0 edbd 0149 b73e
00000100: 7242 c83e a7c7 9b3e 8154 483e 70a1 2bbe
00000110: 21ae a1bc 990a 513d 6601 14bd 1133 97be
00000120: a869 d1be 6777 12be 15ff b3be 06a4 00be
00000130: 22ad 9dbd 0dac 08be 746b ebbc 1866 c3be
00000140: 6022 f3be a1fc 94be 09c9 fc3c 9183 813c
00000150: 8593 4fbc 9ebb 7e3e 5eb4 2c3e 6943 a43e
00000160: 8122 c33d 40fa c9be 0e55 c3ba 1e59 313e
00000170: 6220 8e3e 4fc0 8e3e dabf 623d c0b5 633d
00000180: 7ee6 1dbd e1ea 88be d6cb 013f 3dea e23d
00000190: 0934 8bbe 9615 f53d 2dff 0d3e 3b0a 2e3e
000001a0: ceb3 b33e cf3d a23d 440f 9ebd f2a6 78be
000001b0: 9610 3abe ea40 8e3d 9dcf 48be b2bb ac3e
000001c0: 3c06 bcbd 9130 81be c839 c23d 742b 4d3e
000001d0: a037 003f ae72 f7bd d308 46be 0430 9e3e
000001e0: 9ae6 b2be 4fb9 263e 0979 07bf 172d c13e
000001f0: 074a 313e fb47 03bd 75b5 a5be 4208 ceb9
00000200: 7eec 09be 2d5e 8d3e 34af edbe f6bc 0abe
00000210: c60b d03d ac3f aa3e dc14 fdbe 925c 0b3e
00000220: c942 0d3d ec48 fd3d 110b 893d 59c8 6c3d
00000230: 59ce af3e 98cf 323e 065a 53be e237 9f3e
00000240: 89ce 603d 1a9a 993e b81a 81be 6cab e9be
00000250: ca91 503e 95d4 1fbd 0367 8abe bd74 8cbd
00000260: bfd2 2dbe 677c d4be c03f 09bc 524e 8fbe
00000270: 7427 acbe 3e3e dc3e 2276 bcbc 1106 9ebe
00000280: 3526 25be 2e96 bd3e fe7c 61bd 7020 653e
00000290: dc72 cb3e 91cc c43e f89b aa3e 084e 43bd
000002a0: f490 f1be c842 263d aae3 333e e06c bd3e
000002b0: 1d4b 88be 1811 e5be af4a c03e 3251 0e3e
000002c0: 8de2 58bd bf2d c63e 3be1 853e 6a55 193e
0.30582017 -0.37316197 0.23586018 -0.29379156 -0.05004697 0.32732993 -0.24731712 0.5076775
0.3484756 -0.45285794 0.09511081 -0.10844981 0.117353484 -0.36565247 0.21475597 -0.326268
0.25107795 0.077977106 0.3949276 -0.19992878 -0.3691257 0.41639224 -0.22660886 -0.12142364
0.47044277 0.20630126 0.37810084 0.21348916 0.15226762 -0.013814919 -0.4193214 -0.06481481
0.043810636 0.2583154 -0.40263617 0.1930019 0.18484478 -0.31148574 -0.3263128 0.095351785
-0.39793512 -0.18521704 -0.22565037 -0.09634015 -0.037115484 0.2959704 -0.4460305 -0.06385705
-0.011805363 0.40404752 0.0007296436 -0.044874035 -0.46119466 -0.3869952 0.20244871 -0.51458526
0.051294163 0.09855809 -0.34669062 0.167304 -0.184035 -0.05416815 -0.116181426 0.35797885
0.39113194 0.3042576 0.19563486 -0.16760802 -0.019736351 0.051035497 -0.036134146 -0.29531148
-0.40900922 -0.14303361 -0.3515555 -0.1256257 -0.07699038 -0.13346882 -0.028737761 -0.3816383
-0.47487164 -0.2909899 0.03085758 0.015809806 -0.012669449 0.24876258 0.1686568 0.3208268
0.095280655 -0.39448738 -0.0014902668 0.17319152 0.2775908 0.27881095 0.055358745 0.055593252
-0.038549893 -0.26741698 0.50701654 0.11079834 -0.27188137 0.11967008 0.13866873 0.1699609
0.35098118 0.07921945 -0.077177554 -0.24282435 -0.1817039 0.06945975 -0.19610448 0.3373695
-0.091808766 -0.25232366 0.09483677 0.20036107 0.50084877 -0.1208242 -0.19339304 0.30896008
-0.3494156 0.16281627 -0.5291906 0.37729713 0.17313395 -0.032051068 -0.32365003 -0.00039297534
-0.13469121 0.27610913 -0.46422732 -0.13548645 0.101584956 0.33251703 -0.49429977 0.13609532
0.03448752 0.12367424 0.06691564 0.057808254 0.34337118 0.17462003 -0.2063981 0.31097323
0.054884467 0.30000383 -0.25215697 -0.45638597 0.20368114 -0.039021093 -0.27031717 -0.068582036
-0.16974925 -0.4150116 -0.008377016 -0.2798944 -0.3362385 0.43016237 -0.023005549 -0.30864003
-0.16127856 0.3702864 -0.055050842 0.22375655 0.39736068 0.38437322 0.3332212 -0.04768184
-0.47180903 0.04059103 0.17567316 0.36997128 -0.26619807 -0.44739604 0.3755698 0.13898161
-0.05295043 0.38706776 0.261484 0.14973989

fc1.bias f4 [20]
00000000: b8c5 69bc cfa8 f43a bb8a 48bd 4e6f 06bd
00000010: 868b 9b3d 35e6 a7bd 5d24 e4bc a668 84bd
00000020: c222 283d 5b2d 8ebc 344a f63d af26 a7bd
00000030: ef5d a83d 3b8a 4c3d d9d9 e0bc d6b5 733d
00000040: 3d14 133c 4f66 ec3b b21f cbbc faea e43c
-0.014268331 0.0018666032 -0.04896043 -0.032820992 0.07594971 -0.081982054 -0.02784937 -0.064652726
0.041048773 -0.017355612 0.12025872 -0.08161675 0.082210414 0.049936514 -0.027447628 0.059499584
0.008976993 0.0072143446 -0.024795387 0.027944077

fc2.weight f4 [1, 20]
00000000: a579 1d3f 9939 ec3d fc3b 833e 0351 93be
00000010: 0d2d b83e 4c06 bdbe f465 cabe 8b6a fbbe
00000020: 90f8 13bf 7a8e 0abf d4a0 733d af33 f8bd
00000030: 9111 073e 3229 003e b004 4abe 52b7 713e
00000040: 0e8c 4e3e f7e5 bc3e c0a4 abbe 8544 79be
0.6151374 0.115344234 0.25631702 -0.28772745 0.3597187 -0.36918867 -0.3953091 -0.49104723
-0.5780115 -0.5412365 0.05947955 -0.12119233 0.13190295 0.12515715 -0.1972835 0.23605087
0.20170614 0.368942 -0.33524132 -0.24342544
