MentorMix/checkpoint/MentorNet/MentorNet_Fold_1_Epoch_3.pt (torch, 6655 bytes, 7 tensors)

embedding_layer1.weight f4 [2, 2]
0	0x3f21779f	0.6307315
1	0x3e92cc87	0.28671667
2	0x3d7ca14b	0.06167726
3	0x3f1f0ea7	0.6213173

embedding_layer2.weight f4 [101, 5]
0	0xbf92615a	-1.1435959
1	0xbf8675fd	-1.0504757
2	0x3fabaecb	1.3412718
3	0xbf352326	-0.7075676
4	0xbf176a31	-0.5914641
5	0x3e8c2a94	0.27376235
6	0xbf77008b	-0.96485204
7	0xbe7178b2	-0.23581198
8	0xbf122bc2	-0.5709802
9	0x3c5d0088	0.013488896
10	0xbf0cab85	-0.5494922
11	0xbf8171a6	-1.0112808
12	0x3fb28cca	1.3949215
13	0x3f4ee58c	0.8081901
14	0x3f0f971c	0.5608995
15	0x3f89c211	1.0762349
16	0x3ee0d72a	0.43914157
17	0x3f95e9e8	1.1712008
18	0x3fe23b0f	1.7674273
19	0xbdc34d17	-0.09536188
20	0x3e0eb767	0.1393715
21	0xbfca0c53	-1.5785011
22	0xbea4286a	-0.32062083
23	0xbe9943e3	-0.29934606
24	0xbf4c668d	-0.7984398
25	0x3eabe4df	0.33573052
26	0x3e8cf884	0.27533352
27	0x3fdbafce	1.7163026
28	0xbd65f2b5	-0.056139667
29	0x3f6923c4	0.910702
30	0xbfb239b3	-1.3923858
31	0x402c1a00	2.689087
32	0xbff0ea0c	-1.8821425
33	0xbf46cba8	-0.77654505
34	0x40018c87	2.024202
35	0xbdb13c83	-0.0865412
36	0x3dc8f4fe	0.098123536
37	0xbf9b8557	-1.2150067
38	0x3f3b2dbe	0.7311667
39	0x3f95fdb3	1.1718048
40	0x401a0bee	2.4069781
41	0x3e8ea03c	0.27856624
42	0x3e7caccc	0.24675292
43	0x3f979804	1.1843266
44	0xbf3a6c37	-0.7282137
45	0x3f94e62d	1.1632744
46	0xbc14ad92	-0.0090745855
47	0xbf57abae	-0.8424634
48	0x3e5c58ca	0.21518245
49	0xbf06318e	-0.52419364
50	0xbfeab517	-1.8336514
51	0xbfab9913	-1.340609
52	0x3ed7d7b3	0.42156753
53	0x3f9557ad	1.1667382
54	0x3e8f814b	0.2802833
55	0xbfe34055	-1.7754008
56	0x3f8f0550	1.1173496
57	0x3e98a531	0.2981353
58	0x3de10bac	0.10988554
59	0xbf257671	-0.6463385
60	0x3edb69e5	0.4285423
61	0x3fbcf01e	1.4760778
62	0xbfe4b816	-1.7868679
63	0x3fce1ee3	1.6103176
64	0x3f7bd461	0.9837094
65	0x3f6118e6	0.87928617
66	0xbfb9a644	-1.4503865
67	0xbf97114d	-1.1802155
68	0x3ed1e7e8	0.40997243
69	0x3ed12072	0.40845066
70	0x3e8406ef	0.2578654
71	0x3f8c29a9	1.0950214
72	0x3fa9c748	1.3263941
73	0x3f5acf0c	0.8547218
74	0xbe8fa0d7	-0.280524
75	0x3f333448	0.7000165
76	0xbfba763a	-1.456733
77	0x3fcdf198	1.6089354
78	0x3dc00a79	0.093769975
79	0xbfa13f75	-1.259749
80	0xbf013232	-0.50467217
81	0xbfbcbed5	-1.4745737
82	0xbeaee340	-0.34157753
83	0xbe99bb74	-0.30025828
84	0x3fa75d53	1.3075355
85	0xbf94d697	-1.1627988
86	0x3df503c7	0.11963611
87	0xbe270cf3	-0.16313533
88	0xbf6cb907	-0.9246983
89	0xbf6e1b1c	-0.93010116
90	0x3fb70eff	1.4301451
91	0x3ed76f9c	0.4207734
92	0xbeb52621	-0.35380653
93	0x3f4390b9	0.76392704
94	0xbf16c579	-0.5889507
95	0xbf437b1e	-0.76359737
96	0x3f1d945a	0.6155449
97	0x3e467948	0.19382203
98	0xc0255360	-2.5832138
99	0x3f5a9bf2	0.85394204
100	0x3fa2ed87	1.2728738
101	0x3f082a32	0.53189385
102	0x3f7a52be	0.97782505
103	0x3fa27b32	1.2693846
104	0xbe03883c	-0.12844938
105	0x3eafcc10	0.34335375
106	0xbf88fedd	-1.0702778
107	0xbf5fcfb6	-0.87426317
108	0xbfbb7e8c	-1.4647994
109	0xbfa1a7a3	-1.2629284
110	0x3f8f9e50	1.1220188
111	0x3fc87da3	1.5663341
112	0x3e210e51	0.15728118
113	0x3fa081b6	1.2539585
114	0x3fa9ec15	1.3275172
115	0xbefda5d4	-0.4954058
116	0x3fc659f7	1.5496205
117	0x3eb1fc76	0.34762925
118	0x3dbe7afe	0.09300803
119	0x3f1d5f9f	0.6147403
120	0xbf2508d2	-0.64466584
121	0xbe92f49e	-0.28702253
122	0x40548ed4	3.3212175
123	0xbecddadb	-0.40206036
124	0xbf36569a	-0.71225893
125	0xbf1eba93	-0.6200344
126	0xbe699c35	-0.22813495
127	0xbf4a0de7	-0.78927463
128	0xbf84c03d	-1.0371166
129	0xbf889059	-1.0669051
130	0xbe55820e	-0.20850393
131	0xbe5cb1ed	-0.21552248
132	0x3e8a829c	0.27052772
133	0x3f0f47f9	0.55969197
134	0xbea304d7	-0.3183963
135	0x3fc18010	1.5117207
136	0xbfc2a99e	-1.5208013
137	0x3f6b694b	0.9195754
138	0xbf0c60d2	-0.54835236
139	0xbeb1c979	-0.34724024
140	0xbf3f589d	-0.7474459
141	0xbf6c6678	-0.92343855
142	0x3f12ca3d	0.5733984
143	0xbddfd86c	-0.10929951
144	0x3f41ea39	0.7574802
145	0xbed042f6	-0.40676087
146	0xbe02cc44	-0.12773234
147	0x3e8f8c1c	0.28036582
148	0x3d196c68	0.0374569
149	0xbf234970	-0.6378393
150	0xbf5093d0	-0.81475544
151	0xbf308380	-0.68950653
152	0x3f454194	0.7705319
153	0xbf8975df	-1.0739096
154	0xbe4e58f6	-0.20151123
155	0xbf0f6d3a	-0.5602604
156	0x3f2e8484	0.6817095
157	0xbf045a69	-0.51700455
158	0x3fe5262d	1.7902275
159	0x3f1671f7	0.58767647
160	0x3e803d4a	0.2504676
161	0xbf4b042f	-0.7930326
162	0x3f05e9f3	0.52310103
163	0x3f9c9f1d	1.2236058
164	0xbf721f94	-0.94579434
165	0xbfad2c47	-1.3529137
166	0x40588f32	3.38374
167	0xc019e19d	-2.4043953
168	0xbec73aab	-0.38911948
169	0xbda30583	-0.07960036
170	0x3f42aeb1	0.7604781
171	0xbf80527e	-1.0025175
172	0x3f723843	0.946171
173	0x3eb3d0b5	0.35120168
174	0x3fc95310	1.5728474
175	0x3fdbf8e1	1.7185327
176	0xbd737b6b	-0.059443872
177	0xc01f7bee	-2.491939
178	0x3e78137a	0.2422618
179	0x3e939d38	0.28830886
180	0xbde04a3f	-0.10951661
181	0x3ea0090d	0.31256905
182	0x3fc07c5a	1.5037949
183	0x3f00f71f	0.50377077
184	0x3f1f5108	0.6223302
185	0xbee57226	-0.4481365
186	0xbe92408c	-0.2856487
187	0x3ec6a50d	0.387978
188	0xbf925d1c	-1.1434665
189	0xbf26b70a	-0.65123045
190	0xbdd347a1	-0.103163965
191	0x3f31962c	0.6936977
192	0xbf997ea5	-1.1991774
193	0xbd423875	-0.047417123
194	0xc0003059	-2.002951
195	0xbefb98ce	-0.49140018
196	0x3fdab391	1.7086049
197	0x3f4a9110	0.791276
198	0x3f82f1fb	1.0230097
199	0x3f7be209	0.9839178
200	0xbf358bbc	-0.7091634
201	0xbf06b80b	-0.5262458
202	0xbf8d57f5	-1.1042467
203	0xbf330f06	-0.699448
204	0x3f0ed7e0	0.5579815
205	0xbf67e7f2	-0.90588295
206	0xbedf071b	-0.4356011
207	0xbf189c8d	-0.5961388
208	0xbd9069f3	-0.07051458
209	0x3eb1a749	0.3469794
210	0xbf27578c	-0.6536796
211	0x3fc780de	1.5586202
212	0x3eccd662	0.4000731
213	0x401c4e57	2.4422815
214	0xbec380a2	-0.38184077
215	0x3edd84b3	0.43265304
216	0xc0011b71	-2.0173
217	0x3ed8d569	0.4235032
218	0x3f12b191	0.57302195
219	0xbfe5eb4a	-1.796243
220	0xbe9cbef9	-0.3061445
221	0xbed72e18	-0.42027354
222	0x3e90cc0a	0.2828067
223	0x3eba7d6c	0.36423814
224	0x40290e4f	2.6414983
225	0xbf765fe8	-0.9624009
226	0xbe548d2e	-0.20756981
227	0xbfb1c7bd	-1.388908
228	0x3c4fedf5	0.012691011
229	0xbfefcd2a	-1.8734486
230	0x3fe65df9	1.7997428
231	0x3e9094d9	0.28238562
232	0x3fd48871	1.6604139
233	0x3e8b2179	0.27173975
234	0xbf4f06f1	-0.80869967
235	0x3e01c393	0.12672262
236	0x3f1217db	0.5706765
237	0xbe0a06d2	-0.13479164
238	0x3eaffb9b	0.34371647
239	0x3ebe5ca3	0.3718005
240	0x3e13dea1	0.14440395
241	0x3f46f483	0.77716845
242	0xc015a3a3	-2.3381126
243	0xbf54413c	-0.8291204
244	0x3f95440c	1.1661391
245	0x3fbd44a6	1.4786575
246	0x3e890403	0.26760873
247	0x3f419112	0.75611985
248	0xbf165ba9	-0.5873361
249	0xc003f682	-2.0619206
250	0x3edc6705	0.43047348
251	0x3eace154	0.33765662
252	0xbeb004a2	-0.34378535
253	0xbf1e0287	-0.61722606
254	0x3fa0614c	1.2529693
255	0xbd529b13	-0.05141742

rnn.weight_ih_l0 f4 [1, 2]
0	0xbf122247	-0.57083553
1	0x3e82f716	0.25579137

rnn.weight_ih_l0_reverse f4 [1, 2]
0	0xbe3adf4f	-0.18249248
1	0xbf45ca21	-0.7726155

fc1.weight f4 [20, 9]
0	0x3eb460be	0.35230058
1	0xbeddc258	-0.43312335
2	0x3ecc5a1a	0.39912492
3	0x3d7795a3	0.06044544
4	0x3e5d8eae	0.21636459
5	0x3eb953bb	0.36196694
6	0xbe253399	-0.16132964
7	0xbec68f3e	-0.3878116
8	0x3e22f938	0.15915382
9	0xbee771d3	-0.45204028
10	0x3ec0e431	0.37674096
11	0x3d9c7b1a	0.07640667
12	0xbe8fbd25	-0.28073993
13	0x3d911029	0.070831604
14	0x3e32a852	0.17447022
15	0xbe1e700d	-0.15472431
16	0x3e4d7405	0.20063789
17	0xbb69d1aa	-0.0035677948
18	0xbeb6e59c	-0.35722053
19	0x3e2ebe56	0.17064795
20	0x3e302e60	0.1720519
21	0x3e5f1468	0.21785128
22	0xbd5ec479	-0.05438659
23	0xbed8a373	-0.42312202
24	0xbd9af8cb	-0.07566985
25	0xbd4f5d04	-0.050625816
26	0xbecdd646	-0.4020254
27	0xbe60c413	-0.21949796
28	0x3e56b0ff	0.20965956
29	0x3ed26675	0.41093794
30	0xbe98c134	-0.29834902
31	0xbe0e1c95	-0.1387809
32	0xbe0533ab	-0.13007991
33	0xbde728e0	-0.11287093
34	0xbe66a650	-0.2252438
35	0xbf005728	-0.5013299
36	0xbce4d8e1	-0.027935447
37	0x3ecec5fa	0.4038542
38	0xbe8c8720	-0.27446842
39	0xbebbc789	-0.3667567
40	0xbeabd66f	-0.33562037
41	0xbea30eee	-0.31847328
42	0x3ec0e17d	0.37672034
43	0xbe8cee0f	-0.27525374
44	0xbeb3319f	-0.34998795
45	0x3e0fcf69	0.14043964
46	0xbe542ecf	-0.20720981
47	0xbdcb54a5	-0.09928254
48	0xbecdf5e1	-0.40226653
49	0xbe381864	-0.17978054
50	0x3ea964d4	0.33084738
51	0xbeeb5fe7	-0.45971605
52	0xbe9e4104	-0.30908978
53	0x3e798845	0.24368389
54	0x3dc1a362	0.09454991
55	0x3c004685	0.007829313
56	0x3ebfae8a	0.3743785
57	0x3d802238	0.06256527
58	0xbd5f9eca	-0.054594792
59	0xbe9e79a1	-0.3095217
60	0x3eae18d2	0.3400331
61	0xbd8bb9ab	-0.06822523
62	0xbe8dab73	-0.27669868
63	0xbdb979fc	-0.0905647
64	0xbdec67ad	-0.11543212
65	0xbe5160d0	-0.20447087
66	0x3ecd7636	0.4012925
67	0x3ecc2da6	0.39878577
68	0xbeb97196	-0.36219472
69	0xbe8ea774	-0.27862132
70	0x3e022c40	0.12712193
71	0xbe4758e2	-0.194675
72	0xbdc9a81a	-0.09846516
73	0xbe629fd5	-0.22131284
74	0xbe33ad35	-0.17546542
75	0x3d104782	0.035224445
76	0x3ebad5a6	0.36491126
77	0x3e6403f5	0.22267134
78	0x3e3e9201	0.18610384
79	0xbea2a7fe	-0.31768793
80	0x3e1faddc	0.15593666
81	0xbdcb9703	-0.099409126
82	0x3e8d3dcf	0.2758622
83	0x3e9ff58c	0.31242025
84	0x3d872195	0.06598202
85	0x3e981fd5	0.29711786
86	0xbee95ca5	-0.45578495
87	0xbea17fe3	-0.31542882
88	0xbeca9809	-0.3956912
89	0xbeaa576c	-0.33269823
90	0xbe613bc8	-0.21995461
91	0x3c99980f	0.018749265
92	0xbe8d572c	-0.2760557
93	0x3e0bbc5b	0.1364607
94	0xbd4714e3	-0.048603904
95	0x3df9ea4b	0.12202891
96	0x3eb05130	0.3443694
97	0x3e8c456c	0.27396715
98	0x3e74814b	0.23877446
99	0xbe6019d0	-0.21884847
100	0xbeda35fd	-0.42619315
101	0xbed058fc	-0.4069289
102	0xbece3c8a	-0.40280563
103	0xbe2276ed	-0.15865679
104	0x3eb4ef3d	0.35338774
105	0x3ee87ffd	0.45410147
106	0x3eb38caf	0.3506827
107	0x3ead3ce9	0.33835533
108	0xbe04d782	-0.12972835
109	0xbe07b4e2	-0.13252595
110	0xbd4d5327	-0.05012813
111	0x3d02d489	0.03194097
112	0xbee53926	-0.44770163
113	0xbe694588	-0.2278043
114	0xbe57384f	-0.21017574
115	0xbde5c082	-0.112183586
116	0x3d6bf6df	0.05760848
117	0xbebabab1	-0.3647056
118	0xbe85949a	-0.26089936
119	0x3dcdac92	0.10042681
120	0xbec928e7	-0.3928902
121	0x3e936781	0.28789905
122	0xbe8b725d	-0.2723569
123	0xbe616f17	-0.22015034
124	0xbd7dfeb0	-0.062010467
125	0x3ed00587	0.40629217
126	0x3e1e036c	0.15430993
127	0xbd9a9042	-0.07547046
128	0x3e0ea694	0.13930732
129	0x39136f70	0.00014060526
130	0xbbcf21b2	-0.0063211555
131	0x3dbf0427	0.09326964
132	0x3eb98e80	0.3624153
133	0x3ec812c0	0.39076805
134	0x3e6e9da0	0.23302317
135	0xbe85dc90	-0.26144838
136	0xbcbe76ce	-0.02325001
137	0x3df0932f	0.11746823
138	0xbe58cbb7	-0.21171461
139	0x3b3f3bf8	0.0029180031
140	0xbe110dd3	-0.1416543
141	0xbdf785aa	-0.12086041
142	0x3dd5bf81	0.10436917
143	0xbe918110	-0.2841878
144	0xbe1899f8	-0.14902484
145	0xbde139b0	-0.10997331
146	0x3db30d81	0.0874281
147	0xbd392a7a	-0.045206524
148	0x3e8006b0	0.25005102
149	0x3e1976cc	0.14986724
150	0x3ecf4cd0	0.4048829
151	0xbeaa368f	-0.3324475
152	0x3e2c7399	0.16840972
153	0xbec32201	-0.3811188
154	0x3eca53ef	0.3951716
155	0x3e9599de	0.29218954
156	0xbce880d7	-0.028381748
157	0x3e571206	0.21002969
158	0xbdc69641	-0.096966274
159	0xbeb89fb8	-0.36059356
160	0x3e4ef8c4	0.20212084
161	0x3e614da2	0.22002271
162	0xbe0b3dda	-0.13597813
163	0x3e4977ea	0.1967465
164	0x3ed361e0	0.4128561
165	0x3ef4dfc1	0.4782696
166	0xbd4a87c9	-0.0494459
167	0x3de60789	0.11231906
168	0x3ecd7be8	0.40133595
169	0x3db855da	0.0900075
170	0xbd8abf00	-0.067747116
171	0xbe9b12d2	-0.30287796
172	0xbea4b195	-0.32166734
173	0xbe1a5d23	-0.15074591
174	0x3e2e39a6	0.17014179
175	0x3e0f9473	0.14021473
176	0xbe5a60e9	-0.21326031
177	0xbea12247	-0.31471464
178	0x3ece45b5	0.40287557
179	0x3ea87154	0.32898962

fc1.bias f4 [20]
0	0xbb35c73c	-0.002773716
1	0xbc7c09b7	-0.015383176
2	0xbb7f677f	-0.00389716
3	0xbc6ef45f	-0.01458463
4	0x3cec8299	0.028870868
5	0x3ce39393	0.02778033
6	0x3c5b983c	0.013402995
7	0x3cdee024	0.027206488
8	0x3cfb7ab9	0.030698167
9	0x3caae1f2	0.020859692
10	0x3ccb7462	0.02483577
11	0xbcca241a	-0.024675418
12	0xbcb582dc	-0.022157125
13	0x3d522340	0.05130315
14	0xbcc32f35	-0.023826221
15	0xbcd25402	-0.025674824
16	0x3cc54492	0.024080548
17	0xbd1f666e	-0.038916044
18	0xbce03cad	-0.027372682
19	0x3d5e5762	0.054282553

fc2.weight f4 [1, 20]
0	0x3e19549a	0.14973679
1	0xbe7f0154	-0.2490285
2	0x3e47b1bc	0.19501394
3	0xbe579a54	-0.21054965
4	0x3ecb8e13	0.39756832
5	0x3e034475	0.12819083
6	0xbef8e38f	-0.48611113
7	0x3a0149cb	0.00049319555
8	0x3d1cb292	0.038256235
9	0x3ec449de	0.38337606
10	0x3ec6d00d	0.38830605
11	0xbeace842	-0.3377095
12	0xbeccdcb6	-0.4001214
13	0x3ebe2a9c	0.37141883
14	0xbd500335	-0.05078431
15	0xbecfd8bf	-0.40595052
16	0x3e8ff5e2	0.2811728
17	0xbe8e9952	-0.2785135
18	0xbe059d94	-0.13048393
19	0x3db19ab3	0.08672085
